mnk_transformer/probing_checkpoints/ckpt4.pt (torch, 13666 bytes, 20 tensors)

transformer.wte.weight f4 [11, 12]
0	0x3d2c0904	0.042000785
1	0x3d0fdf79	0.03512523
2	0xbb7352a5	-0.0037128117
3	0xbc81a91b	-0.015827706
4	0xbb23bdf6	-0.0024985052
5	0xbc582dad	-0.013194484
6	0xbe806e12	-0.25083977
7	0x3d281dd8	0.041044086
8	0x3c78e7a5	0.015191947
9	0x3c2d0ee8	0.010562636
10	0xbb4bfb37	-0.0031125078
11	0x3db59685	0.088666
12	0x3dc1b346	0.09458022
13	0xbd691d1b	-0.056912523
14	0xbd3d2983	-0.046182167
15	0xbe1f1ad9	-0.15537585
16	0x3dd61aeb	0.10454353
17	0x3c42527a	0.011860484
18	0x3cc6ad62	0.024252597
19	0x3dd63edf	0.104612105
20	0xbe010db2	-0.1260288
21	0xbcce0f42	-0.02515376
22	0x3d1619e1	0.036645774
23	0x3c605f60	0.013694614
24	0x3d7496d2	0.059714146
25	0xbd9a956b	-0.075480305
26	0x3da7121e	0.081577525
27	0x3d20777f	0.03917646
28	0x3de6e043	0.11273243
29	0x3d6dbdfe	0.05804252
30	0xbd71464f	-0.058904942
31	0xbdfc17a4	-0.123091966
32	0x3d3449ef	0.04401582
33	0x3ce42e50	0.027854115
34	0x3bde48d1	0.0067835827
35	0xbe5cc5c0	-0.2155981
36	0x3d027cde	0.031857364
37	0x3b272c1d	0.0025508471
38	0xbc241e11	-0.010016934
39	0xbd1deb24	-0.038554326
40	0x3b7aa3b6	0.0038244552
41	0xbbdb14b4	-0.0066858176
42	0x3cec62f8	0.028855786
43	0xbe2d9f67	-0.16955338
44	0x3d8751d8	0.06607407
45	0xbe5dbf95	-0.21655114
46	0x3c8cd99a	0.017193604
47	0x3e016d90	0.12639451
48	0x3c220719	0.0098893875
49	0xbb93b43c	-0.0045075696
50	0x3cf87363	0.030328458
51	0xbdfc1a1d	-0.12309668
52	0xbd202c78	-0.03910491
53	0xbd9e60a9	-0.0773328
54	0x3d687da2	0.056760438
55	0x3d356fd1	0.04429609
56	0x3e2d2527	0.16908704
57	0x3d9ecf43	0.07754376
58	0x3bdaf827	0.006682414
59	0x3c0cf2cd	0.00860281
60	0x3d0944c7	0.033512857
61	0x3da74efc	0.08169362
62	0x3e718e75	0.235895
63	0xbc2247bb	-0.009904797
64	0xbdec19c1	-0.1152835
65	0xbd488b1d	-0.048960794
66	0x3d17bc99	0.037045095
67	0xbb92e97c	-0.0044834
68	0xbe0479fe	-0.12937161
69	0x3cc6e80d	0.024280572
70	0xbc33c364	-0.010971878
71	0x3cc1fede	0.0236811
72	0x3d8b5952	0.06804146
73	0xbe072fe7	-0.13201867
74	0xbd1e7b53	-0.03869183
75	0x3d4adea7	0.049528744
76	0xbd66aa70	-0.056314886
77	0xbbae8185	-0.0053254985
78	0x3c324879	0.010881537
79	0xbd3e99db	-0.046533447
80	0xbcbb415b	-0.022858312
81	0x3db93511	0.09043325
82	0xbdb2381c	-0.08702108
83	0x3dfbe417	0.12299364
84	0x3b4d4794	0.0031323181
85	0xbd88e728	-0.066847146
86	0xbc700ae0	-0.01465103
87	0x3df00368	0.117194
88	0xbdb250ab	-0.087067924
89	0xbd426ad3	-0.047465157
90	0xbbc22428	-0.0059247203
91	0x3e27c702	0.16384509
92	0x3d3a76ca	0.045523442
93	0xbdef103d	-0.11673019
94	0xbd117765	-0.035514254
95	0xbd7e47c3	-0.062080156
96	0x3cfeabfa	0.031087864
97	0x3e20dfeb	0.15710418
98	0xbe409a43	-0.18808846
99	0x3d93d796	0.07218854
100	0xbba2ebe5	-0.0049719685
101	0xbdeeddb0	-0.11663377
102	0x3d1946b5	0.037420947
103	0xbd38d4c9	-0.045124803
104	0xbd357ccc	-0.04430847
105	0x3d8f6d64	0.070032865
106	0x3d2a9374	0.04164453
107	0xbd1e86a6	-0.03870263
108	0xbdc537f1	-0.096298106
109	0xbb196969	-0.0023408777
110	0xbbde7839	-0.006789234
111	0x3be67f8e	0.0070342487
112	0xbd92b705	-0.071638145
113	0x3daba30b	0.08380707
114	0x3bdb95cd	0.0067012073
115	0xbcb9a2e2	-0.022660676
116	0xbc294946	-0.010332411
117	0x3bb37ad0	0.005477287
118	0x3e82b483	0.25528345
119	0xbc2efc66	-0.010680294
120	0xc0404b3c	-3.004592
121	0x3f108709	0.5645605
122	0xbe8bcc3d	-0.2730426
123	0x3d2ebdfa	0.042661645
124	0x3ecc2c90	0.39877748
125	0x3ff83fab	1.939443
126	0x3e6203c2	0.22071746
127	0x3e26f37a	0.16303816
128	0xbe887fc2	-0.2665997
129	0x3de1d27b	0.11026474
130	0xbf63fb6e	-0.89055526
131	0x3bcafd06	0.0061947135

transformer.wpe.weight f4 [10, 12]
0	0xbc0ebc12	-0.008711832
1	0xbba31963	-0.0049773916
2	0x3c5549d3	0.013018089
3	0x3c2022b3	0.009773898
4	0xbb1b1c52	-0.0023668003
5	0xbcc0ba1d	-0.023526246
6	0x3a0651ba	0.00051238725
7	0xbc407783	-0.011747244
8	0xbb3195e0	-0.002709739
9	0x3aa7fdbd	0.0012816709
10	0x3dc7570f	0.09733402
11	0xbbcddf3e	-0.006282716
12	0x3d1614ce	0.036640935
13	0xbbd243ad	-0.006416759
14	0xbc8ca8b6	-0.017170291
15	0xbc0d9d94	-0.008643527
16	0xbd78fde4	-0.060789004
17	0x3d088978	0.033334225
18	0x3bd2cb4b	0.006432926
19	0xbb2d75c0	-0.002646789
20	0xbb7b41a4	-0.0038338685
21	0xbb9c0a6b	-0.004761984
22	0x3d623d03	0.055233967
23	0xbc46426f	-0.0121008
24	0x3cf109b0	0.029423565
25	0xbcbf0430	-0.023317426
26	0x3b2ba578	0.0026191156
27	0x3bb51c75	0.005527074
28	0xbc5dcbd3	-0.013537365
29	0xbcc71b1c	-0.024304919
30	0x3b897d3a	0.0041958364
31	0x3c0a7a09	0.008451947
32	0xbb92e5b9	-0.0044829515
33	0xbba6da56	-0.0050919456
34	0x3d84cd6e	0.06484495
35	0xb8ca8b56	-9.658064e-05
36	0x3d110aaf	0.03541058
37	0xbb315f7c	-0.002706497
38	0xbc81fbd3	-0.01586715
39	0xbc26d794	-0.010183234
40	0xbd572958	-0.052529663
41	0x3cf8d4c8	0.0303749
42	0x3baae60c	0.005215412
43	0xba8509df	-0.0010150037
44	0xbb53ec5b	-0.0032336924
45	0xbb163a75	-0.0022923027
46	0x3d09026d	0.03344958
47	0xbc31f5ee	-0.010861857
48	0x3ccc0739	0.024905788
49	0xbc858583	-0.016299015
50	0x3b822523	0.003971712
51	0x3b984f5d	0.0046481327
52	0xbbc02f48	-0.0058650114
53	0xbcd6c462	-0.02621669
54	0x3b513d4b	0.0031927403
55	0x3c1a1f52	0.009406881
56	0xbb94af93	-0.0045375316
57	0xbba47e69	-0.005019952
58	0x3d239e4c	0.039945886
59	0x3af834bb	0.0018936613
60	0x3ce448f2	0.027866814
61	0x3bb1ba38	0.0054238103
62	0xbc844ca6	-0.01614983
63	0xbc7ba379	-0.015358799
64	0xbd329cd3	-0.04360659
65	0x3cd38768	0.025821403
66	0x3b1d8089	0.0024032912
67	0xbaed85cc	-0.001812154
68	0xbba278e5	-0.0049582594
69	0xbbb8cda6	-0.0056397496
70	0x3bb7aec7	0.005605552
71	0xbc5774d3	-0.013150412
72	0x3c755f86	0.014976388
73	0xbc341516	-0.010991355
74	0x3b4e2b0e	0.0031458768
75	0xbb28fa02	-0.0025783782
76	0x3b2035fe	0.0024446244
77	0xbd0cc77b	-0.034369927
78	0xbac651a2	-0.001513053
79	0x3c0255f5	0.007955064
80	0xbbe1a2fb	-0.006885884
81	0xbbd08739	-0.006363776
82	0x3c16b978	0.009199493
83	0xb9a9d8eb	-0.00032395808
84	0x3cd9746b	0.02654477
85	0x3c87dca9	0.016584711
86	0xbc95fddb	-0.018309524
87	0xbcaa49dd	-0.020787174
88	0xbd26b4cc	-0.040699765
89	0x3cdcf233	0.026970958
90	0x3b59afca	0.003321635
91	0x3b35f2eb	0.0027763199
92	0xbb9c5a82	-0.0047715316
93	0xbc001248	-0.007816859
94	0xbc9e733c	-0.019342057
95	0xbc5a39af	-0.013319417
96	0x3bc87b41	0.0061182086
97	0xbc2325df	-0.00995776
98	0x3b4a0c2b	0.0030830007
99	0xbba7c053	-0.0051193624
100	0x3c622ad0	0.013804153
101	0xbd1e20d5	-0.03860553
102	0xba690b53	-0.0008889932
103	0x3c4b6beb	0.012415866
104	0xbc1ae1ce	-0.00945325
105	0xbbfd89ad	-0.0077373595
106	0xbc7f8c99	-0.015597486
107	0x3b6532f5	0.0034973
108	0xbe5d2b2e	-0.21598503
109	0x3e893baf	0.26803347
110	0x3dab5bab	0.08367094
111	0xbd8ff9d9	-0.070300765
112	0xbcd77a2d	-0.026303375
113	0x3e843455	0.25821176
114	0x3cec15d0	0.028818995
115	0x3d81578f	0.063155286
116	0xbdd126a0	-0.10212445
117	0x3cda90fb	0.02668046
118	0xbe8c56f8	-0.27410102
119	0xbd7fc6f9	-0.062445614

transformer.h.0.ln_1.weight f4 [12]
0	0x40324954	2.7857256
1	0x401a0bb7	2.406965
2	0x401ee19f	2.4825208
3	0x4029bc47	2.6521165
4	0x40126951	2.287678
5	0x4030a27e	2.7599177
6	0x402a0f36	2.6571784
7	0x40206493	2.5061386
8	0x403833bb	2.8781574
9	0x4034e47f	2.8264463
10	0x3fe5a6d8	1.7941542
11	0x401c0c4b	2.4382503

transformer.h.0.attn.c_attn.weight f4 [36, 12]
0	0x3d989ad5	0.07451407
1	0x3df9da0f	0.121997945
2	0xbded15a7	-0.115763955
3	0xbc631c5e	-0.013861744
4	0xbe0dc9b1	-0.1384647
5	0x3ea11489	0.3146098
6	0x3da23801	0.07920838
7	0xbd6af5e2	-0.0573634
8	0xbc1adc9e	-0.009452013
9	0x3c155297	0.009113929
10	0xbe340921	-0.17581607
11	0xbccbe217	-0.024888081
12	0x3d8de8e1	0.06929184
13	0xbe0f68c6	-0.14004812
14	0xbd4d0144	-0.050050035
15	0x3d626a0f	0.055276927
16	0xbcf23aa9	-0.029568987
17	0xbb7f6fa8	-0.0038976464
18	0x3cbc7585	0.023005256
19	0x3c60064b	0.013673375
20	0xbd2b2b82	-0.04178954
21	0x3d5333dd	0.051563133
22	0x3deaa2b4	0.114568144
23	0x3d84c102	0.06482126
24	0xbd82fbc7	-0.06395679
25	0x3d0f8461	0.035038356
26	0xbce25968	-0.027630523
27	0x3d945dc6	0.07244448
28	0x3d8478ba	0.06468339
29	0x3d7f7c10	0.062374175
30	0x3d310624	0.043218747
31	0x3d1f73b3	0.0389287
32	0xbd431735	-0.047629554
33	0xbd2fb78b	-0.04289965
34	0xbe82b360	-0.25527477
35	0xbc9dbe05	-0.019255647
36	0xbc07ec4f	-0.008296086
37	0x3d0c102c	0.03419511
38	0xbd48becf	-0.049010094
39	0x3c89b153	0.016808188
40	0xbe2f6c20	-0.1713109
41	0x3e3c4ca1	0.18388607
42	0xbd115136	-0.03547784
43	0xbd017eea	-0.031615175
44	0xbcb3bbe1	-0.021940174
45	0xbcdd407d	-0.02700829
46	0x3e411ae3	0.18857913
47	0xbd1cda00	-0.03829384
48	0xbce5dfaa	-0.028060753
49	0xbd9945d4	-0.07484022
50	0xbc86000c	-0.016357444
51	0xbccdf8ed	-0.025143111
52	0xbdf76fce	-0.12081872
53	0x3d65ee8f	0.05613571
54	0x3e050e9a	0.12993851
55	0xbd0b6384	-0.034030452
56	0x3d794046	0.06085231
57	0x3cf783a3	0.030214136
58	0x3e498ffc	0.19683832
59	0xbd606803	-0.054786693
60	0x3e1f91f1	0.15583016
61	0x3d6065de	0.054784648
62	0xbcc89ef7	-0.024489863
63	0xbd331061	-0.043716792
64	0xbe1a38a2	-0.15060666
65	0x3e41d46f	0.18928693
66	0xbbf228bc	-0.00739011
67	0xbcc2d84f	-0.023784785
68	0xbd1f0b3a	-0.038829066
69	0x3d37670f	0.04477602
70	0xbe3b865b	-0.18312971
71	0xbd00af2e	-0.031417064
72	0x3c905873	0.0176203
73	0xbdb77291	-0.08957399
74	0x3c2d168e	0.0105644595
75	0x3de82484	0.1133509
76	0xbcf95ce5	-0.030439803
77	0xbe1047f7	-0.14089952
78	0xbd84e9d8	-0.06489915
79	0xbd38f22b	-0.045152824
80	0xbc967f16	-0.018371146
81	0xbca4ccc4	-0.020117171
82	0x3ea0c320	0.3139887
83	0x3c56f34f	0.013119533
84	0x3d24b571	0.0402121
85	0x3d9fa90f	0.07795917
86	0xbd2c4fea	-0.0420684
87	0xbc92d553	-0.017923987
88	0xbe30d887	-0.17270099
89	0x3dbc23a1	0.09186483
90	0xbe215b9d	-0.15757604
91	0x3d84c21f	0.06482338
92	0x3d871eb0	0.0659765
93	0xbd0cd5ab	-0.034383457
94	0x3b50c871	0.0031857754
95	0xbd6ab8d4	-0.057305172
96	0x3ca10437	0.01965533
97	0xbcb9d32f	-0.022683708
98	0x3d2e1d1f	0.04250824
99	0x3d472034	0.048614696
100	0x3e00139d	0.12507482
101	0xbe430718	-0.19045675
102	0x3d64b1e1	0.0558337
103	0xbc905d03	-0.017622476
104	0x3d75b95b	0.059991222
105	0x3cb8e6cb	0.022570988
106	0xbe3bf01b	-0.18353312
107	0x3be0a41e	0.006855502
108	0xbc7603d9	-0.015015566
109	0x3d877f77	0.06616109
110	0xbd8b9a14	-0.068164974
111	0xbd7c3c09	-0.06158069
112	0x3d5803e1	0.052738074
113	0x3db86904	0.09004405
114	0x3d93c86d	0.072159626
115	0x3dd9186f	0.106003635
116	0x3d0ab501	0.033864025
117	0xbd02823e	-0.03186249
118	0xbe95db53	-0.29268894
119	0xbd2e3777	-0.042533364
120	0x3d52a01f	0.051422235
121	0x3db1b02e	0.08676182
122	0xbd43ce14	-0.047803953
123	0xbdaafda8	-0.08349162
124	0xbe6b7a07	-0.22995768
125	0x3e0ee338	0.13953865
126	0x3d8f0f5e	0.06985353
127	0x3c86f770	0.01647541
128	0x3d9d8c02	0.0769272
129	0x3ce8a5e8	0.028399423
130	0xbda57d26	-0.08080511
131	0xbd9260bd	-0.071473576
132	0xbd918641	-0.07105685
133	0xbdacfd6b	-0.08446773
134	0x3d403ff2	0.046935983
135	0x3deff106	0.117158934
136	0x3d9ba928	0.07600623
137	0xbd63dacb	-0.05562858
138	0x3d7123f5	0.058872182
139	0xbba8ff72	-0.0051574046
140	0xbd399563	-0.045308482
141	0xbcacd24e	-0.021096375
142	0xbe29db01	-0.1658745
143	0x3d8669e2	0.06563164
144	0x3defe935	0.117144026
145	0x3e5a8792	0.21340778
146	0xbd09ce7b	-0.03364418
147	0xbe3c9943	-0.1841784
148	0xbe97851e	-0.29593748
149	0x3ea65172	0.32484013
150	0xbc939fa9	-0.018020468
151	0x3d349265	0.044084925
152	0x3dd90069	0.10595781
153	0x3d273561	0.04082239
154	0xbde9305a	-0.113861755
155	0xbd6f1937	-0.058373656
156	0xbdb05b84	-0.08611205
157	0xbc9de73d	-0.019275302
158	0x390fdf33	0.00013720691
159	0xbd875528	-0.06608039
160	0xbd07eecf	-0.03318673
161	0xbce69da9	-0.02815135
162	0xbd6cc6a3	-0.057806622
163	0x3d834185	0.06408981
164	0x3c5ba86f	0.013406857
165	0xbda5540f	-0.080726735
166	0x3e65c27d	0.22437473
167	0xbdd320a7	-0.10308962
168	0x3dffe9e4	0.12495783
169	0x3d1e3de6	0.03863325
170	0x3bc1c625	0.0059135132
171	0xbd0cb621	-0.03435338
172	0xbd071699	-0.032980535
173	0xbd61a0b3	-0.055084895
174	0xbd0407ac	-0.03223388
175	0x3e054251	0.13013579
176	0x3e0d7076	0.13812432
177	0x3cff54eb	0.031168422
178	0xbe596b0d	-0.21232243
179	0xbd196d55	-0.037457783
180	0xbe28c400	-0.16481018
181	0x3d5fa38f	0.05459934
182	0xbd949355	-0.07254664
183	0xbd818fe9	-0.06326277
184	0xbe42ac13	-0.19010954
185	0x3e96b388	0.29433846
186	0x3d324f84	0.043532863
187	0x3cd7eef5	0.02635906
188	0x3dbad747	0.09123092
189	0x3df49029	0.11941559
190	0x3c12edb4	0.008967806
191	0x3c1079b3	0.008818078
192	0xbe28e01e	-0.16491744
193	0x3da134b9	0.07871384
194	0xbda5529b	-0.08072396
195	0x3d8c6c20	0.06856561
196	0xbdf508d4	-0.119645745
197	0x3e3e03a2	0.18556073
198	0xbe94babb	-0.29048714
199	0x3c741b77	0.014899126
200	0xbd908332	-0.070562735
201	0x392d29f4	0.00016514194
202	0x3def1963	0.11674764
203	0x3dac335e	0.08408235
204	0x3dc50573	0.0962018
205	0x3e3cf8e3	0.18454318
206	0xbd963aff	-0.07335471
207	0xbdb1e780	-0.08686733
208	0xbded4094	-0.11584583
209	0x3e3a4a87	0.18192492
210	0x3d7c04a3	0.06152786
211	0xbd16b3fb	-0.036792737
212	0x3cf3d396	0.029763978
213	0x3b6a32c1	0.0035735818
214	0x3b315f36	0.0027064807
215	0xbe0bbf06	-0.13647088
216	0xbe4dde07	-0.20104228
217	0xbdc37308	-0.09543425
218	0x3d8c983f	0.06864976
219	0x3d56c4c5	0.052433748
220	0xba32c8a6	-0.000682006
221	0xbde9c18a	-0.11413868
222	0xbcaeeed8	-0.021354124
223	0xbd335444	-0.043781534
224	0x3c5493be	0.012974678
225	0x3d2ecf83	0.042678367
226	0x3e3de389	0.18543829
227	0xb9963419	-0.00028649045
228	0xbd1a98a4	-0.037743226
229	0x3cf7df23	0.030257767
230	0xbd7a4fa8	-0.061111122
231	0x3db7cea1	0.08974958
232	0xbe32b4c5	-0.1745177
233	0x3e58f600	0.21187592
234	0x3e608573	0.21925907
235	0x3c851a1c	0.016247801
236	0x3b2f917d	0.0026789599
237	0xbd004da1	-0.031324033
238	0xbd9a9065	-0.07547072
239	0xbd7c0ec6	-0.061537527
240	0x3e0c9a9a	0.13730851
241	0xbb0d9bf7	-0.0021607855
242	0x3e26f2cb	0.16303556
243	0x3e143571	0.14473511
244	0x3dd404ee	0.10352503
245	0xbe9b9b48	-0.30391908
246	0xbdd3c21e	-0.10339759
247	0xbd7e52ea	-0.06209079
248	0xbd8d8104	-0.069093734
249	0xbd6bac74	-0.05753751
250	0xbba41032	-0.0050068134
251	0xbb735a06	-0.0037132516
252	0x3e53e110	0.20691323
253	0x3cb0f344	0.021600373
254	0xbceb1cf8	-0.028700337
255	0xbc055c18	-0.008139633

transformer.h.0.attn.c_proj.weight f4 [12, 12]
0	0x3be58bd4	0.007005194
1	0xbe29e8a9	-0.16592659
2	0xbcae2918	-0.02125983
3	0x3d14987b	0.03627823
4	0xbe0a42e6	-0.13502082
5	0xbdd8aaa5	-0.10579423
6	0xbd135af5	-0.035975415
7	0x3d969a1d	0.073536135
8	0xbdac489b	-0.08412286
9	0xba8e9f04	-0.0010881131
10	0x3ddd8397	0.108161144
11	0xbca9d66b	-0.020732125
12	0x3db8de75	0.09026805
13	0xbb45db6d	-0.0030190602
14	0xbe625992	-0.22104481
15	0x3cf52f2d	0.029929722
16	0x3d3100f6	0.043213807
17	0x3d8f52ac	0.0699819
18	0xbe0f646b	-0.1400315
19	0x3da2b762	0.07945134
20	0xbca65f66	-0.020309161
21	0xbcd67a44	-0.026181348
22	0x3b51cbae	0.0032012272
23	0xbdcad3f9	-0.09903712
24	0x3e297a0d	0.16550465
25	0xbcf4ac25	-0.029867241
26	0xbd813346	-0.06308608
27	0xbd80a4f7	-0.062814645
28	0xbcbd829d	-0.02313357
29	0xbb5f11d3	-0.0034037724
30	0x3c9d1d31	0.019178959
31	0xbd32c301	-0.043643
32	0x3df84bde	0.121238455
33	0xbdf5f6b2	-0.12009944
34	0xbce4525b	-0.027871301
35	0x3e189c09	0.14903273
36	0xbccb4f56	-0.024818104
37	0x3ced8763	0.028995221
38	0xbe15a3a4	-0.14613205
39	0x3c0748f4	0.0082571395
40	0x3deee5be	0.116649136
41	0xbd5f1e35	-0.054472167
42	0x3e4163c2	0.18885711
43	0xbe33e7d6	-0.17568907
44	0xbdf8ec28	-0.12154418
45	0xbc59bd91	-0.013289825
46	0x3d9473b7	0.07248633
47	0x3c7fad3b	0.015605266
48	0xbdf88b53	-0.12135949
49	0x3b954450	0.0045552626
50	0x3c6595a1	0.014012725
51	0x3c5bcdd7	0.013415775
52	0xbde25282	-0.11050893
53	0x3dc9713c	0.09836051
54	0x3d9b4e3a	0.0758328
55	0x3e16f848	0.1474315
56	0xbd80ab96	-0.062827274
57	0x3c9d04c6	0.019167315
58	0xbd59779c	-0.053092584
59	0x3e082684	0.13295943
60	0x3cb91db3	0.02259717
61	0x3daf1b67	0.085501485
62	0x3e275b7d	0.16343494
63	0xbe349879	-0.17636289
64	0x38907fbe	6.890249e-05
65	0xbd65e69f	-0.05612814
66	0xbdb2239e	-0.086982
67	0x3cb73963	0.022366231
68	0xbd96e81e	-0.073684916
69	0x3db389a2	0.08766486
70	0x3e2f9404	0.17146307
71	0xbc7b3682	-0.01533282
72	0xbd14f43e	-0.03636574
73	0xbd2c3862	-0.04204596
74	0xbd37a2a9	-0.04483286
75	0x3c0b4633	0.0085006235
76	0xbcfe7e31	-0.031066032
77	0xbdea8bf5	-0.11452476
78	0xbdb4d981	-0.08830548
79	0xbd899f81	-0.06719876
80	0x3d83608c	0.06414899
81	0x3e51c8eb	0.204868
82	0xbda2ba5c	-0.079457015
83	0x3bbe5f0b	0.00580967
84	0xbd9c7f59	-0.07641477
85	0xbdc31f73	-0.09527483
86	0x3d985f56	0.07440059
87	0xbd0dc9d3	-0.034616303
88	0x3dbe2f96	0.0928642
89	0xbdbacf53	-0.09121575
90	0x3d5860dd	0.05282675
91	0x3cbadc3d	0.022810096
92	0x3e83200f	0.25610396
93	0xbc8cb3e7	-0.017175628
94	0x3dd0dc38	0.101982534
95	0xbe1f68e6	-0.1556736
96	0x3d1fdca4	0.03902878
97	0xbd884b40	-0.06654978
98	0x3ddf20b7	0.10894912
99	0x3e2efaf9	0.17087926
100	0x3e14bfcc	0.1452629
101	0x3dea3c11	0.11437238
102	0xbda36d42	-0.07979824
103	0xbd5f6fff	-0.054550167
104	0xbc1d29c4	-0.009592477
105	0xbc32b431	-0.010907219
106	0x3ac97fa1	0.0015373119
107	0x3d749dac	0.05972068
108	0x3d1e591f	0.03865921
109	0x3e2e2b91	0.17008807
110	0x3d268f2e	0.04066389
111	0x3e06d1be	0.13165948
112	0xbd7508a3	-0.05982269
113	0xbd440ff8	-0.04786679
114	0x3d9944f8	0.07483858
115	0x3d9c0ec6	0.07620005
116	0xbc7c75b2	-0.01540892
117	0xbcf97220	-0.030449927
118	0xbd9f3b77	-0.07775014
119	0x3d4a6041	0.0494082
120	0xbdd5ab44	-0.10433057
121	0x3dfa868b	0.12232693
122	0x3d3c283f	0.04593682
123	0xbd2ace45	-0.04170062
124	0xbc9fd65f	-0.0195114
125	0x3d2a3c4c	0.04156141
126	0xbd8a89b4	-0.06764546
127	0xbc498fee	-0.012302382
128	0x3cdf56da	0.027263094
129	0xbe0a3c61	-0.13499595
130	0xbd414a8a	-0.047190227
131	0xbcaa2a6f	-0.020772187
132	0x3d4569a4	0.04819645
133	0x3c4cebc3	0.012507382
134	0x3d27a084	0.040924564
135	0xbdf40756	-0.11915462
136	0xbd65e8db	-0.05613027
137	0x3e145b78	0.14488018
138	0x3e1fa9f5	0.15592177
139	0xbcaf814f	-0.021423964
140	0xbcc6e0c3	-0.024277097
141	0x3db8dfae	0.090270385
142	0xbdf6dc2c	-0.12053713
143	0xbd8be7c8	-0.06831318

transformer.h.0.ln_2.weight f4 [12]
0	0x40a54046	5.164096
1	0x406615bd	3.5950768
2	0x407493d3	3.8215225
3	0x4076abe7	3.854242
4	0x4086609f	4.1992946
5	0x407a35de	3.9095378
6	0x40549b9e	3.3219981
7	0x407609b3	3.844342
8	0x404b83cd	3.1799195
9	0x407be0c6	3.935594
10	0x4099874d	4.797766
11	0x404e123d	3.2198632

transformer.h.0.mlp.c_fc.weight f4 [48, 12]
0	0x3d0ecada	0.034861423
1	0x3d2b9eb5	0.0418994
2	0x3cb552db	0.022134235
3	0xbbb6f8ba	-0.0055838497
4	0x3c1b1869	0.009466269
5	0xbd7b8ad2	-0.061411686
6	0xbc02783b	-0.0079632355
7	0xbd057b08	-0.032588035
8	0x3d38a56d	0.045079637
9	0xbd17a61f	-0.03702366
10	0x3cd19241	0.025582435
11	0xbc2bbbb8	-0.010481767
12	0xbcdf27eb	-0.027240714
13	0xbd9e8646	-0.077404544
14	0x3dd71e88	0.1050387
15	0xbdbbd8bc	-0.09172198
16	0x3d122328	0.03567806
17	0x3d0b0046	0.033935808
18	0x3d074ebb	0.033034068
19	0xbd9da4f1	-0.07697476
20	0x3d8b854e	0.06812535
21	0xbe088c1c	-0.13334697
22	0xbc1f8754	-0.009736855
23	0x3ddf7bad	0.10912261
24	0x3d031357	0.032000866
25	0x3c00e565	0.007867192
26	0xbd564cbd	-0.052319277
27	0x3d0450a8	0.032303482
28	0xbadd940f	-0.0016905087
29	0xbce1eefb	-0.027579775
30	0x3c37bf47	0.011215038
31	0x3cdb633b	0.026780715
32	0xbdb71160	-0.08938861
33	0xbcb9b2ff	-0.02266836
34	0xbddc2f50	-0.10751212
35	0x3e0f5516	0.13997301
36	0xbd2cce0d	-0.042188693
37	0xbc138cab	-0.009005706
38	0x3d04dd4b	0.032437604
39	0xbd049891	-0.03237206
40	0xbbbeac26	-0.0058188615
41	0x3c0e7ce2	0.008696767
42	0x3ddc6135	0.10760728
43	0xbc273a9d	-0.010206846
44	0xbc924e4d	-0.017859602
45	0x3a258c9f	0.00063152047
46	0x3c171bff	0.009222983
47	0xbd419819	-0.047264192
48	0xbe75503c	-0.23956388
49	0x3e0a65da	0.13515416
50	0x3d81a322	0.06329943
51	0x3e2840d0	0.16430974
52	0xbbae83b7	-0.00532576
53	0xbca50976	-0.020146113
54	0xbd29eab4	-0.041483596
55	0xbde5004e	-0.11181699
56	0x3e11e524	0.14247566
57	0x3c0b5389	0.008503803
58	0xbe405cad	-0.18785353
59	0xbc005e2f	-0.007834955
60	0x3d1afc4b	0.03783826
61	0x3cf0febc	0.029418342
62	0xbdc0f05b	-0.09420844
63	0x3df75f28	0.120786965
64	0x3c94415c	0.018097572
65	0xbd6b8bfc	-0.057506546
66	0x3e144904	0.14480978
67	0xbdafab41	-0.08577586
68	0xbdbd91b1	-0.09256304
69	0x3d4b3ec5	0.04962041
70	0x3cfa5e8d	0.030562663
71	0x3bb67e19	0.005569231
72	0xbb38a360	-0.002817355
73	0xbe0d1fb7	-0.1378163
74	0x3db87c47	0.09008079
75	0xbd270427	-0.040775444
76	0x3d91d91a	0.07121487
77	0x3d727c9f	0.05920088
78	0x3d0bcdcf	0.03413182
79	0xbd3b5013	-0.04573066
80	0xbd742f59	-0.059615467
81	0xbbc64259	-0.0060503897
82	0xbddd60e3	-0.10809495
83	0x3dcafcdb	0.099115096
84	0xbd2da3ec	-0.042392656
85	0xbd8aec3c	-0.067833394
86	0x3ddebfba	0.10876413
87	0xbd827503	-0.063699745
88	0x3d439e1a	0.0477582
89	0x3e1ed0a8	0.15509284
90	0xbd2f868a	-0.042852916
91	0x3d47138b	0.048602622
92	0xbcd1b7c6	-0.025600325
93	0xbd02dc1e	-0.0319482
94	0xbddf0dc1	-0.10891295
95	0x3d41d168	0.047318846
96	0x3c48cba3	0.012255582
97	0x3e883823	0.2660533
98	0xbe11597b	-0.1419429
99	0x3d86c8ec	0.065812916
100	0x3caa9b5e	0.020826038
101	0xbd4286b6	-0.04749175
102	0x3dbe8cd0	0.093042016
103	0xbd6efc4c	-0.058346078
104	0xbd9dd775	-0.07707111
105	0x3d274e52	0.040846176
106	0x3cbba8ca	0.022907633
107	0xbddf326f	-0.10898291
108	0xbd17244c	-0.03689985
109	0xbd08a6f7	-0.033362355
110	0xbb791afe	-0.0038010473
111	0x3ccb70b5	0.024834016
112	0x3c4e65f8	0.012597553
113	0x3bf42dbb	0.0074517406
114	0xbc849fe5	-0.016189525
115	0x3dfcb1e2	0.12338616
116	0xbd828647	-0.063732676
117	0x3e2646a3	0.16237883
118	0xbd0816ac	-0.033224747
119	0xbd5763d0	-0.052585423
120	0xbeabfdaa	-0.33591968
121	0x3e216e36	0.15764698
122	0xbd9943d1	-0.07483638
123	0x3c03c9dd	0.008043733
124	0x3d9c888b	0.07643231
125	0x3eac754e	0.33683246
126	0x3dd230fa	0.10263248
127	0x3d5ff088	0.054672748
128	0xbe1700eb	-0.14746444
129	0xbdc28219	-0.094974704
130	0xbe40ca64	-0.18827206
131	0xbd50b768	-0.05095616
132	0xbc5d348d	-0.013501299
133	0x3cc48070	0.023987025
134	0x3c368ced	0.011141998
135	0xbd88b284	-0.06674674
136	0x3d96b926	0.07359533
137	0xbca72fc6	-0.020408522
138	0xbb059871	-0.0020385052
139	0xbd58516b	-0.05281202
140	0xbd76de16	-0.06027039
141	0x3d3d09eb	0.046152037
142	0xbcc2edd1	-0.02379504
143	0x3d689dea	0.056791224
144	0xbcbf1d0d	-0.023329282
145	0x3d047a8b	0.03234343
146	0x3d0272a1	0.0318476
147	0x3d3c67bc	0.045997366
148	0x3db0eabd	0.08638523
149	0x3d700ca8	0.05860582
150	0x3d520a53	0.051279377
151	0x3c927dc0	0.017882228
152	0xbd8533f5	-0.06504051
153	0xbdc62330	-0.0967468
154	0xbd38389b	-0.04497586
155	0xbdb9a745	-0.09065107
156	0x3db62f47	0.08895736
157	0x3bbf8b0a	0.005845432
158	0x3e06bb8f	0.13157485
159	0xbc3432c8	-0.010998435
160	0xbdba67e4	-0.09101847
161	0xbdb81703	-0.08988764
162	0xbcd0cd81	-0.025488617
163	0xbcb0a774	-0.021564223
164	0xbd946e14	-0.07247558
165	0x3c6237e6	0.013807273
166	0xbb58442e	-0.0032999623
167	0x3d7211c9	0.059098992
168	0x3d9ae3a4	0.0756295
169	0x3a31b9e0	0.00067797117
170	0xbd30b09c	-0.043137178
171	0x3cf04115	0.029327909
172	0xbd028aa0	-0.031870484
173	0x3e0f4ff9	0.13995351
174	0x3c303ea7	0.010757125
175	0x3dacafc6	0.084319636
176	0xbd9ecd6a	-0.077540234
177	0xbd261f3d	-0.040557135
178	0xbceb7fd8	-0.028747484
179	0xbca5a6c8	-0.020221129
180	0x3c019969	0.007910111
181	0xbd672318	-0.056429952
182	0xbc20f151	-0.009823159
183	0x3e1354be	0.14387795
184	0x3cba1af6	0.022717934
185	0x3d20780f	0.039176997
186	0xbd86f575	-0.06589786
187	0xbd14f22e	-0.036363773
188	0xbe48ec7e	-0.19621465
189	0xbd07a621	-0.033117417
190	0x3d643ac0	0.05572009
191	0x3d5c425a	0.053774215
192	0xbcb35d1c	-0.021894984
193	0xbd8b9ddd	-0.068172194
194	0xbd819782	-0.06327726
195	0xbccc8ea3	-0.024970358
196	0x3c614055	0.013748248
197	0x3b74cc4e	0.003735322
198	0x3cff2d0f	0.031149415
199	0x3d36e998	0.044656366
200	0x3d88a4ee	0.06672083
201	0x3d272642	0.04080797
202	0x3c92546c	0.017862521
203	0xbbe26f5f	-0.006910249
204	0x3d200019	0.039062593
205	0x3d9f20b8	0.077699125
206	0xbc84319c	-0.016136937
207	0xbc575bda	-0.013144458
208	0xbc68a5a2	-0.014199646
209	0x3da81133	0.082064055
210	0x3d879c8c	0.06621656
211	0xbdf5c848	-0.12001091
212	0x3d386cfc	0.04502581
213	0xbe301153	-0.17194109
214	0x3baae7db	0.0052156276
215	0x3d8f37fd	0.06993101
216	0x3dbe524b	0.0929304
217	0xbcab41a6	-0.020905327
218	0xbb02831b	-0.001991457
219	0x3d39fe58	0.045408577
220	0x3cf9ecbb	0.03050839
221	0xbb64bf8c	-0.003490421
222	0xbcb314e1	-0.021860542
223	0xbcea3362	-0.028588954
224	0xbc4d7adc	-0.012541499
225	0x3d00e4d8	0.031468242
226	0xbdf58152	-0.119875565
227	0x3cb96b1f	0.022634087
228	0x3de9691f	0.113970034
229	0xbd76cb9e	-0.06025278
230	0xbb001194	-0.0019541727
231	0x3caea94b	0.02132096
232	0x3c577081	0.013149382
233	0xbd14491a	-0.036202528
234	0x3d93c224	0.07214764
235	0xbbbc8b45	-0.005753907
236	0xbb59ed89	-0.0033253154
237	0x3cfdb2d6	0.030969065
238	0xbddf41d2	-0.10901226
239	0x3ce91fd3	0.028457558
240	0x3d183a4c	0.03716497
241	0x3dfabf1e	0.12243484
242	0xbc599ae5	-0.013281559
243	0x3d7bbca0	0.061459184
244	0x3c400422	0.011719735
245	0x3c84c24d	0.016205931
246	0xbd19df9d	-0.03756677
247	0xbd13c830	-0.036079586
248	0xbd3d5c1a	-0.046230413
249	0xbd1f6dfa	-0.03892324
250	0x3924b853	0.00015708925
251	0xbc49940e	-0.012303365
252	0x3e4a941f	0.19783066
253	0x39cd97ac	0.0003921365
254	0xbd2228b1	-0.039589588
255	0x3d716a4f	0.058939274

transformer.h.0.mlp.c_proj.weight f4 [12, 48]
0	0xbc3bcdf3	-0.011462676
1	0xbda17b33	-0.078848265
2	0xbddfe4ff	-0.109323494
3	0x3cf200fc	0.029541485
4	0x3af4182a	0.0018622924
5	0x3dce15e6	0.100627705
6	0x3de8694d	0.113482095
7	0xbde3cc0d	-0.11122904
8	0xbd2a5985	-0.04158928
9	0xbd938071	-0.07202233
10	0xbe85d1dd	-0.26136675
11	0x3d9dd240	0.07706118
12	0xbdaad033	-0.08340492
13	0xbdd5a337	-0.104315214
14	0x3d94f3ac	0.07273039
15	0xbd6ba398	-0.057529062
16	0x3c1bd03c	0.009510096
17	0xbdd8e939	-0.10591359
18	0xbc3d6ec2	-0.011562051
19	0xbccf4fa0	-0.025306523
20	0xbdd39a48	-0.10332161
21	0xbc1e8cec	-0.009677153
22	0xbc494062	-0.012283416
23	0xbcdf540b	-0.027261754
24	0x3c4a89b9	0.012361937
25	0xbd998f4c	-0.07498035
26	0x3bac9287	0.005266491
27	0xbdbcc6d0	-0.09217608
28	0xbdf22c74	-0.11824885
29	0xbdd732f8	-0.105077684
30	0xbc2f5922	-0.010702403
31	0x3dfe07f4	0.12403861
32	0xbcf94c61	-0.030431928
33	0xbbc16149	-0.00590149
34	0xbbb55e63	-0.0055349334
35	0xbd5f4eba	-0.05451844
36	0xbe076e66	-0.13225707
37	0x3d1a10f6	0.03761383
38	0xbd6e236f	-0.05813926
39	0xbcb62ce2	-0.022238199
40	0x3d4eb566	0.050465964
41	0xbd494be8	-0.049144655
42	0xbd8145a4	-0.06312111
43	0x3e0f271c	0.13979763
44	0x3dc6344a	0.09677942
45	0x3d10131e	0.03517448
46	0x3e19ff0a	0.15038696
47	0x3e051bac	0.12998837
48	0x3d037f47	0.032103803
49	0x3c9239b3	0.017849779
50	0x3d8927b6	0.066970274
51	0xb98eac7b	-0.0002721286
52	0xbcc09686	-0.023509275
53	0xbca3be5a	-0.019988228
54	0xbd199198	-0.037492365
55	0x3d112d25	0.035443444
56	0xbd85ba50	-0.06529677
57	0xbce22fda	-0.027610708
58	0x3da282c2	0.07935096
59	0x3d311f99	0.043243024
60	0x3d5495c7	0.05190065
61	0x3d3adc1d	0.045620073
62	0xbc7f3a1d	-0.01557782
63	0x3d0c743b	0.034290534
64	0x3d13b473	0.03606076
65	0x3c8a8c7f	0.016912697
66	0x3db1488f	0.086564176
67	0x3e1d2447	0.1534587
68	0x3c2021cc	0.009773683
69	0xbdba5ebe	-0.09100102
70	0x3d83fac8	0.06444317
71	0x3d8d5465	0.069008626
72	0x3cca7ed5	0.024718681
73	0x3d48dff0	0.04904169
74	0xbc6e8d98	-0.014560126
75	0x3c743de5	0.014907335
76	0x3c985c4c	0.018598698
77	0x3ca2b459	0.019861387
78	0x3d7d1368	0.061786085
79	0xbd16f9d5	-0.036859352
80	0xbab88853	-0.0014078714
81	0xbc19df1c	-0.009391572
82	0x3d36e957	0.044656124
83	0x3d424a37	0.047434058
84	0x3d4c7642	0.049917467
85	0xbd71de4b	-0.059049886
86	0xbb68570f	-0.0035452282
87	0xbd11cf33	-0.03559799
88	0xbc1ce9bd	-0.009577212
89	0xbc8a72d3	-0.016900456
90	0x3a1691a3	0.00057437475
91	0x3c478404	0.012177471
92	0xbb33997b	-0.0027404714
93	0x3d34010f	0.043946322
94	0xbcbbf4ad	-0.022943819
95	0xbd17452b	-0.036931198
96	0xbcf57c09	-0.029966371
97	0xbc40cfe3	-0.011768314
98	0xbc1f5d6c	-0.009726863
99	0x3bf12b80	0.007359922
100	0xbd1900ac	-0.037354156
101	0x3c10dcbe	0.008841692
102	0x3c3c26f4	0.0114838965
103	0xbc8417aa	-0.016124565
104	0x3dcfa8a2	0.10139586
105	0xbbb259fd	-0.0054428563
106	0xbc559450	-0.013035849
107	0xbb52d511	-0.0032170455
108	0xbcab3282	-0.020898107
109	0x3c918be0	0.017766893
110	0x3c813b79	0.01577543
111	0x3b25e183	0.0025311417
112	0xbd433f53	-0.047667813
113	0xbc25e2db	-0.010124887
114	0x3d32f5b2	0.043691345
115	0x3d22a3a1	0.03970683
116	0x3c002c08	0.007822998
117	0xbd085620	-0.03328526
118	0x3d01d34f	0.03169566
119	0xbb6a36db	-0.0035738263
120	0x3cda1165	0.026619622
121	0xb985c2a8	-0.00025512767
122	0xbb7efd26	-0.0038908212
123	0xbcfc72c0	-0.030816436
124	0x3c1ef002	0.009700777
125	0xbac261ee	-0.0014830211
126	0xbb7e4dcd	-0.0038803697
127	0x3c81c787	0.015842212
128	0xbb34ef95	-0.0027608622
129	0xbb8739d9	-0.004126769
130	0xbd0f1581	-0.034932617
131	0xbc9a5aa6	-0.018842053
132	0xbb1e57fe	-0.0024161334
133	0x3d938f6b	0.07205089
134	0xbc1ebd51	-0.009688691
135	0xbde1bf49	-0.11022813
136	0xbba3695f	-0.0049869264
137	0xbc21acb7	-0.009867839
138	0x3ca9afd0	0.020713717
139	0x3cbaa943	0.022785788
140	0x3c81b597	0.01583366
141	0x3cbe31dc	0.023217134
142	0x3ca553ff	0.020181654
143	0x3aa2b041	0.0012412147
144	0x3d84af5b	0.06478759
145	0xbb9a7914	-0.0047141407
146	0xbd168d56	-0.036755882
147	0x3d1a762e	0.03771036
148	0xbdb91183	-0.09036543
149	0xbace1fc3	-0.0015726018
150	0xbbeb13c0	-0.0071739852
151	0xbb056621	-0.0020355063
152	0xbcd9149a	-0.026499081
153	0x3c123697	0.008924148
154	0xbc61129e	-0.013737349
155	0xbdc9a6d2	-0.098462716
156	0xbce9ed03	-0.028555399
157	0xbc92d1c3	-0.017922288
158	0x3b14bef2	0.002269682
159	0xbdcaf4d1	-0.09909976
160	0x3caa8d5d	0.02081936
161	0x3b384147	0.002811508
162	0xbd704a2f	-0.058664497
163	0xbd1d18ad	-0.03835361
164	0xbcfc8bb9	-0.030828344
165	0x3d398c99	0.0453001
166	0xbd412c72	-0.047161527
167	0xbc6dd6f1	-0.014516578
168	0x3d082a41	0.03324342
169	0xbc14acf5	-0.009074439
170	0x3a9d406f	0.0011997352
171	0xb915d262	-0.00014288121
172	0xbd3dd35c	-0.046344146
173	0x3b9b041f	0.004730716
174	0xbc1f7c55	-0.009734233
175	0x3c29064e	0.010316445
176	0x3c905cb1	0.017622324
177	0x3dc12d59	0.094324775
178	0xbc0c78d7	-0.008573732
179	0xbc6f91d1	-0.014622168
180	0xbc8cc5f4	-0.017184235
181	0x3b07b3b4	0.0020706477
182	0x3c8cc4ae	0.017183628
183	0x3c66d3ce	0.014088584
184	0x3cf75365	0.030191133
185	0x3dd8494a	0.10560854
186	0x3cdb1855	0.026745
187	0x3bcd90f2	0.0062733823
188	0xbc1422d3	-0.009041506
189	0x3d25e8ed	0.04050534
190	0x3c6f543d	0.014607486
191	0xbc223c7d	-0.009902117
192	0x3be17ca9	0.0068813157
193	0xbbb9a147	-0.0056649777
194	0xba665a08	-0.00087872194
195	0xbbebf4e9	-0.0072008264
196	0x3dbd1bf1	0.09233845
197	0xbc906786	-0.017627489
198	0xbc83b587	-0.01607777
199	0x3c922ed0	0.017844588
200	0x3c055326	0.0081375
201	0xbd8db2f9	-0.06918902
202	0x3d1e18ee	0.038597994
203	0xbc16fb81	-0.009215237
204	0xbcb72337	-0.022355659
205	0xbb83dcd6	-0.0040241284
206	0x3ad0c6ba	0.0015928366
207	0xbc6a85b0	-0.0143141
208	0x3cd9d2fd	0.026589865
209	0xbc344c36	-0.011004498
210	0x3d033dde	0.032041423
211	0x3d90f1ac	0.07077345
212	0x3ba58f5d	0.0050524906
213	0xbcfc83b9	-0.030824529
214	0x3bae92b3	0.0053275465
215	0x3c60f059	0.013729178
216	0xbda26606	-0.07929616
217	0x3d4011ae	0.04689186
218	0x3d174813	0.03693397
219	0xbd1efb48	-0.03881386
220	0x3d159294	0.03651674
221	0x3d31a362	0.043368705
222	0x3d0dd1e2	0.034623988
223	0xbc6b967f	-0.014379143
224	0x3d0bf7ef	0.034171995
225	0x3d4d56bd	0.05013155
226	0xbd7fd331	-0.062457267
227	0xbcd0e8c4	-0.025501616
228	0xbc9c8ef3	-0.019111132
229	0xbc955015	-0.018226663
230	0x3c80d571	0.015726777
231	0x3d743697	0.059622373
232	0xbc785982	-0.015158059
233	0xbcdd6ad6	-0.027028482
234	0x3d629528	0.055318028
235	0x3cca8045	0.024719367
236	0xbbf227fa	-0.0073900195
237	0xbdb428d9	-0.087968536
238	0x3bf04945	0.007332953
239	0xbd316cc4	-0.043316618
240	0x3d239156	0.039933525
241	0x3d92eafb	0.07173725
242	0x3dae4a27	0.08510237
243	0xbbb685ea	-0.005570163
244	0x3d191411	0.037372652
245	0xbdae80c9	-0.085206576
246	0xbdbddb14	-0.092703015
247	0x3d9bfc96	0.07616536
248	0x3d86f89b	0.065903865
249	0x3d696bfc	0.056987748
250	0x3e497eef	0.19677328
251	0xbcb7ebab	-0.022451242
252	0x3ced6d8e	0.028982904
253	0x3d7db6c2	0.06194187
254	0xbdb7e6b6	-0.089795515
255	0xbcde0ebc	-0.027106635

transformer.ln_f.weight f4 [12]
0	0x411576af	9.3414755
1	0x414b6a86	12.713507
2	0x412ba6d2	10.728228
3	0x4138dbe9	11.553689
4	0x4138c56e	11.548201
5	0x4113a54d	9.227857
6	0x412f40e4	10.953342
7	0x4122fe8f	10.187148
8	0x413eef8d	11.933484
9	0x41431a32	12.193895
10	0x4110cca4	9.049961
11	0x411c994d	9.787427

lm_head.weight f4 [11, 12]
0	0x3d2c0904	0.042000785
1	0x3d0fdf79	0.03512523
2	0xbb7352a5	-0.0037128117
3	0xbc81a91b	-0.015827706
4	0xbb23bdf6	-0.0024985052
5	0xbc582dad	-0.013194484
6	0xbe806e12	-0.25083977
7	0x3d281dd8	0.041044086
8	0x3c78e7a5	0.015191947
9	0x3c2d0ee8	0.010562636
10	0xbb4bfb37	-0.0031125078
11	0x3db59685	0.088666
12	0x3dc1b346	0.09458022
13	0xbd691d1b	-0.056912523
14	0xbd3d2983	-0.046182167
15	0xbe1f1ad9	-0.15537585
16	0x3dd61aeb	0.10454353
17	0x3c42527a	0.011860484
18	0x3cc6ad62	0.024252597
19	0x3dd63edf	0.104612105
20	0xbe010db2	-0.1260288
21	0xbcce0f42	-0.02515376
22	0x3d1619e1	0.036645774
23	0x3c605f60	0.013694614
24	0x3d7496d2	0.059714146
25	0xbd9a956b	-0.075480305
26	0x3da7121e	0.081577525
27	0x3d20777f	0.03917646
28	0x3de6e043	0.11273243
29	0x3d6dbdfe	0.05804252
30	0xbd71464f	-0.058904942
31	0xbdfc17a4	-0.123091966
32	0x3d3449ef	0.04401582
33	0x3ce42e50	0.027854115
34	0x3bde48d1	0.0067835827
35	0xbe5cc5c0	-0.2155981
36	0x3d027cde	0.031857364
37	0x3b272c1d	0.0025508471
38	0xbc241e11	-0.010016934
39	0xbd1deb24	-0.038554326
40	0x3b7aa3b6	0.0038244552
41	0xbbdb14b4	-0.0066858176
42	0x3cec62f8	0.028855786
43	0xbe2d9f67	-0.16955338
44	0x3d8751d8	0.06607407
45	0xbe5dbf95	-0.21655114
46	0x3c8cd99a	0.017193604
47	0x3e016d90	0.12639451
48	0x3c220719	0.0098893875
49	0xbb93b43c	-0.0045075696
50	0x3cf87363	0.030328458
51	0xbdfc1a1d	-0.12309668
52	0xbd202c78	-0.03910491
53	0xbd9e60a9	-0.0773328
54	0x3d687da2	0.056760438
55	0x3d356fd1	0.04429609
56	0x3e2d2527	0.16908704
57	0x3d9ecf43	0.07754376
58	0x3bdaf827	0.006682414
59	0x3c0cf2cd	0.00860281
60	0x3d0944c7	0.033512857
61	0x3da74efc	0.08169362
62	0x3e718e75	0.235895
63	0xbc2247bb	-0.009904797
64	0xbdec19c1	-0.1152835
65	0xbd488b1d	-0.048960794
66	0x3d17bc99	0.037045095
67	0xbb92e97c	-0.0044834
68	0xbe0479fe	-0.12937161
69	0x3cc6e80d	0.024280572
70	0xbc33c364	-0.010971878
71	0x3cc1fede	0.0236811
72	0x3d8b5952	0.06804146
73	0xbe072fe7	-0.13201867
74	0xbd1e7b53	-0.03869183
75	0x3d4adea7	0.049528744
76	0xbd66aa70	-0.056314886
77	0xbbae8185	-0.0053254985
78	0x3c324879	0.010881537
79	0xbd3e99db	-0.046533447
80	0xbcbb415b	-0.022858312
81	0x3db93511	0.09043325
82	0xbdb2381c	-0.08702108
83	0x3dfbe417	0.12299364
84	0x3b4d4794	0.0031323181
85	0xbd88e728	-0.066847146
86	0xbc700ae0	-0.01465103
87	0x3df00368	0.117194
88	0xbdb250ab	-0.087067924
89	0xbd426ad3	-0.047465157
90	0xbbc22428	-0.0059247203
91	0x3e27c702	0.16384509
92	0x3d3a76ca	0.045523442
93	0xbdef103d	-0.11673019
94	0xbd117765	-0.035514254
95	0xbd7e47c3	-0.062080156
96	0x3cfeabfa	0.031087864
97	0x3e20dfeb	0.15710418
98	0xbe409a43	-0.18808846
99	0x3d93d796	0.07218854
100	0xbba2ebe5	-0.0049719685
101	0xbdeeddb0	-0.11663377
102	0x3d1946b5	0.037420947
103	0xbd38d4c9	-0.045124803
104	0xbd357ccc	-0.04430847
105	0x3d8f6d64	0.070032865
106	0x3d2a9374	0.04164453
107	0xbd1e86a6	-0.03870263
108	0xbdc537f1	-0.096298106
109	0xbb196969	-0.0023408777
110	0xbbde7839	-0.006789234
111	0x3be67f8e	0.0070342487
112	0xbd92b705	-0.071638145
113	0x3daba30b	0.08380707
114	0x3bdb95cd	0.0067012073
115	0xbcb9a2e2	-0.022660676
116	0xbc294946	-0.010332411
117	0x3bb37ad0	0.005477287
118	0x3e82b483	0.25528345
119	0xbc2efc66	-0.010680294
120	0xc0404b3c	-3.004592
121	0x3f108709	0.5645605
122	0xbe8bcc3d	-0.2730426
123	0x3d2ebdfa	0.042661645
124	0x3ecc2c90	0.39877748
125	0x3ff83fab	1.939443
126	0x3e6203c2	0.22071746
127	0x3e26f37a	0.16303816
128	0xbe887fc2	-0.2665997
129	0x3de1d27b	0.11026474
130	0xbf63fb6e	-0.89055526
131	0x3bcafd06	0.0061947135

transformer.wte.weight f4 [11, 12]
0	0x3d2c0904	0.042000785
1	0x3d0fdf79	0.03512523
2	0xbb7352a5	-0.0037128117
3	0xbc81a91b	-0.015827706
4	0xbb23bdf6	-0.0024985052
5	0xbc582dad	-0.013194484
6	0xbe806e12	-0.25083977
7	0x3d281dd8	0.041044086
8	0x3c78e7a5	0.015191947
9	0x3c2d0ee8	0.010562636
10	0xbb4bfb37	-0.0031125078
11	0x3db59685	0.088666
12	0x3dc1b346	0.09458022
13	0xbd691d1b	-0.056912523
14	0xbd3d2983	-0.046182167
15	0xbe1f1ad9	-0.15537585
16	0x3dd61aeb	0.10454353
17	0x3c42527a	0.011860484
18	0x3cc6ad62	0.024252597
19	0x3dd63edf	0.104612105
20	0xbe010db2	-0.1260288
21	0xbcce0f42	-0.02515376
22	0x3d1619e1	0.036645774
23	0x3c605f60	0.013694614
24	0x3d7496d2	0.059714146
25	0xbd9a956b	-0.075480305
26	0x3da7121e	0.081577525
27	0x3d20777f	0.03917646
28	0x3de6e043	0.11273243
29	0x3d6dbdfe	0.05804252
30	0xbd71464f	-0.058904942
31	0xbdfc17a4	-0.123091966
32	0x3d3449ef	0.04401582
33	0x3ce42e50	0.027854115
34	0x3bde48d1	0.0067835827
35	0xbe5cc5c0	-0.2155981
36	0x3d027cde	0.031857364
37	0x3b272c1d	0.0025508471
38	0xbc241e11	-0.010016934
39	0xbd1deb24	-0.038554326
40	0x3b7aa3b6	0.0038244552
41	0xbbdb14b4	-0.0066858176
42	0x3cec62f8	0.028855786
43	0xbe2d9f67	-0.16955338
44	0x3d8751d8	0.06607407
45	0xbe5dbf95	-0.21655114
46	0x3c8cd99a	0.017193604
47	0x3e016d90	0.12639451
48	0x3c220719	0.0098893875
49	0xbb93b43c	-0.0045075696
50	0x3cf87363	0.030328458
51	0xbdfc1a1d	-0.12309668
52	0xbd202c78	-0.03910491
53	0xbd9e60a9	-0.0773328
54	0x3d687da2	0.056760438
55	0x3d356fd1	0.04429609
56	0x3e2d2527	0.16908704
57	0x3d9ecf43	0.07754376
58	0x3bdaf827	0.006682414
59	0x3c0cf2cd	0.00860281
60	0x3d0944c7	0.033512857
61	0x3da74efc	0.08169362
62	0x3e718e75	0.235895
63	0xbc2247bb	-0.009904797
64	0xbdec19c1	-0.1152835
65	0xbd488b1d	-0.048960794
66	0x3d17bc99	0.037045095
67	0xbb92e97c	-0.0044834
68	0xbe0479fe	-0.12937161
69	0x3cc6e80d	0.024280572
70	0xbc33c364	-0.010971878
71	0x3cc1fede	0.0236811
72	0x3d8b5952	0.06804146
73	0xbe072fe7	-0.13201867
74	0xbd1e7b53	-0.03869183
75	0x3d4adea7	0.049528744
76	0xbd66aa70	-0.056314886
77	0xbbae8185	-0.0053254985
78	0x3c324879	0.010881537
79	0xbd3e99db	-0.046533447
80	0xbcbb415b	-0.022858312
81	0x3db93511	0.09043325
82	0xbdb2381c	-0.08702108
83	0x3dfbe417	0.12299364
84	0x3b4d4794	0.0031323181
85	0xbd88e728	-0.066847146
86	0xbc700ae0	-0.01465103
87	0x3df00368	0.117194
88	0xbdb250ab	-0.087067924
89	0xbd426ad3	-0.047465157
90	0xbbc22428	-0.0059247203
91	0x3e27c702	0.16384509
92	0x3d3a76ca	0.045523442
93	0xbdef103d	-0.11673019
94	0xbd117765	-0.035514254
95	0xbd7e47c3	-0.062080156
96	0x3cfeabfa	0.031087864
97	0x3e20dfeb	0.15710418
98	0xbe409a43	-0.18808846
99	0x3d93d796	0.07218854
100	0xbba2ebe5	-0.0049719685
101	0xbdeeddb0	-0.11663377
102	0x3d1946b5	0.037420947
103	0xbd38d4c9	-0.045124803
104	0xbd357ccc	-0.04430847
105	0x3d8f6d64	0.070032865
106	0x3d2a9374	0.04164453
107	0xbd1e86a6	-0.03870263
108	0xbdc537f1	-0.096298106
109	0xbb196969	-0.0023408777
110	0xbbde7839	-0.006789234
111	0x3be67f8e	0.0070342487
112	0xbd92b705	-0.071638145
113	0x3daba30b	0.08380707
114	0x3bdb95cd	0.0067012073
115	0xbcb9a2e2	-0.022660676
116	0xbc294946	-0.010332411
117	0x3bb37ad0	0.005477287
118	0x3e82b483	0.25528345
119	0xbc2efc66	-0.010680294
120	0xc0404b3c	-3.004592
121	0x3f108709	0.5645605
122	0xbe8bcc3d	-0.2730426
123	0x3d2ebdfa	0.042661645
124	0x3ecc2c90	0.39877748
125	0x3ff83fab	1.939443
126	0x3e6203c2	0.22071746
127	0x3e26f37a	0.16303816
128	0xbe887fc2	-0.2665997
129	0x3de1d27b	0.11026474
130	0xbf63fb6e	-0.89055526
131	0x3bcafd06	0.0061947135

transformer.wpe.weight f4 [10, 12]
0	0xbc0ebc12	-0.008711832
1	0xbba31963	-0.0049773916
2	0x3c5549d3	0.013018089
3	0x3c2022b3	0.009773898
4	0xbb1b1c52	-0.0023668003
5	0xbcc0ba1d	-0.023526246
6	0x3a0651ba	0.00051238725
7	0xbc407783	-0.011747244
8	0xbb3195e0	-0.002709739
9	0x3aa7fdbd	0.0012816709
10	0x3dc7570f	0.09733402
11	0xbbcddf3e	-0.006282716
12	0x3d1614ce	0.036640935
13	0xbbd243ad	-0.006416759
14	0xbc8ca8b6	-0.017170291
15	0xbc0d9d94	-0.008643527
16	0xbd78fde4	-0.060789004
17	0x3d088978	0.033334225
18	0x3bd2cb4b	0.006432926
19	0xbb2d75c0	-0.002646789
20	0xbb7b41a4	-0.0038338685
21	0xbb9c0a6b	-0.004761984
22	0x3d623d03	0.055233967
23	0xbc46426f	-0.0121008
24	0x3cf109b0	0.029423565
25	0xbcbf0430	-0.023317426
26	0x3b2ba578	0.0026191156
27	0x3bb51c75	0.005527074
28	0xbc5dcbd3	-0.013537365
29	0xbcc71b1c	-0.024304919
30	0x3b897d3a	0.0041958364
31	0x3c0a7a09	0.008451947
32	0xbb92e5b9	-0.0044829515
33	0xbba6da56	-0.0050919456
34	0x3d84cd6e	0.06484495
35	0xb8ca8b56	-9.658064e-05
36	0x3d110aaf	0.03541058
37	0xbb315f7c	-0.002706497
38	0xbc81fbd3	-0.01586715
39	0xbc26d794	-0.010183234
40	0xbd572958	-0.052529663
41	0x3cf8d4c8	0.0303749
42	0x3baae60c	0.005215412
43	0xba8509df	-0.0010150037
44	0xbb53ec5b	-0.0032336924
45	0xbb163a75	-0.0022923027
46	0x3d09026d	0.03344958
47	0xbc31f5ee	-0.010861857
48	0x3ccc0739	0.024905788
49	0xbc858583	-0.016299015
50	0x3b822523	0.003971712
51	0x3b984f5d	0.0046481327
52	0xbbc02f48	-0.0058650114
53	0xbcd6c462	-0.02621669
54	0x3b513d4b	0.0031927403
55	0x3c1a1f52	0.009406881
56	0xbb94af93	-0.0045375316
57	0xbba47e69	-0.005019952
58	0x3d239e4c	0.039945886
59	0x3af834bb	0.0018936613
60	0x3ce448f2	0.027866814
61	0x3bb1ba38	0.0054238103
62	0xbc844ca6	-0.01614983
63	0xbc7ba379	-0.015358799
64	0xbd329cd3	-0.04360659
65	0x3cd38768	0.025821403
66	0x3b1d8089	0.0024032912
67	0xbaed85cc	-0.001812154
68	0xbba278e5	-0.0049582594
69	0xbbb8cda6	-0.0056397496
70	0x3bb7aec7	0.005605552
71	0xbc5774d3	-0.013150412
72	0x3c755f86	0.014976388
73	0xbc341516	-0.010991355
74	0x3b4e2b0e	0.0031458768
75	0xbb28fa02	-0.0025783782
76	0x3b2035fe	0.0024446244
77	0xbd0cc77b	-0.034369927
78	0xbac651a2	-0.001513053
79	0x3c0255f5	0.007955064
80	0xbbe1a2fb	-0.006885884
81	0xbbd08739	-0.006363776
82	0x3c16b978	0.009199493
83	0xb9a9d8eb	-0.00032395808
84	0x3cd9746b	0.02654477
85	0x3c87dca9	0.016584711
86	0xbc95fddb	-0.018309524
87	0xbcaa49dd	-0.020787174
88	0xbd26b4cc	-0.040699765
89	0x3cdcf233	0.026970958
90	0x3b59afca	0.003321635
91	0x3b35f2eb	0.0027763199
92	0xbb9c5a82	-0.0047715316
93	0xbc001248	-0.007816859
94	0xbc9e733c	-0.019342057
95	0xbc5a39af	-0.013319417
96	0x3bc87b41	0.0061182086
97	0xbc2325df	-0.00995776
98	0x3b4a0c2b	0.0030830007
99	0xbba7c053	-0.0051193624
100	0x3c622ad0	0.013804153
101	0xbd1e20d5	-0.03860553
102	0xba690b53	-0.0008889932
103	0x3c4b6beb	0.012415866
104	0xbc1ae1ce	-0.00945325
105	0xbbfd89ad	-0.0077373595
106	0xbc7f8c99	-0.015597486
107	0x3b6532f5	0.0034973
108	0xbe5d2b2e	-0.21598503
109	0x3e893baf	0.26803347
110	0x3dab5bab	0.08367094
111	0xbd8ff9d9	-0.070300765
112	0xbcd77a2d	-0.026303375
113	0x3e843455	0.25821176
114	0x3cec15d0	0.028818995
115	0x3d81578f	0.063155286
116	0xbdd126a0	-0.10212445
117	0x3cda90fb	0.02668046
118	0xbe8c56f8	-0.27410102
119	0xbd7fc6f9	-0.062445614

transformer.h.0.ln_1.weight f4 [12]
0	0x40324954	2.7857256
1	0x401a0bb7	2.406965
2	0x401ee19f	2.4825208
3	0x4029bc47	2.6521165
4	0x40126951	2.287678
5	0x4030a27e	2.7599177
6	0x402a0f36	2.6571784
7	0x40206493	2.5061386
8	0x403833bb	2.8781574
9	0x4034e47f	2.8264463
10	0x3fe5a6d8	1.7941542
11	0x401c0c4b	2.4382503

transformer.h.0.attn.c_attn.weight f4 [36, 12]
0	0x3d989ad5	0.07451407
1	0x3df9da0f	0.121997945
2	0xbded15a7	-0.115763955
3	0xbc631c5e	-0.013861744
4	0xbe0dc9b1	-0.1384647
5	0x3ea11489	0.3146098
6	0x3da23801	0.07920838
7	0xbd6af5e2	-0.0573634
8	0xbc1adc9e	-0.009452013
9	0x3c155297	0.009113929
10	0xbe340921	-0.17581607
11	0xbccbe217	-0.024888081
12	0x3d8de8e1	0.06929184
13	0xbe0f68c6	-0.14004812
14	0xbd4d0144	-0.050050035
15	0x3d626a0f	0.055276927
16	0xbcf23aa9	-0.029568987
17	0xbb7f6fa8	-0.0038976464
18	0x3cbc7585	0.023005256
19	0x3c60064b	0.013673375
20	0xbd2b2b82	-0.04178954
21	0x3d5333dd	0.051563133
22	0x3deaa2b4	0.114568144
23	0x3d84c102	0.06482126
24	0xbd82fbc7	-0.06395679
25	0x3d0f8461	0.035038356
26	0xbce25968	-0.027630523
27	0x3d945dc6	0.07244448
28	0x3d8478ba	0.06468339
29	0x3d7f7c10	0.062374175
30	0x3d310624	0.043218747
31	0x3d1f73b3	0.0389287
32	0xbd431735	-0.047629554
33	0xbd2fb78b	-0.04289965
34	0xbe82b360	-0.25527477
35	0xbc9dbe05	-0.019255647
36	0xbc07ec4f	-0.008296086
37	0x3d0c102c	0.03419511
38	0xbd48becf	-0.049010094
39	0x3c89b153	0.016808188
40	0xbe2f6c20	-0.1713109
41	0x3e3c4ca1	0.18388607
42	0xbd115136	-0.03547784
43	0xbd017eea	-0.031615175
44	0xbcb3bbe1	-0.021940174
45	0xbcdd407d	-0.02700829
46	0x3e411ae3	0.18857913
47	0xbd1cda00	-0.03829384
48	0xbce5dfaa	-0.028060753
49	0xbd9945d4	-0.07484022
50	0xbc86000c	-0.016357444
51	0xbccdf8ed	-0.025143111
52	0xbdf76fce	-0.12081872
53	0x3d65ee8f	0.05613571
54	0x3e050e9a	0.12993851
55	0xbd0b6384	-0.034030452
56	0x3d794046	0.06085231
57	0x3cf783a3	0.030214136
58	0x3e498ffc	0.19683832
59	0xbd606803	-0.054786693
60	0x3e1f91f1	0.15583016
61	0x3d6065de	0.054784648
62	0xbcc89ef7	-0.024489863
63	0xbd331061	-0.043716792
64	0xbe1a38a2	-0.15060666
65	0x3e41d46f	0.18928693
66	0xbbf228bc	-0.00739011
67	0xbcc2d84f	-0.023784785
68	0xbd1f0b3a	-0.038829066
69	0x3d37670f	0.04477602
70	0xbe3b865b	-0.18312971
71	0xbd00af2e	-0.031417064
72	0x3c905873	0.0176203
73	0xbdb77291	-0.08957399
74	0x3c2d168e	0.0105644595
75	0x3de82484	0.1133509
76	0xbcf95ce5	-0.030439803
77	0xbe1047f7	-0.14089952
78	0xbd84e9d8	-0.06489915
79	0xbd38f22b	-0.045152824
80	0xbc967f16	-0.018371146
81	0xbca4ccc4	-0.020117171
82	0x3ea0c320	0.3139887
83	0x3c56f34f	0.013119533
84	0x3d24b571	0.0402121
85	0x3d9fa90f	0.07795917
86	0xbd2c4fea	-0.0420684
87	0xbc92d553	-0.017923987
88	0xbe30d887	-0.17270099
89	0x3dbc23a1	0.09186483
90	0xbe215b9d	-0.15757604
91	0x3d84c21f	0.06482338
92	0x3d871eb0	0.0659765
93	0xbd0cd5ab	-0.034383457
94	0x3b50c871	0.0031857754
95	0xbd6ab8d4	-0.057305172
96	0x3ca10437	0.01965533
97	0xbcb9d32f	-0.022683708
98	0x3d2e1d1f	0.04250824
99	0x3d472034	0.048614696
100	0x3e00139d	0.12507482
101	0xbe430718	-0.19045675
102	0x3d64b1e1	0.0558337
103	0xbc905d03	-0.017622476
104	0x3d75b95b	0.059991222
105	0x3cb8e6cb	0.022570988
106	0xbe3bf01b	-0.18353312
107	0x3be0a41e	0.006855502
108	0xbc7603d9	-0.015015566
109	0x3d877f77	0.06616109
110	0xbd8b9a14	-0.068164974
111	0xbd7c3c09	-0.06158069
112	0x3d5803e1	0.052738074
113	0x3db86904	0.09004405
114	0x3d93c86d	0.072159626
115	0x3dd9186f	0.106003635
116	0x3d0ab501	0.033864025
117	0xbd02823e	-0.03186249
118	0xbe95db53	-0.29268894
119	0xbd2e3777	-0.042533364
120	0x3d52a01f	0.051422235
121	0x3db1b02e	0.08676182
122	0xbd43ce14	-0.047803953
123	0xbdaafda8	-0.08349162
124	0xbe6b7a07	-0.22995768
125	0x3e0ee338	0.13953865
126	0x3d8f0f5e	0.06985353
127	0x3c86f770	0.01647541
128	0x3d9d8c02	0.0769272
129	0x3ce8a5e8	0.028399423
130	0xbda57d26	-0.08080511
131	0xbd9260bd	-0.071473576
132	0xbd918641	-0.07105685
133	0xbdacfd6b	-0.08446773
134	0x3d403ff2	0.046935983
135	0x3deff106	0.117158934
136	0x3d9ba928	0.07600623
137	0xbd63dacb	-0.05562858
138	0x3d7123f5	0.058872182
139	0xbba8ff72	-0.0051574046
140	0xbd399563	-0.045308482
141	0xbcacd24e	-0.021096375
142	0xbe29db01	-0.1658745
143	0x3d8669e2	0.06563164
144	0x3defe935	0.117144026
145	0x3e5a8792	0.21340778
146	0xbd09ce7b	-0.03364418
147	0xbe3c9943	-0.1841784
148	0xbe97851e	-0.29593748
149	0x3ea65172	0.32484013
150	0xbc939fa9	-0.018020468
151	0x3d349265	0.044084925
152	0x3dd90069	0.10595781
153	0x3d273561	0.04082239
154	0xbde9305a	-0.113861755
155	0xbd6f1937	-0.058373656
156	0xbdb05b84	-0.08611205
157	0xbc9de73d	-0.019275302
158	0x390fdf33	0.00013720691
159	0xbd875528	-0.06608039
160	0xbd07eecf	-0.03318673
161	0xbce69da9	-0.02815135
162	0xbd6cc6a3	-0.057806622
163	0x3d834185	0.06408981
164	0x3c5ba86f	0.013406857
165	0xbda5540f	-0.080726735
166	0x3e65c27d	0.22437473
167	0xbdd320a7	-0.10308962
168	0x3dffe9e4	0.12495783
169	0x3d1e3de6	0.03863325
170	0x3bc1c625	0.0059135132
171	0xbd0cb621	-0.03435338
172	0xbd071699	-0.032980535
173	0xbd61a0b3	-0.055084895
174	0xbd0407ac	-0.03223388
175	0x3e054251	0.13013579
176	0x3e0d7076	0.13812432
177	0x3cff54eb	0.031168422
178	0xbe596b0d	-0.21232243
179	0xbd196d55	-0.037457783
180	0xbe28c400	-0.16481018
181	0x3d5fa38f	0.05459934
182	0xbd949355	-0.07254664
183	0xbd818fe9	-0.06326277
184	0xbe42ac13	-0.19010954
185	0x3e96b388	0.29433846
186	0x3d324f84	0.043532863
187	0x3cd7eef5	0.02635906
188	0x3dbad747	0.09123092
189	0x3df49029	0.11941559
190	0x3c12edb4	0.008967806
191	0x3c1079b3	0.008818078
192	0xbe28e01e	-0.16491744
193	0x3da134b9	0.07871384
194	0xbda5529b	-0.08072396
195	0x3d8c6c20	0.06856561
196	0xbdf508d4	-0.119645745
197	0x3e3e03a2	0.18556073
198	0xbe94babb	-0.29048714
199	0x3c741b77	0.014899126
200	0xbd908332	-0.070562735
201	0x392d29f4	0.00016514194
202	0x3def1963	0.11674764
203	0x3dac335e	0.08408235
204	0x3dc50573	0.0962018
205	0x3e3cf8e3	0.18454318
206	0xbd963aff	-0.07335471
207	0xbdb1e780	-0.08686733
208	0xbded4094	-0.11584583
209	0x3e3a4a87	0.18192492
210	0x3d7c04a3	0.06152786
211	0xbd16b3fb	-0.036792737
212	0x3cf3d396	0.029763978
213	0x3b6a32c1	0.0035735818
214	0x3b315f36	0.0027064807
215	0xbe0bbf06	-0.13647088
216	0xbe4dde07	-0.20104228
217	0xbdc37308	-0.09543425
218	0x3d8c983f	0.06864976
219	0x3d56c4c5	0.052433748
220	0xba32c8a6	-0.000682006
221	0xbde9c18a	-0.11413868
222	0xbcaeeed8	-0.021354124
223	0xbd335444	-0.043781534
224	0x3c5493be	0.012974678
225	0x3d2ecf83	0.042678367
226	0x3e3de389	0.18543829
227	0xb9963419	-0.00028649045
228	0xbd1a98a4	-0.037743226
229	0x3cf7df23	0.030257767
230	0xbd7a4fa8	-0.061111122
231	0x3db7cea1	0.08974958
232	0xbe32b4c5	-0.1745177
233	0x3e58f600	0.21187592
234	0x3e608573	0.21925907
235	0x3c851a1c	0.016247801
236	0x3b2f917d	0.0026789599
237	0xbd004da1	-0.031324033
238	0xbd9a9065	-0.07547072
239	0xbd7c0ec6	-0.061537527
240	0x3e0c9a9a	0.13730851
241	0xbb0d9bf7	-0.0021607855
242	0x3e26f2cb	0.16303556
243	0x3e143571	0.14473511
244	0x3dd404ee	0.10352503
245	0xbe9b9b48	-0.30391908
246	0xbdd3c21e	-0.10339759
247	0xbd7e52ea	-0.06209079
248	0xbd8d8104	-0.069093734
249	0xbd6bac74	-0.05753751
250	0xbba41032	-0.0050068134
251	0xbb735a06	-0.0037132516
252	0x3e53e110	0.20691323
253	0x3cb0f344	0.021600373
254	0xbceb1cf8	-0.028700337
255	0xbc055c18	-0.008139633
