mnk_transformer/probing_checkpoints/ckpt3.pt (torch, 13666 bytes, 20 tensors)

transformer.wte.weight f4 [11, 12]
0	0x3c28b6c8	0.010297485
1	0x3cfb5f49	0.030685084
2	0x3bda5b18	0.0066636913
3	0xbd96527d	-0.07339952
4	0xbca14e31	-0.019690605
5	0xbd1a8bbf	-0.03773093
6	0xbe8af80f	-0.2714238
7	0x3d616abe	0.055033438
8	0x3cd61248	0.026131764
9	0x3835493c	4.3221968e-05
10	0x3d40c8c0	0.04706645
11	0x3df23e7d	0.11828325
12	0x3d892e2b	0.06698259
13	0xbe00f7cc	-0.12594527
14	0xbd03643e	-0.03207802
15	0xbe0be052	-0.1365979
16	0x3d98b674	0.07456675
17	0xbcb88676	-0.022525053
18	0x3c3e5753	0.011617499
19	0x3dd97250	0.106175065
20	0xbe0bbaae	-0.13645431
21	0xbd6a52bc	-0.057207808
22	0x3dacd96f	0.0843991
23	0x3a934b3c	0.0011237632
24	0x3da80a90	0.0820514
25	0xbdc70679	-0.097180314
26	0x3d9b585d	0.07585213
27	0x3d138252	0.036012955
28	0x3dc72e7a	0.097256616
29	0x3db159ce	0.08659707
30	0xbdba933d	-0.09110115
31	0xbe24d3db	-0.16096441
32	0x3d78bb78	0.06072566
33	0x3cb1c81a	0.021701861
34	0x3be7412d	0.00705733
35	0xbe5e701a	-0.21722451
36	0x3aff25e7	0.0019466252
37	0x3c874d43	0.016516333
38	0xbc118259	-0.008881175
39	0xbd4401e0	-0.04785335
40	0x3a98e0fa	0.0011663728
41	0x3bbd3f81	0.0057753925
42	0x3d44c7fd	0.048042286
43	0xbe4a6748	-0.19765961
44	0x3db75326	0.08951406
45	0xbe907af5	-0.2821881
46	0x3c5afc92	0.0133658815
47	0x3e3333c2	0.17500213
48	0xbbcc9faa	-0.0062446194
49	0x3ab2eb48	0.0013650442
50	0x3d137062	0.03599585
51	0xbdf962f0	-0.12177074
52	0xbc839381	-0.016061546
53	0xbdbb7402	-0.09152986
54	0x3d7ac102	0.061219223
55	0x3dcd59c2	0.100268856
56	0x3e345f69	0.17614521
57	0x3dc306a3	0.0952275
58	0x3d061ea3	0.03274406
59	0x3d15f964	0.03661479
60	0x3cd379e3	0.025814956
61	0x3db10ee8	0.08645421
62	0x3ea554bb	0.32291207
63	0xbc33bf59	-0.010970914
64	0xbde9c03f	-0.11413621
65	0xbd2e7645	-0.04259326
66	0x3d6c6ac3	0.057719003
67	0xbcbcc021	-0.023040833
68	0xbe3a3120	-0.18182802
69	0x3d174b60	0.036937118
70	0xbd61bde1	-0.055112723
71	0xbb36e229	-0.0027905798
72	0x3d3d0237	0.04614469
73	0xbde0595d	-0.10954545
74	0xbd78fede	-0.060789935
75	0x3d2986a4	0.04138817
76	0xbd89e09d	-0.06732295
77	0xbb6cf48c	-0.0036156503
78	0x3c12b8af	0.008955165
79	0xbd381b6c	-0.044948027
80	0x3c8e0986	0.017338526
81	0x3e26e540	0.1629839
82	0xbd8c5b0c	-0.06853303
83	0x3e7da3a7	0.2476946
84	0x3cb1f546	0.0217234
85	0xbdc87eed	-0.09789834
86	0x3c786a1f	0.01516202
87	0x3e1fcb58	0.15604913
88	0xbd964e95	-0.07339207
89	0xbd59ca97	-0.05317172
90	0xbce9a9f3	-0.02852342
91	0x3e6f5517	0.23372303
92	0x3d66de7d	0.056364525
93	0xbe113d22	-0.14183477
94	0xbc9a2e83	-0.018821007
95	0xbdd86802	-0.10566713
96	0x3d7ea160	0.062165618
97	0x3e294c4f	0.16533016
98	0xbe49ba56	-0.19699988
99	0x3dd2543c	0.10269973
100	0x3ba0e148	0.004909668
101	0xbe2ec403	-0.1706696
102	0x3d1837f6	0.037162744
103	0xbd88f3f2	-0.06687154
104	0xbd727db6	-0.05920192
105	0x3d89cf76	0.06729023
106	0x3d7d456f	0.061833795
107	0xbd9cdfd4	-0.07659879
108	0xbd8285cb	-0.06373175
109	0xbce69a08	-0.02814962
110	0xbccf9504	-0.02533961
111	0x3c88cb17	0.016698403
112	0xbe066624	-0.13124901
113	0x3df0dfa3	0.11761405
114	0x3cabb0c2	0.020958308
115	0xbc90f6b4	-0.017695762
116	0xbba4f9ec	-0.005034676
117	0xbbda473a	-0.006661323
118	0x3e9daee2	0.30797487
119	0xbd34d258	-0.044145912
120	0xbf8bb107	-1.09134
121	0x3e6f8555	0.23390706
122	0xbe984172	-0.2973743
123	0xbd07105b	-0.032974582
124	0x3e80cd7d	0.25156775
125	0x3f81df26	1.0146224
126	0x3e81c912	0.25348717
127	0x3e8ceed7	0.2752597
128	0xbc214997	-0.009844205
129	0xbdcaf19f	-0.09909367
130	0xbf10decf	-0.5658998
131	0xbe2d4157	-0.16919456

transformer.wpe.weight f4 [10, 12]
0	0xbcac2168	-0.021012023
1	0xbc869b64	-0.016431518
2	0x3cc4ae4b	0.02400889
3	0x3c905ef8	0.01762341
4	0x3d60c213	0.054872584
5	0xbd5e7317	-0.054308977
6	0xbc2be3fa	-0.010491366
7	0xbc16e521	-0.009209902
8	0xbc0ea8dc	-0.008707251
9	0x3b3d7588	0.0028909165
10	0x3ab92040	0.0014123991
11	0x3cb6e52d	0.022326076
12	0x3d6b60af	0.05746525
13	0xbcaa4e2e	-0.020789232
14	0xbcab93f2	-0.02094457
15	0xbc874997	-0.016514583
16	0xbdb6cb64	-0.089255124
17	0x3d367664	0.0445465
18	0x3c4e48c3	0.01259059
19	0x3d061e37	0.03274366
20	0xb9a1e876	-0.0003088151
21	0xbcd90534	-0.026491739
22	0x3d702830	0.058632076
23	0xbd214067	-0.03936806
24	0x3c83b86e	0.016079154
25	0xbd0a389b	-0.03374539
26	0x3c655f1a	0.013999725
27	0x3cd80e6a	0.02637406
28	0xbd4e1bc4	-0.050319448
29	0xbd029f0e	-0.031889968
30	0x3c319851	0.010839538
31	0x3c4082b4	0.011749912
32	0x3c2aee6a	0.010432819
33	0xbc9e143e	-0.019296762
34	0x3d721130	0.059098423
35	0xbc9b5753	-0.018962538
36	0x3d19c33e	0.037539713
37	0xbc2075bb	-0.009793694
38	0xbca0402d	-0.019561851
39	0xbca1c207	-0.01974584
40	0xbd8641b8	-0.065555036
41	0x3d3a8fa5	0.045547146
42	0x3bcbef98	0.00622363
43	0x3d173f82	0.0369258
44	0x39604363	0.00021387408
45	0xbca9812f	-0.020691482
46	0x3d2849db	0.04108606
47	0xbd0f9bac	-0.03506057
48	0x3b4e392b	0.003146718
49	0xbcdb398f	-0.026760845
50	0x3c6745ba	0.014115745
51	0x3cb935d2	0.022608671
52	0xbcffd07f	-0.031227348
53	0xbced3e76	-0.028960448
54	0x3bec6609	0.007214312
55	0x3c86416c	0.016388617
56	0x3c168255	0.009186347
57	0xbc96786e	-0.018367972
58	0x3d32a662	0.043615706
59	0xbc9ab2ee	-0.018884148
60	0x3cc85002	0.024452213
61	0xbbdacd86	-0.0066773323
62	0xbcc4d267	-0.024026109
63	0xbcd98355	-0.026551882
64	0xbd474e20	-0.04865849
65	0x3d4342ae	0.047671013
66	0x3ad45be5	0.0016201703
67	0x3d33cfd5	0.043899376
68	0x38a4203e	7.826135e-05
69	0xbc96891f	-0.018375931
70	0x3cb27916	0.021786254
71	0xbd1029a6	-0.03519597
72	0xbc6b79b6	-0.01437228
73	0xbce25cae	-0.027632084
74	0x3c3b1c6b	0.01142035
75	0x3ca0f016	0.019645732
76	0xbc6fbc56	-0.014632305
77	0xbced5efe	-0.02897596
78	0x3b527e1b	0.0032118622
79	0x3c93a3e8	0.018022493
80	0x3c0cc2ea	0.008591393
81	0xbc6f4752	-0.014604406
82	0x3cd07306	0.025445472
83	0xbc90dda7	-0.017683817
84	0x3c91d77c	0.017802946
85	0xbb9136ec	-0.004431596
86	0xbcf8c11e	-0.030365523
87	0xbcc988f1	-0.024601432
88	0xbd2a2353	-0.041537594
89	0x3d636c8d	0.055523444
90	0xbaf5a96a	-0.0018742506
91	0x3d5e9e3f	0.054350134
92	0x3ba9cd22	0.0051819244
93	0xbc7a6252	-0.01528223
94	0x3bdae4ca	0.006680106
95	0xbd10b78e	-0.0353313
96	0xbcb7b236	-0.022423845
97	0xbcb1ca5e	-0.021702942
98	0x3c335e33	0.010947752
99	0x3cd886c8	0.026431456
100	0x3b979a17	0.0046265232
101	0xbcc5d390	-0.024148732
102	0x3bf5a862	0.0074968794
103	0x3ce858db	0.028362682
104	0x3c582f2f	0.013194843
105	0xbc040e90	-0.008060113
106	0x3c6d29f2	0.014475333
107	0xbb54e8d8	-0.0032487419
108	0xbf77f6ce	-0.9686097
109	0x3f99dbf6	1.2020252
110	0x3ec01e5f	0.3752317
111	0xbea16b4f	-0.31527182
112	0xbdf19532	-0.11796035
113	0x3f9438b9	1.157981
114	0x3e04580e	0.12924215
115	0x3e910327	0.28322718
116	0xbeea7d95	-0.45798936
117	0x3df50bda	0.11965151
118	0xbf9d57a0	-1.2292366
119	0xbe8f6201	-0.2800446

transformer.h.0.ln_1.weight f4 [12]
0	0x401bb799	2.433081
1	0x3ffd695a	1.9797776
2	0x40088f12	2.1337323
3	0x400d994b	2.2124813
4	0x3ff905a7	1.945485
5	0x400b0c6e	2.1726336
6	0x40098c67	2.1491945
7	0x400be268	2.1856937
8	0x4021a930	2.5259514
9	0x401dc507	2.4651506
10	0x3fc72c0c	1.5560317
11	0x4004bbca	2.0739617

transformer.h.0.attn.c_attn.weight f4 [36, 12]
0	0x3e5312a8	0.20612586
1	0x3e8745f1	0.2642055
2	0xbe046777	-0.12930094
3	0xbe30128d	-0.17194577
4	0xbe6ceeec	-0.23138016
5	0x3ebc20d6	0.36743802
6	0x3d79cb8e	0.06098514
7	0x3d612bb9	0.054973338
8	0xbbc29508	-0.005938176
9	0xbd1feee4	-0.039046183
10	0xbe75eb52	-0.24015549
11	0xbd81edc6	-0.0634418
12	0x3dfe2391	0.124091275
13	0xbe6666c4	-0.2250014
14	0x3b9e6eba	0.004834977
15	0x3c527f5b	0.012847747
16	0x3d84fd6b	0.06493648
17	0x3d0fe99c	0.035134897
18	0x3dcdae04	0.100429565
19	0x3d9ae639	0.07563443
20	0xbd1bc854	-0.038032845
21	0xbb8ab5de	-0.004233106
22	0x3cc1c568	0.023653701
23	0xbd444003	-0.04791261
24	0xbe5bef91	-0.21478106
25	0x3cf5dafa	0.030011643
26	0xbdfdd668	-0.1239441
27	0x3debb47c	0.11509034
28	0x3d72ffb6	0.059325896
29	0x3e1ee5c0	0.1551733
30	0x38ca3e39	9.6437005e-05
31	0x3d6b0dec	0.057386324
32	0xbd87f553	-0.06638589
33	0x3cc030fa	0.023460854
34	0xbe628607	-0.2212144
35	0xbd55b0a6	-0.05217042
36	0x3e20887f	0.15677069
37	0x3c0239fd	0.007948396
38	0xbd56bc84	-0.052425876
39	0xbb8813ba	-0.004152742
40	0xbe27f89f	-0.16403435
41	0x3e3213fc	0.17390436
42	0x3b82a220	0.003986612
43	0x3c1c6136	0.009544661
44	0x3d44db2d	0.048060585
45	0xbbf3a7de	-0.007435783
46	0xbc02079d	-0.007936385
47	0xbd8b64bc	-0.06806323
48	0x3dd05818	0.101730525
49	0xbd146a48	-0.03623417
50	0xbd618736	-0.055060588
51	0xbb0cd40c	-0.0021488694
52	0xbe38c38a	-0.18043342
53	0xbcdbf7fc	-0.026851647
54	0x3e04cd0b	0.12968843
55	0x3ca3d5fe	0.0199995
56	0x3dc796ba	0.09745546
57	0x3c8de6f2	0.017322037
58	0x3d44bebf	0.048033472
59	0xbdab7e5b	-0.0837371
60	0x3e670d28	0.22563612
61	0x3dba2bc0	0.09090376
62	0xbda59e4d	-0.08086834
63	0xbdf43c7f	-0.11925601
64	0xbdc6aff8	-0.09701532
65	0x3e0b1260	0.13581228
66	0xbd150776	-0.03638407
67	0x3ccbe0fc	0.024887554
68	0xbd96852e	-0.07349621
69	0x3db91b4b	0.09038409
70	0xbd427208	-0.04747203
71	0xbd950b60	-0.0727756
72	0x3e01d8ab	0.12680309
73	0xbe1a1fc5	-0.15051182
74	0x3db7b712	0.08970465
75	0x3e38633e	0.18006608
76	0xbda80fd6	-0.082061455
77	0xbea42f7c	-0.32067478
78	0x3b8fa721	0.004383937
79	0xbcc059a1	-0.023480238
80	0xbd19e9f2	-0.037576623
81	0xbdbecd1c	-0.09316465
82	0x3e821462	0.25406176
83	0x3c2d883d	0.010591564
84	0x3dd4836f	0.103766315
85	0x3ca0c49b	0.019624999
86	0xbde8ec1b	-0.113731585
87	0x3d8696f0	0.06571758
88	0xbe7ac7aa	-0.24490228
89	0x3dcab4c6	0.09897761
90	0xbcd7b52a	-0.026331503
91	0x3d7e7b54	0.062129334
92	0x3dc18803	0.0944977
93	0xbc9074be	-0.017633792
94	0xbd6ceb1a	-0.057841398
95	0xbd4b779e	-0.049674623
96	0xbe1f7e47	-0.15575515
97	0xbdd3d382	-0.10343076
98	0x3dd5fb6e	0.10448347
99	0x3e0c0d0f	0.13676856
100	0x3e243d6e	0.16039059
101	0xbe817d28	-0.252908
102	0x3cf4ece9	0.029898124
103	0xbde8f941	-0.113756664
104	0x3da1c15a	0.07898207
105	0x3db80033	0.08984413
106	0x3c9c4b8e	0.019078996
107	0xbbaf6346	-0.0053524105
108	0xbd77efaf	-0.060531314
109	0x3d7731a6	0.060350083
110	0xbe1b1a0e	-0.15146658
111	0xbd8734a8	-0.0660184
112	0x3c892612	0.016741786
113	0x3e1d8dc3	0.15386109
114	0x3dd164f3	0.10224333
115	0x3e1b7503	0.15181355
116	0x3923c8e0	0.00015619723
117	0xbd0e0902	-0.03467656
118	0xbe7a8013	-0.24462919
119	0xbd5eb1ae	-0.054368667
120	0x3e21d592	0.15804127
121	0x3df242fd	0.11829183
122	0xbd349280	-0.044085026
123	0xbd946b88	-0.072470725
124	0xbe8ce9b8	-0.27522063
125	0x3e0d6bba	0.13810626
126	0x3dd76672	0.10517587
127	0x3d235395	0.039874632
128	0x3da5e497	0.08100241
129	0xbd008d21	-0.03138459
130	0xbe23b96c	-0.15988702
131	0xbd955eb1	-0.072934516
132	0xbe342d80	-0.17595482
133	0xbdbc3270	-0.09189308
134	0x3d3bab1b	0.045817476
135	0x3ddae7b8	0.10688728
136	0x3dc555c5	0.096355
137	0xbd05907f	-0.032608505
138	0x3dadc393	0.084845684
139	0x3c2d0cf1	0.0105621675
140	0xbd02d5e9	-0.031942282
141	0xbd85e65d	-0.06538079
142	0xbd5bda27	-0.053674843
143	0x3d40d251	0.047075573
144	0xbc5d82b8	-0.013519935
145	0x3ed76a0f	0.42073104
146	0xbdddaacd	-0.10823593
147	0xbe76ca5f	-0.24100636
148	0xbeb612cc	-0.35561216
149	0x3f07024e	0.5273789
150	0x3da10289	0.07861812
151	0x3dd6f19d	0.10495303
152	0x3d254466	0.040348433
153	0x3c13734e	0.008999659
154	0xbe4f8b32	-0.20267943
155	0xbdb5f197	-0.0888397
156	0xbc7649b2	-0.015032219
157	0xbe25cb61	-0.16190864
158	0xbbfcc190	-0.007713504
159	0x3d87c546	0.06629424
160	0x3b8b6a24	0.0042545963
161	0x3d2cb037	0.04216024
162	0x3e24189c	0.16025013
163	0x3c74c1fe	0.0149388295
164	0xbbc2997b	-0.0059387065
165	0x3c286ad0	0.010279372
166	0xbc1729e5	-0.009226297
167	0xbde8055f	-0.113291495
168	0x3d965d48	0.07342011
169	0x3d589312	0.052874632
170	0xbd8528cc	-0.06501922
171	0x3b96f932	0.004607343
172	0x3cf922dc	0.03041213
173	0xbdae2449	-0.085030146
174	0xbdaf80d7	-0.08569496
175	0x3e197e53	0.14989595
176	0x3df61180	0.120150566
177	0x3d5b78c0	0.053581953
178	0xbe971683	-0.29509363
179	0xbc703b09	-0.014662513
180	0xbdaa8156	-0.0832545
181	0x3c243be1	0.010024042
182	0xbd424636	-0.04743024
183	0xbbd4138a	-0.006472056
184	0xbe029f37	-0.12756048
185	0x3e875b62	0.26436907
186	0xbd097586	-0.033559345
187	0x3d39ecda	0.045391895
188	0x3d5076c3	0.05089451
189	0x3cc591f8	0.024117455
190	0x3c5a2185	0.013313656
191	0xbdc02d4d	-0.093836404
192	0xbdbcfc01	-0.092277534
193	0xb9930103	-0.0002803878
194	0xbda5da79	-0.08098311
195	0x3de25044	0.11050466
196	0xbdf4c6a2	-0.11951949
197	0x3e04a179	0.12952222
198	0xbcf2ec9b	-0.029653838
199	0x3c96effc	0.01842498
200	0xbdd7a58b	-0.10529622
201	0xbbaff33c	-0.005369572
202	0x3d4690da	0.048477985
203	0xbd1917cc	-0.03737621
204	0x3d1ea569	0.038731966
205	0x3de897ac	0.11357054
206	0xbe14ae59	-0.14519633
207	0xbdc3808b	-0.09546002
208	0xbd96531e	-0.07340072
209	0x3e6eaad4	0.23307353
210	0x3d9b41f0	0.07580936
211	0xbc96689e	-0.018360432
212	0xbd86448e	-0.065560445
213	0x3dff5201	0.12466813
214	0x3bf38535	0.007431651
215	0xbe16513d	-0.14679427
216	0xbe616042	-0.22009376
217	0xbdc4a32d	-0.09601436
218	0x3d0a1585	0.03371193
219	0x3dddc974	0.1082944
220	0xbd64ced2	-0.0558613
221	0xbe483956	-0.19553122
222	0x3d97b560	0.074076414
223	0xbcfc3cb1	-0.030790659
224	0xbcc8ee4b	-0.02452769
225	0x3b2a8a0e	0.0026022228
226	0x3e637f62	0.22216561
227	0xbd6bf9ca	-0.057611264
228	0xbd1a8270	-0.03772205
229	0x3d1e3d6f	0.038632806
230	0xbe1aefd1	-0.15130545
231	0x3d84dc78	0.064873636
232	0xbe80eaa2	-0.2517901
233	0x3e140f5e	0.14458987
234	0xbdaab933	-0.08336105
235	0x3d8fff07	0.070310645
236	0x3c474123	0.012161526
237	0xbcd8f7ba	-0.026485313
238	0x3d5ab8cf	0.053398903
239	0xbd963f25	-0.073362626
240	0x3c069e14	0.0082164
241	0xbcab684a	-0.020923752
242	0x3e672387	0.22572146
243	0x3e25eaf3	0.16202907
244	0x3e0f80ab	0.14013927
245	0xbea283d1	-0.31741193
246	0xbe385c7a	-0.18004027
247	0xbdc30643	-0.09522679
248	0xbc9d3971	-0.01919243
249	0xbc459124	-0.01205853
250	0xbc6c9aba	-0.014441187
251	0x3d1f9a62	0.03896559
252	0x3e306b2d	0.17228384
253	0x3e015f2c	0.12633961
254	0xbdd251c7	-0.10269504
255	0xbd55e30f	-0.052218493

transformer.h.0.attn.c_proj.weight f4 [12, 12]
0	0xbccbacd0	-0.024862677
1	0xbe44cc45	-0.19218548
2	0xbd1a24bc	-0.03763269
3	0x3d532121	0.051545266
4	0xbe4682e5	-0.1938587
5	0xbe0c153d	-0.13679977
6	0xbbfdf4fa	-0.0077501507
7	0x3de778b2	0.11302318
8	0xbdd5d48c	-0.10440931
9	0x3b969896	0.0045958264
10	0x3e10cda1	0.14140941
11	0x3cf0bffc	0.02938842
12	0x3d9863be	0.07440899
13	0xbc5fca47	-0.0136590665
14	0xbe239205	-0.15973671
15	0x3d2a46c1	0.041571382
16	0x3d36b04e	0.04460173
17	0x3d6831b6	0.056688033
18	0xbdeb713b	-0.114962064
19	0x3dbb9f48	0.0916124
20	0xbc21e167	-0.0098804
21	0xbc75aea6	-0.014995253
22	0x3c3deffd	0.011592862
23	0xbdccbd23	-0.099970125
24	0x3e48036f	0.1953256
25	0xbc696666	-0.014245605
26	0xbd5fefd3	-0.054672074
27	0xbda93a14	-0.08263031
28	0xbb8869c9	-0.004163001
29	0x3d008ae6	0.031382464
30	0x3d5ef631	0.054434005
31	0xbd967197	-0.07345884
32	0x3dbb9878	0.091599405
33	0xbe207b3d	-0.15672012
34	0xbcea3015	-0.02858738
35	0x3dd7ceb1	0.1053747
36	0xbc32c62b	-0.010911505
37	0x3ce9221f	0.028458653
38	0xbe23ebfd	-0.16007991
39	0x3bd2b544	0.0064303
40	0x3e26ba5a	0.16282025
41	0xbd702a4a	-0.05863408
42	0x3e843394	0.258206
43	0xbe53ed43	-0.20695977
44	0xbdd48823	-0.103775285
45	0xbd11f9ff	-0.035638805
46	0x3d9ff6eb	0.07810768
47	0xbc0a9772	-0.008458959
48	0xbc88dc95	-0.016706744
49	0x3c9d7c41	0.019224288
50	0xbca552fa	-0.020181168
51	0xbc400198	-0.01171913
52	0xbe0a1406	-0.13484201
53	0x3dc1df26	0.0946639
54	0x3e19f2a3	0.15033965
55	0x3dd2f927	0.10301428
56	0xbdce9b13	-0.10088172
57	0x3d74f432	0.059803195
58	0xbd989c1b	-0.0745165
59	0x3d8d55df	0.06901144
60	0xbd20fab9	-0.039301608
61	0x3daa2592	0.08307947
62	0x3e97ab26	0.29622763
63	0xbe222b64	-0.15836865
64	0xbccd2b2a	-0.025044996
65	0xbd48f011	-0.04905707
66	0xbdbe95f1	-0.09305943
67	0x3d9d2a90	0.07674134
68	0x3bce0118	0.0062867515
69	0x3d937884	0.07200721
70	0x3de18add	0.11012814
71	0xbd21bcb8	-0.039486617
72	0xbd6bb8ef	-0.057549413
73	0xbdbb57db	-0.091476165
74	0xbd16cfbd	-0.03681921
75	0x3c89d01a	0.016822863
76	0xbd6c6d23	-0.05772127
77	0xbda9f8c0	-0.082993984
78	0xbd87eb6a	-0.066366985
79	0xbd4e8d88	-0.050427943
80	0x3de14f02	0.11001398
81	0x3e3d5b5d	0.18491884
82	0xbe01ae76	-0.12664208
83	0xbc4d7904	-0.012541059
84	0xbc8919e6	-0.016735982
85	0xbddfb2aa	-0.10922749
86	0x3d3fe2bb	0.046847086
87	0xbcf76398	-0.030198857
88	0x3e07e6a2	0.13271573
89	0xbddc97ce	-0.10771142
90	0x3be9eace	0.0071385866
91	0xbd0f4c27	-0.034984734
92	0x3e676f0e	0.22600958
93	0x3d49cfed	0.04927056
94	0x3d78d872	0.060753293
95	0xbdea06f1	-0.11427105
96	0x3cf084ab	0.029360136
97	0xbdaa2057	-0.083069496
98	0x3e31f1e7	0.17377435
99	0x3e447ec7	0.19188987
100	0x3e52d611	0.20589472
101	0x3dac38dd	0.08409283
102	0xbe1ecdfb	-0.15508263
103	0xbdb5a4bc	-0.08869311
104	0x3bfd4f87	0.0077304277
105	0xbc21e648	-0.0098815635
106	0x3c7b167e	0.015325187
107	0x3db3660c	0.08759698
108	0x3c11d374	0.008900512
109	0x3e526eff	0.20550154
110	0x3d76393a	0.06011317
111	0x3e210be2	0.15727189
112	0xbb848fac	-0.0040454473
113	0xbdc106fa	-0.09425159
114	0x3b26e99e	0.0025468837
115	0x3dc82fcd	0.09774742
116	0x3cc478fe	0.023983475
117	0xbc9650c2	-0.018349055
118	0xbd7abf97	-0.06121787
119	0x3dac9d6f	0.084284656
120	0xbd8a4b7e	-0.0675268
121	0x3da1734a	0.07883318
122	0x3c1eefb0	0.009700701
123	0xbd42af8b	-0.047530692
124	0xbd4a1b5d	-0.049342502
125	0x3d3a8f9b	0.04554711
126	0xbd8b5c3d	-0.068047024
127	0x3c8dbef0	0.01730296
128	0xbc8e3320	-0.017358363
129	0xbdf2f589	-0.11863238
130	0xbd070f28	-0.03297344
131	0xbccc8c33	-0.024969196
132	0x3c92f2f7	0.01793812
133	0xba916a29	-0.001109426
134	0xbc9cb781	-0.01913047
135	0xbdf70e3f	-0.12063264
136	0xbd00a6e9	-0.031409178
137	0x3df517da	0.1196744
138	0x3de4be79	0.11169142
139	0xbcb08675	-0.02154849
140	0xbce90089	-0.028442638
141	0x3dc68309	0.09692962
142	0xbd858781	-0.06519986
143	0x3be047f1	0.0068445136

transformer.h.0.ln_2.weight f4 [12]
0	0x408f35bb	4.475309
1	0x4038219d	2.8770516
2	0x404003d3	3.0002334
3	0x4063ba4f	3.5582464
4	0x4074b8d5	3.8237813
5	0x40595a36	3.396131
6	0x403afddc	2.9217443
7	0x404bf77d	3.1869805
8	0x402b2537	2.6741464
9	0x404700cb	3.1094234
10	0x40836605	4.1062036
11	0x40159ddb	2.3377597

transformer.h.0.mlp.c_fc.weight f4 [48, 12]
0	0x3cc89737	0.024486167
1	0xbbea2949	-0.007146035
2	0x3d36507a	0.044510342
3	0xbced3b8e	-0.028959062
4	0xbc991295	-0.018685618
5	0xbd351651	-0.044210736
6	0x3c58ce82	0.013232829
7	0x3cfd97f8	0.030956253
8	0x3d9cb5bb	0.0765185
9	0xbcbbeeeb	-0.022941073
10	0x3d14250b	0.03616814
11	0xbd50865c	-0.050909385
12	0xbd8572d3	-0.065160416
13	0xbe05ecd0	-0.13078618
14	0x3e302453	0.17201357
15	0xbd974c6c	-0.07387623
16	0x3d59755c	0.05309044
17	0x3db133d6	0.08652465
18	0xbde83ad2	-0.11339344
19	0xbd7dfd52	-0.062009163
20	0x3d2fa4c4	0.042881742
21	0xbd7d8fef	-0.061904844
22	0xba5553c2	-0.0008137786
23	0x3d9975ea	0.074931934
24	0x3d5ba16b	0.053620737
25	0x3d26a2d3	0.040682625
26	0xbd771322	-0.06032098
27	0x3caad47c	0.020853274
28	0xbc587a0b	-0.013212691
29	0xbddf4726	-0.10902242
30	0x3c9adf3c	0.018905275
31	0xbc5bd18a	-0.013416657
32	0xbdf5bdf8	-0.11999124
33	0xba3272a6	-0.0006807245
34	0xbcec8204	-0.02887059
35	0x3e3dd9b6	0.18540081
36	0xbd8a0320	-0.06738877
37	0xbd7f4902	-0.062325485
38	0x3dd0a6f2	0.10188092
39	0xbcb90c0c	-0.022588752
40	0xbc0cdf84	-0.008598212
41	0x3dc74d35	0.09731523
42	0x3ddc88c7	0.10768276
43	0xbd9fff54	-0.07812372
44	0xbaf32233	-0.0018549621
45	0xbd495f23	-0.049162995
46	0xbd0a7dff	-0.033811565
47	0xbce0b6ef	-0.02743098
48	0xbe52b568	-0.20577013
49	0x3debcf93	0.11514201
50	0x3df55aec	0.119802326
51	0x3e70040b	0.23439042
52	0x3e6cd138	0.23126686
53	0xbe71ad4d	-0.23601265
54	0xbd89a36c	-0.067206234
55	0xbda94b93	-0.08266368
56	0x3e2e8420	0.17042589
57	0x3c401962	0.011724802
58	0xbe8bd93a	-0.27314168
59	0x3d0143a2	0.03155864
60	0x3d1a4c19	0.03767023
61	0x3dd6dd2d	0.10491405
62	0xbe286e5b	-0.16448347
63	0x3dfa904c	0.12234554
64	0xbb0ecb22	-0.0021788557
65	0xbc2abd81	-0.010421158
66	0x3dfc9ff5	0.12335197
67	0xbd984c6a	-0.0743645
68	0xbe08a0df	-0.13342617
69	0x3dc2a8ef	0.09504878
70	0x3b3a6b17	0.0028445178
71	0xbcdccd9c	-0.026953511
72	0x3a83c69d	0.0010053698
73	0xbde1fe24	-0.110348016
74	0x3c065616	0.008199235
75	0xbd0ea6e2	-0.03482712
76	0x3dd65340	0.104650974
77	0x3d853f2d	0.065061904
78	0xbdb31cf8	-0.0874576
79	0x3cc2e500	0.023790836
80	0x3cdc626c	0.0269024
81	0xbd4d5a6e	-0.05013507
82	0xbd876ebd	-0.066129185
83	0x3d99fe96	0.075192615
84	0x3bb0d527	0.0053965035
85	0xbd28bfd5	-0.04119857
86	0x3dcc0b6b	0.09963115
87	0xbdb96f34	-0.090544134
88	0x3cfe25be	0.031023856
89	0x3dfb3b88	0.12267214
90	0xbcc0e17b	-0.023545017
91	0x3d53f304	0.05174543
92	0xbc9e45e6	-0.01932044
93	0xbddc9bac	-0.107718796
94	0xbdd0ad9b	-0.101893626
95	0x3d327cad	0.04357593
96	0xbc2397b6	-0.009984901
97	0x3bd186ed	0.0063942582
98	0xbc8a4e2f	-0.016882984
99	0xbd3d4a81	-0.04621363
100	0xbd2a524c	-0.04158239
101	0xbc3b34a5	-0.011426126
102	0x3d74ee48	0.059797555
103	0xbdbad0ff	-0.09121894
104	0xbc27a86e	-0.010233028
105	0x3da93468	0.08261949
106	0x3d9724d5	0.07380072
107	0xbcd9331e	-0.026513632
108	0x3c9ae0c0	0.018905997
109	0xbc3f29fa	-0.011667723
110	0xbc3e59bf	-0.011618077
111	0x3d5dcb5c	0.054149017
112	0x3cc773b4	0.024347164
113	0x3cb15efa	0.021651734
114	0xbd8f9f96	-0.070128605
115	0x3dd7437e	0.1051092
116	0xbde4f97c	-0.11180398
117	0x3e472031	0.19445874
118	0xbd2eaf26	-0.042647503
119	0xbda31678	-0.0796327
120	0xbe9b05fe	-0.3027801
121	0x3e7a1a98	0.24424207
122	0xbe51949c	-0.20466846
123	0x3d9bd0fb	0.07608219
124	0x3e48692b	0.19571368
125	0x3ea4eedf	0.32213494
126	0x3dc1f3f0	0.094703555
127	0x3e31dc26	0.17369136
128	0xbe8d124a	-0.27553016
129	0xbe43fdfd	-0.19139858
130	0xbeb2d691	-0.34929326
131	0xbd1aec60	-0.03782308
132	0xbcd5b4b0	-0.026087135
133	0x3de60f67	0.112334065
134	0x3cada36b	0.021196088
135	0xbe2817e5	-0.16415365
136	0x3e4adb4d	0.19810219
137	0xbc6935e8	-0.014234044
138	0xbc31c5c2	-0.010850372
139	0xbe0df376	-0.13862404
140	0xbdd296f8	-0.10282701
141	0x3dd400fd	0.10351751
142	0xbd74fbf4	-0.059810594
143	0x3d9568f9	0.072954126
144	0xbd2cb480	-0.042164326
145	0x3daed739	0.08537144
146	0x3c9270e3	0.017876094
147	0x3cf08fa0	0.02936536
148	0x3d13c644	0.036077753
149	0x3d870d6d	0.06594358
150	0x3d1f94c9	0.038960252
151	0x3c989c65	0.018629262
152	0xbdb3b934	-0.08775559
153	0xbde4b3e8	-0.11167127
154	0xbd1598fe	-0.036522858
155	0xbdaac713	-0.08338752
156	0x3d315186	0.043290637
157	0x3cd5417c	0.026032202
158	0x3dc8bacc	0.09801254
159	0x3beeeff7	0.0072917896
160	0xbd439ab8	-0.047754973
161	0x3b4ca3fd	0.0031225674
162	0xbcaa988a	-0.02082469
163	0xbdcfade7	-0.10140591
164	0xbd274bf8	-0.040843934
165	0x3c7775df	0.015103786
166	0xbd8bde87	-0.06829553
167	0x3d7f7371	0.062365953
168	0x3dcad44f	0.09903776
169	0xbae13136	-0.0017180804
170	0xbca3e781	-0.02000785
171	0x3da4d452	0.080483094
172	0xbd0c56c3	-0.03426243
173	0x3e0ecdcf	0.13945697
174	0x3ca8486f	0.020542352
175	0xbd75fdd3	-0.06005652
176	0xbd215fcb	-0.039397996
177	0x3d5370a0	0.05162108
178	0xbd9ccfdd	-0.07656834
179	0xbd4cdee1	-0.05001724
180	0x3d43d9a8	0.047814995
181	0xbd795250	-0.060869515
182	0x3becb9ce	0.007224298
183	0x3e04ad86	0.12956819
184	0x3ce6d986	0.028179895
185	0x3d5f70df	0.054551
186	0xbdd96ffc	-0.106170624
187	0xbd800c67	-0.062523656
188	0xbe2a410c	-0.16626376
189	0xbd1efb9f	-0.038814183
190	0x3cb7bbd7	0.022428436
191	0x3d9915d4	0.074748665
192	0xbd18f837	-0.03734609
193	0xbd51be75	-0.051207025
194	0xbcb71598	-0.022349164
195	0xbd1dd2b0	-0.038531005
196	0x3d1f62bc	0.03891252
197	0xbd3f094c	-0.046639726
198	0x3d51c0cb	0.051209252
199	0xbc6242a8	-0.013809837
200	0x3dd267d7	0.10273712
201	0x3d190f50	0.03736812
202	0x3c9e2d7b	0.019308796
203	0xbc73e13d	-0.014885244
204	0x3c5aaa71	0.0133463
205	0x3d8a5834	0.06755105
206	0xbd9e9c2f	-0.077446334
207	0x3d3cb26a	0.046068586
208	0x3c04ce8f	0.008105888
209	0x3dac37d8	0.08409089
210	0x3d7a5b30	0.06112212
211	0xbdd61f75	-0.10455219
212	0xbc96d836	-0.018413644
213	0xbdd6de5a	-0.10491629
214	0x3bcb9edd	0.0062140063
215	0x3d3f043b	0.046634894
216	0x3d78c645	0.06073596
217	0x3c890edf	0.016730724
218	0xbc5b5454	-0.013386805
219	0x3dab1bd9	0.08354921
220	0xbbf1f01a	-0.0073833587
221	0xbc9a30be	-0.01882207
222	0xbd10a1bb	-0.03531049
223	0x3d85f850	0.065415025
224	0x3cb8c2a6	0.022553753
225	0xbd803d1f	-0.06261658
226	0xbdf463db	-0.119331084
227	0x3d797f9f	0.060912725
228	0x3e05e256	0.13074622
229	0x3c69d49d	0.014271882
230	0xbcf0948f	-0.029367713
231	0xbc6ced3c	-0.014460858
232	0x3d83dae2	0.06438233
233	0xbd2ddc11	-0.0424462
234	0x3d9e6d11	0.077356465
235	0x3cc6af86	0.024253618
236	0x3c29745b	0.010342683
237	0xbc9f389c	-0.019436173
238	0xbe280d07	-0.1641122
239	0x3c9d822a	0.019227106
240	0x3e1324ae	0.14369461
241	0x3e50e3e7	0.20399438
242	0xbcd25f9a	-0.025680352
243	0x3e08fc16	0.13377413
244	0xbd7bc726	-0.06146922
245	0x3a525171	0.0008023
246	0xbd2955f6	-0.041341744
247	0xbd99a93b	-0.07502981
248	0xbddaad87	-0.10677629
249	0x3ca878c5	0.0205654
250	0xbbdf741b	-0.006819261
251	0xbdaa1529	-0.08304817
252	0x3e747acc	0.23874968
253	0x3d595c82	0.053066738
254	0xbd474c55	-0.04865678
255	0xbcbcd141	-0.023048999

transformer.h.0.mlp.c_proj.weight f4 [12, 48]
0	0xbd1dc29c	-0.038515672
1	0xbd8cc8b1	-0.06874216
2	0xbdaa6f0b	-0.08321961
3	0x3d9e766f	0.07737433
4	0x3c8fcbb5	0.01755319
5	0x3d816c4f	0.06319486
6	0x3d892ba1	0.06697775
7	0xbe01190d	-0.12607212
8	0xbc607214	-0.013699073
9	0xbddb3016	-0.10702531
10	0xbdcd4fdf	-0.10025
11	0x3cca7abe	0.024716731
12	0x3b522318	0.0032064375
13	0xbc916561	-0.017748537
14	0x3db184d2	0.086679116
15	0xbbe78171	-0.007064991
16	0x3c8c7f36	0.017150503
17	0xbdbf3a0c	-0.093372434
18	0xbd4d17ca	-0.050071515
19	0xbdcc4b6b	-0.09975322
20	0xbd902721	-0.07038713
21	0x3c03c2cc	0.008042049
22	0x3d175631	0.036947433
23	0xbd1f442d	-0.038883377
24	0x3d0a0ae9	0.03370181
25	0xbb8d4c72	-0.0043120915
26	0xbd5daadf	-0.054118033
27	0xbd76f616	-0.06029328
28	0xbe06da15	-0.13169129
29	0xbd9c0d20	-0.07619691
30	0x3b9d146e	0.004793695
31	0x3d7a5d44	0.0611241
32	0xbd555bed	-0.05208962
33	0xbc447db2	-0.011992859
34	0xbc837edc	-0.016051702
35	0xbce904d2	-0.028444681
36	0xbd401782	-0.04689742
37	0x3caf27c7	0.021381272
38	0xbd80f038	-0.06295818
39	0x3d23a928	0.03995624
40	0x3d4cd0c7	0.050003793
41	0xbb56fe7b	-0.003280549
42	0xbc4e4f8f	-0.01259221
43	0x3e001b22	0.1251035
44	0x3d94c5e6	0.07264309
45	0x3becaea5	0.0072229677
46	0x3debda59	0.11516256
47	0x3ce5e382	0.028062586
48	0x3d5002d2	0.05078394
49	0x3a3fa862	0.0007311163
50	0x3d76a720	0.060217977
51	0xbd90568e	-0.07047759
52	0xbdb1fae3	-0.08690431
53	0xbd996a7a	-0.07491012
54	0xbd0a7fcb	-0.03381328
55	0x3c8b3db3	0.016997194
56	0xbce875ee	-0.028376546
57	0xbc9a26f8	-0.01881741
58	0x3ccb9bbe	0.024854537
59	0x3e5091de	0.20368144
60	0x3d91c139	0.071169324
61	0x3cff8d21	0.031195225
62	0xbb66320e	-0.003512505
63	0x3cd8d1d5	0.026467243
64	0x3bdeccef	0.0067993323
65	0x3d078f56	0.03309568
66	0x3dbd4155	0.09240977
67	0x3e8e8678	0.27836967
68	0x3bb483c8	0.0055088736
69	0xbe509392	-0.20368794
70	0x3d62465c	0.05524288
71	0x3e09d7b3	0.13461189
72	0x3da15141	0.07876826
73	0x3d0db195	0.034593184
74	0x3d06cac2	0.03290821
75	0x3cc553a2	0.02408773
76	0x3d6082f0	0.05481237
77	0x3c7fe6fd	0.015619037
78	0x3d2b6af3	0.04185004
79	0xbd63ef81	-0.05564833
80	0x3d4c8485	0.049931068
81	0x3c4dabfe	0.012553213
82	0x3cc2c367	0.023774816
83	0x3d926d26	0.07149725
84	0x3d9702b8	0.073735654
85	0xbdba77da	-0.09104891
86	0x3c5c81b9	0.013458663
87	0xbd2ac78e	-0.041694216
88	0xbcf3c996	-0.02975921
89	0xbdc13daa	-0.094355896
90	0x3d70054f	0.058598813
91	0x3ae9ba87	0.0017832079
92	0xbcd76f33	-0.026298141
93	0x3dbd73b8	0.09250587
94	0xbcf3ab54	-0.029744782
95	0xbd8297dc	-0.06376621
96	0x3bab7607	0.005232576
97	0xbb4c0fd4	-0.0031137364
98	0xbcec4b7f	-0.028844593
99	0x3d0c15c6	0.034200452
100	0xbd91ce03	-0.07119372
101	0x3d94601a	0.072448924
102	0xbcc5c270	-0.024140567
103	0x3c4a3276	0.012341132
104	0x3d23a252	0.039949723
105	0xbd33dc96	-0.04391154
106	0xbcd4c906	-0.025974762
107	0x3d009f96	0.031402193
108	0xbd022314	-0.031771734
109	0xbd5b0452	-0.053470917
110	0x3d27ca5f	0.04096448
111	0x3c0e59d1	0.008688406
112	0xbbe164ca	-0.00687847
113	0xbd1af572	-0.03783173
114	0xbbb79e7a	-0.0056036087
115	0x3d89c737	0.0672745
116	0x3b4b43e1	0.00310158
117	0xbda1740e	-0.07883464
118	0x3cad1342	0.021127347
119	0x39cb39ad	0.0003876215
120	0x3dbd30cc	0.09237823
121	0x3bc08a33	0.0058758496
122	0xbca2cbb3	-0.019872522
123	0xbd06d47b	-0.03291748
124	0xbd2ffd77	-0.042966332
125	0xbcda6a0e	-0.026661899
126	0x3c3e8eb0	0.011630699
127	0x3d11df5a	0.035613395
128	0x3adfd207	0.0017076143
129	0xbbeefe21	-0.007293478
130	0xbcf465e8	-0.029833749
131	0xbc667eca	-0.014068315
132	0xbcaba942	-0.020954732
133	0x3e230700	0.15920639
134	0xbd4e78dd	-0.050408233
135	0xbda8c605	-0.08240894
136	0x3cd5917c	0.026070349
137	0xbc89b8c9	-0.016811745
138	0x3d05eabd	0.032694567
139	0x3d15995d	0.03652321
140	0x3d0bcf2c	0.03413312
141	0x3d497588	0.049184352
142	0x3c7ce675	0.015435805
143	0x3d03d1fc	0.03218268
144	0x3d5d1ef3	0.053984594
145	0xb9e65987	-0.00043935722
146	0xbd2dfa14	-0.04247482
147	0x3a94b9e0	0.0011346899
148	0xbdb5b6e8	-0.08872777
149	0xbcb41e3e	-0.021987077
150	0xbabadacc	-0.001425588
151	0xbcef6355	-0.02922217
152	0x3c506705	0.012719874
153	0xbd162547	-0.036656644
154	0x3a991e66	0.0011682033
155	0xbe8d7ddf	-0.27635095
156	0xbce75e1a	-0.028243113
157	0xbc7881f5	-0.015167703
158	0x3bb15fed	0.0054130466
159	0xbdb9ec31	-0.09078253
160	0x3cf400b9	0.0297855
161	0xbcb54e3d	-0.022132033
162	0xbd7bfd54	-0.06152089
163	0xbe096fd3	-0.13421564
164	0xbc00d57f	-0.007863401
165	0x3deed608	0.11661917
166	0xbcc023b8	-0.023454532
167	0xbd005624	-0.03133215
168	0x3d942313	0.072332524
169	0xbd138e94	-0.036024645
170	0xbd1e728e	-0.038683467
171	0xbb6d4169	-0.0036202318
172	0xbbb02736	-0.005375768
173	0xbd2d3324	-0.0422851
174	0x3abe3eba	0.0014514544
175	0x3cbde828	0.02318199
176	0x3cf4c0b0	0.029877037
177	0x3db53dca	0.08849676
178	0x3ca16fe3	0.019706672
179	0xbc9826c9	-0.018573182
180	0x3c9bf091	0.01903561
181	0xbd418af6	-0.047251664
182	0xbca00e4f	-0.019538073
183	0x3c70a1a7	0.014686978
184	0xbca793a1	-0.020456137
185	0x3e189549	0.14900698
186	0xbd3b1f18	-0.04568395
187	0xbc01a8ca	-0.007913778
188	0x3c069648	0.008214541
189	0x3d7fab16	0.06241902
190	0x3d022d91	0.031781737
191	0x3cc39894	0.023876466
192	0x3b14e584	0.002271981
193	0xbd4324b1	-0.047642414
194	0xbc1a72e1	-0.009426803
195	0x3ca8e33b	0.020616164
196	0x3de3bd3a	0.111200765
197	0xbc8d24ce	-0.017229464
198	0x3c576a5b	0.013147916
199	0xbbb8101d	-0.005617155
200	0x3cfcd8d4	0.03086511
201	0xbdb8a06d	-0.09014974
202	0x3de239cc	0.1104618
203	0x3d2c9593	0.042134833
204	0xbdece40f	-0.11566936
205	0x3d87ace9	0.06624777
206	0xbc1f96b6	-0.009740522
207	0xbcca3593	-0.02468375
208	0xbc92535a	-0.01786201
209	0x3d35df01	0.044402126
210	0x3cb60c7c	0.02222275
211	0x3e187acd	0.14890595
212	0x3ccbafe7	0.02486415
213	0xbdcd9ca9	-0.10039646
214	0xbceeff14	-0.029174365
215	0xbc9bebf6	-0.019033413
216	0xbe2f1edf	-0.1710162
217	0x3db6e2d8	0.08929986
218	0x3c565bbb	0.013083394
219	0xbb2b4442	-0.0026133214
220	0x3d83ce99	0.0643589
221	0xbc0a7213	-0.008450049
222	0x3d033fd9	0.03204331
223	0xbce544dc	-0.027986936
224	0x3d42d107	0.047562625
225	0x3cd8d24e	0.026467469
226	0xbd0a74b2	-0.033802696
227	0xbd080deb	-0.0332164
228	0xbc6f0168	-0.014587738
229	0xbd1f8ce7	-0.038952734
230	0x3d96ea3b	0.07368895
231	0x3d312115	0.04324444
232	0xbd040b2e	-0.032237224
233	0xbd3f43ba	-0.04669545
234	0x3d852d81	0.0650282
235	0x3cf618f5	0.030041197
236	0xbc0517d7	-0.00812336
237	0xbe2df1d7	-0.16986786
238	0x3d391e82	0.04519511
239	0xbca68e1a	-0.020331431
240	0x3d125d4f	0.035733517
241	0x3dee485f	0.116348974
242	0x3d8ac4bf	0.067758076
243	0xbd761bce	-0.06008511
244	0x3ccf232a	0.025285322
245	0xbd54ff76	-0.05200144
246	0xbd984ac6	-0.07436137
247	0x3df54a81	0.11977101
248	0x3c816a60	0.015797794
249	0x3da92875	0.0825967
250	0x3e0c3cc8	0.13695061
251	0xbd1ddb16	-0.038539015
252	0xbd770bd9	-0.060314033
253	0x3cee5e69	0.029097753
254	0xbe1e89bb	-0.15482228
255	0xbdd26b87	-0.102744155

transformer.ln_f.weight f4 [12]
0	0x40bcf57c	5.9049664
1	0x412b5f89	10.710824
2	0x410ccf5f	8.800628
3	0x411ae536	9.68096
4	0x4128dbfa	10.553705
5	0x40ecfd29	7.4059033
6	0x411978ba	9.591974
7	0x410410d6	8.25411
8	0x411ab248	9.668526
9	0x41219e59	10.101159
10	0x40e66c79	7.2007413
11	0x40f44ff5	7.6347604

lm_head.weight f4 [11, 12]
0	0x3c28b6c8	0.010297485
1	0x3cfb5f49	0.030685084
2	0x3bda5b18	0.0066636913
3	0xbd96527d	-0.07339952
4	0xbca14e31	-0.019690605
5	0xbd1a8bbf	-0.03773093
6	0xbe8af80f	-0.2714238
7	0x3d616abe	0.055033438
8	0x3cd61248	0.026131764
9	0x3835493c	4.3221968e-05
10	0x3d40c8c0	0.04706645
11	0x3df23e7d	0.11828325
12	0x3d892e2b	0.06698259
13	0xbe00f7cc	-0.12594527
14	0xbd03643e	-0.03207802
15	0xbe0be052	-0.1365979
16	0x3d98b674	0.07456675
17	0xbcb88676	-0.022525053
18	0x3c3e5753	0.011617499
19	0x3dd97250	0.106175065
20	0xbe0bbaae	-0.13645431
21	0xbd6a52bc	-0.057207808
22	0x3dacd96f	0.0843991
23	0x3a934b3c	0.0011237632
24	0x3da80a90	0.0820514
25	0xbdc70679	-0.097180314
26	0x3d9b585d	0.07585213
27	0x3d138252	0.036012955
28	0x3dc72e7a	0.097256616
29	0x3db159ce	0.08659707
30	0xbdba933d	-0.09110115
31	0xbe24d3db	-0.16096441
32	0x3d78bb78	0.06072566
33	0x3cb1c81a	0.021701861
34	0x3be7412d	0.00705733
35	0xbe5e701a	-0.21722451
36	0x3aff25e7	0.0019466252
37	0x3c874d43	0.016516333
38	0xbc118259	-0.008881175
39	0xbd4401e0	-0.04785335
40	0x3a98e0fa	0.0011663728
41	0x3bbd3f81	0.0057753925
42	0x3d44c7fd	0.048042286
43	0xbe4a6748	-0.19765961
44	0x3db75326	0.08951406
45	0xbe907af5	-0.2821881
46	0x3c5afc92	0.0133658815
47	0x3e3333c2	0.17500213
48	0xbbcc9faa	-0.0062446194
49	0x3ab2eb48	0.0013650442
50	0x3d137062	0.03599585
51	0xbdf962f0	-0.12177074
52	0xbc839381	-0.016061546
53	0xbdbb7402	-0.09152986
54	0x3d7ac102	0.061219223
55	0x3dcd59c2	0.100268856
56	0x3e345f69	0.17614521
57	0x3dc306a3	0.0952275
58	0x3d061ea3	0.03274406
59	0x3d15f964	0.03661479
60	0x3cd379e3	0.025814956
61	0x3db10ee8	0.08645421
62	0x3ea554bb	0.32291207
63	0xbc33bf59	-0.010970914
64	0xbde9c03f	-0.11413621
65	0xbd2e7645	-0.04259326
66	0x3d6c6ac3	0.057719003
67	0xbcbcc021	-0.023040833
68	0xbe3a3120	-0.18182802
69	0x3d174b60	0.036937118
70	0xbd61bde1	-0.055112723
71	0xbb36e229	-0.0027905798
72	0x3d3d0237	0.04614469
73	0xbde0595d	-0.10954545
74	0xbd78fede	-0.060789935
75	0x3d2986a4	0.04138817
76	0xbd89e09d	-0.06732295
77	0xbb6cf48c	-0.0036156503
78	0x3c12b8af	0.008955165
79	0xbd381b6c	-0.044948027
80	0x3c8e0986	0.017338526
81	0x3e26e540	0.1629839
82	0xbd8c5b0c	-0.06853303
83	0x3e7da3a7	0.2476946
84	0x3cb1f546	0.0217234
85	0xbdc87eed	-0.09789834
86	0x3c786a1f	0.01516202
87	0x3e1fcb58	0.15604913
88	0xbd964e95	-0.07339207
89	0xbd59ca97	-0.05317172
90	0xbce9a9f3	-0.02852342
91	0x3e6f5517	0.23372303
92	0x3d66de7d	0.056364525
93	0xbe113d22	-0.14183477
94	0xbc9a2e83	-0.018821007
95	0xbdd86802	-0.10566713
96	0x3d7ea160	0.062165618
97	0x3e294c4f	0.16533016
98	0xbe49ba56	-0.19699988
99	0x3dd2543c	0.10269973
100	0x3ba0e148	0.004909668
101	0xbe2ec403	-0.1706696
102	0x3d1837f6	0.037162744
103	0xbd88f3f2	-0.06687154
104	0xbd727db6	-0.05920192
105	0x3d89cf76	0.06729023
106	0x3d7d456f	0.061833795
107	0xbd9cdfd4	-0.07659879
108	0xbd8285cb	-0.06373175
109	0xbce69a08	-0.02814962
110	0xbccf9504	-0.02533961
111	0x3c88cb17	0.016698403
112	0xbe066624	-0.13124901
113	0x3df0dfa3	0.11761405
114	0x3cabb0c2	0.020958308
115	0xbc90f6b4	-0.017695762
116	0xbba4f9ec	-0.005034676
117	0xbbda473a	-0.006661323
118	0x3e9daee2	0.30797487
119	0xbd34d258	-0.044145912
120	0xbf8bb107	-1.09134
121	0x3e6f8555	0.23390706
122	0xbe984172	-0.2973743
123	0xbd07105b	-0.032974582
124	0x3e80cd7d	0.25156775
125	0x3f81df26	1.0146224
126	0x3e81c912	0.25348717
127	0x3e8ceed7	0.2752597
128	0xbc214997	-0.009844205
129	0xbdcaf19f	-0.09909367
130	0xbf10decf	-0.5658998
131	0xbe2d4157	-0.16919456

transformer.wte.weight f4 [11, 12]
0	0x3c28b6c8	0.010297485
1	0x3cfb5f49	0.030685084
2	0x3bda5b18	0.0066636913
3	0xbd96527d	-0.07339952
4	0xbca14e31	-0.019690605
5	0xbd1a8bbf	-0.03773093
6	0xbe8af80f	-0.2714238
7	0x3d616abe	0.055033438
8	0x3cd61248	0.026131764
9	0x3835493c	4.3221968e-05
10	0x3d40c8c0	0.04706645
11	0x3df23e7d	0.11828325
12	0x3d892e2b	0.06698259
13	0xbe00f7cc	-0.12594527
14	0xbd03643e	-0.03207802
15	0xbe0be052	-0.1365979
16	0x3d98b674	0.07456675
17	0xbcb88676	-0.022525053
18	0x3c3e5753	0.011617499
19	0x3dd97250	0.106175065
20	0xbe0bbaae	-0.13645431
21	0xbd6a52bc	-0.057207808
22	0x3dacd96f	0.0843991
23	0x3a934b3c	0.0011237632
24	0x3da80a90	0.0820514
25	0xbdc70679	-0.097180314
26	0x3d9b585d	0.07585213
27	0x3d138252	0.036012955
28	0x3dc72e7a	0.097256616
29	0x3db159ce	0.08659707
30	0xbdba933d	-0.09110115
31	0xbe24d3db	-0.16096441
32	0x3d78bb78	0.06072566
33	0x3cb1c81a	0.021701861
34	0x3be7412d	0.00705733
35	0xbe5e701a	-0.21722451
36	0x3aff25e7	0.0019466252
37	0x3c874d43	0.016516333
38	0xbc118259	-0.008881175
39	0xbd4401e0	-0.04785335
40	0x3a98e0fa	0.0011663728
41	0x3bbd3f81	0.0057753925
42	0x3d44c7fd	0.048042286
43	0xbe4a6748	-0.19765961
44	0x3db75326	0.08951406
45	0xbe907af5	-0.2821881
46	0x3c5afc92	0.0133658815
47	0x3e3333c2	0.17500213
48	0xbbcc9faa	-0.0062446194
49	0x3ab2eb48	0.0013650442
50	0x3d137062	0.03599585
51	0xbdf962f0	-0.12177074
52	0xbc839381	-0.016061546
53	0xbdbb7402	-0.09152986
54	0x3d7ac102	0.061219223
55	0x3dcd59c2	0.100268856
56	0x3e345f69	0.17614521
57	0x3dc306a3	0.0952275
58	0x3d061ea3	0.03274406
59	0x3d15f964	0.03661479
60	0x3cd379e3	0.025814956
61	0x3db10ee8	0.08645421
62	0x3ea554bb	0.32291207
63	0xbc33bf59	-0.010970914
64	0xbde9c03f	-0.11413621
65	0xbd2e7645	-0.04259326
66	0x3d6c6ac3	0.057719003
67	0xbcbcc021	-0.023040833
68	0xbe3a3120	-0.18182802
69	0x3d174b60	0.036937118
70	0xbd61bde1	-0.055112723
71	0xbb36e229	-0.0027905798
72	0x3d3d0237	0.04614469
73	0xbde0595d	-0.10954545
74	0xbd78fede	-0.060789935
75	0x3d2986a4	0.04138817
76	0xbd89e09d	-0.06732295
77	0xbb6cf48c	-0.0036156503
78	0x3c12b8af	0.008955165
79	0xbd381b6c	-0.044948027
80	0x3c8e0986	0.017338526
81	0x3e26e540	0.1629839
82	0xbd8c5b0c	-0.06853303
83	0x3e7da3a7	0.2476946
84	0x3cb1f546	0.0217234
85	0xbdc87eed	-0.09789834
86	0x3c786a1f	0.01516202
87	0x3e1fcb58	0.15604913
88	0xbd964e95	-0.07339207
89	0xbd59ca97	-0.05317172
90	0xbce9a9f3	-0.02852342
91	0x3e6f5517	0.23372303
92	0x3d66de7d	0.056364525
93	0xbe113d22	-0.14183477
94	0xbc9a2e83	-0.018821007
95	0xbdd86802	-0.10566713
96	0x3d7ea160	0.062165618
97	0x3e294c4f	0.16533016
98	0xbe49ba56	-0.19699988
99	0x3dd2543c	0.10269973
100	0x3ba0e148	0.004909668
101	0xbe2ec403	-0.1706696
102	0x3d1837f6	0.037162744
103	0xbd88f3f2	-0.06687154
104	0xbd727db6	-0.05920192
105	0x3d89cf76	0.06729023
106	0x3d7d456f	0.061833795
107	0xbd9cdfd4	-0.07659879
108	0xbd8285cb	-0.06373175
109	0xbce69a08	-0.02814962
110	0xbccf9504	-0.02533961
111	0x3c88cb17	0.016698403
112	0xbe066624	-0.13124901
113	0x3df0dfa3	0.11761405
114	0x3cabb0c2	0.020958308
115	0xbc90f6b4	-0.017695762
116	0xbba4f9ec	-0.005034676
117	0xbbda473a	-0.006661323
118	0x3e9daee2	0.30797487
119	0xbd34d258	-0.044145912
120	0xbf8bb107	-1.09134
121	0x3e6f8555	0.23390706
122	0xbe984172	-0.2973743
123	0xbd07105b	-0.032974582
124	0x3e80cd7d	0.25156775
125	0x3f81df26	1.0146224
126	0x3e81c912	0.25348717
127	0x3e8ceed7	0.2752597
128	0xbc214997	-0.009844205
129	0xbdcaf19f	-0.09909367
130	0xbf10decf	-0.5658998
131	0xbe2d4157	-0.16919456

transformer.wpe.weight f4 [10, 12]
0	0xbcac2168	-0.021012023
1	0xbc869b64	-0.016431518
2	0x3cc4ae4b	0.02400889
3	0x3c905ef8	0.01762341
4	0x3d60c213	0.054872584
5	0xbd5e7317	-0.054308977
6	0xbc2be3fa	-0.010491366
7	0xbc16e521	-0.009209902
8	0xbc0ea8dc	-0.008707251
9	0x3b3d7588	0.0028909165
10	0x3ab92040	0.0014123991
11	0x3cb6e52d	0.022326076
12	0x3d6b60af	0.05746525
13	0xbcaa4e2e	-0.020789232
14	0xbcab93f2	-0.02094457
15	0xbc874997	-0.016514583
16	0xbdb6cb64	-0.089255124
17	0x3d367664	0.0445465
18	0x3c4e48c3	0.01259059
19	0x3d061e37	0.03274366
20	0xb9a1e876	-0.0003088151
21	0xbcd90534	-0.026491739
22	0x3d702830	0.058632076
23	0xbd214067	-0.03936806
24	0x3c83b86e	0.016079154
25	0xbd0a389b	-0.03374539
26	0x3c655f1a	0.013999725
27	0x3cd80e6a	0.02637406
28	0xbd4e1bc4	-0.050319448
29	0xbd029f0e	-0.031889968
30	0x3c319851	0.010839538
31	0x3c4082b4	0.011749912
32	0x3c2aee6a	0.010432819
33	0xbc9e143e	-0.019296762
34	0x3d721130	0.059098423
35	0xbc9b5753	-0.018962538
36	0x3d19c33e	0.037539713
37	0xbc2075bb	-0.009793694
38	0xbca0402d	-0.019561851
39	0xbca1c207	-0.01974584
40	0xbd8641b8	-0.065555036
41	0x3d3a8fa5	0.045547146
42	0x3bcbef98	0.00622363
43	0x3d173f82	0.0369258
44	0x39604363	0.00021387408
45	0xbca9812f	-0.020691482
46	0x3d2849db	0.04108606
47	0xbd0f9bac	-0.03506057
48	0x3b4e392b	0.003146718
49	0xbcdb398f	-0.026760845
50	0x3c6745ba	0.014115745
51	0x3cb935d2	0.022608671
52	0xbcffd07f	-0.031227348
53	0xbced3e76	-0.028960448
54	0x3bec6609	0.007214312
55	0x3c86416c	0.016388617
56	0x3c168255	0.009186347
57	0xbc96786e	-0.018367972
58	0x3d32a662	0.043615706
59	0xbc9ab2ee	-0.018884148
60	0x3cc85002	0.024452213
61	0xbbdacd86	-0.0066773323
62	0xbcc4d267	-0.024026109
63	0xbcd98355	-0.026551882
64	0xbd474e20	-0.04865849
65	0x3d4342ae	0.047671013
66	0x3ad45be5	0.0016201703
67	0x3d33cfd5	0.043899376
68	0x38a4203e	7.826135e-05
69	0xbc96891f	-0.018375931
70	0x3cb27916	0.021786254
71	0xbd1029a6	-0.03519597
72	0xbc6b79b6	-0.01437228
73	0xbce25cae	-0.027632084
74	0x3c3b1c6b	0.01142035
75	0x3ca0f016	0.019645732
76	0xbc6fbc56	-0.014632305
77	0xbced5efe	-0.02897596
78	0x3b527e1b	0.0032118622
79	0x3c93a3e8	0.018022493
80	0x3c0cc2ea	0.008591393
81	0xbc6f4752	-0.014604406
82	0x3cd07306	0.025445472
83	0xbc90dda7	-0.017683817
84	0x3c91d77c	0.017802946
85	0xbb9136ec	-0.004431596
86	0xbcf8c11e	-0.030365523
87	0xbcc988f1	-0.024601432
88	0xbd2a2353	-0.041537594
89	0x3d636c8d	0.055523444
90	0xbaf5a96a	-0.0018742506
91	0x3d5e9e3f	0.054350134
92	0x3ba9cd22	0.0051819244
93	0xbc7a6252	-0.01528223
94	0x3bdae4ca	0.006680106
95	0xbd10b78e	-0.0353313
96	0xbcb7b236	-0.022423845
97	0xbcb1ca5e	-0.021702942
98	0x3c335e33	0.010947752
99	0x3cd886c8	0.026431456
100	0x3b979a17	0.0046265232
101	0xbcc5d390	-0.024148732
102	0x3bf5a862	0.0074968794
103	0x3ce858db	0.028362682
104	0x3c582f2f	0.013194843
105	0xbc040e90	-0.008060113
106	0x3c6d29f2	0.014475333
107	0xbb54e8d8	-0.0032487419
108	0xbf77f6ce	-0.9686097
109	0x3f99dbf6	1.2020252
110	0x3ec01e5f	0.3752317
111	0xbea16b4f	-0.31527182
112	0xbdf19532	-0.11796035
113	0x3f9438b9	1.157981
114	0x3e04580e	0.12924215
115	0x3e910327	0.28322718
116	0xbeea7d95	-0.45798936
117	0x3df50bda	0.11965151
118	0xbf9d57a0	-1.2292366
119	0xbe8f6201	-0.2800446

transformer.h.0.ln_1.weight f4 [12]
0	0x401bb799	2.433081
1	0x3ffd695a	1.9797776
2	0x40088f12	2.1337323
3	0x400d994b	2.2124813
4	0x3ff905a7	1.945485
5	0x400b0c6e	2.1726336
6	0x40098c67	2.1491945
7	0x400be268	2.1856937
8	0x4021a930	2.5259514
9	0x401dc507	2.4651506
10	0x3fc72c0c	1.5560317
11	0x4004bbca	2.0739617

transformer.h.0.attn.c_attn.weight f4 [36, 12]
0	0x3e5312a8	0.20612586
1	0x3e8745f1	0.2642055
2	0xbe046777	-0.12930094
3	0xbe30128d	-0.17194577
4	0xbe6ceeec	-0.23138016
5	0x3ebc20d6	0.36743802
6	0x3d79cb8e	0.06098514
7	0x3d612bb9	0.054973338
8	0xbbc29508	-0.005938176
9	0xbd1feee4	-0.039046183
10	0xbe75eb52	-0.24015549
11	0xbd81edc6	-0.0634418
12	0x3dfe2391	0.124091275
13	0xbe6666c4	-0.2250014
14	0x3b9e6eba	0.004834977
15	0x3c527f5b	0.012847747
16	0x3d84fd6b	0.06493648
17	0x3d0fe99c	0.035134897
18	0x3dcdae04	0.100429565
19	0x3d9ae639	0.07563443
20	0xbd1bc854	-0.038032845
21	0xbb8ab5de	-0.004233106
22	0x3cc1c568	0.023653701
23	0xbd444003	-0.04791261
24	0xbe5bef91	-0.21478106
25	0x3cf5dafa	0.030011643
26	0xbdfdd668	-0.1239441
27	0x3debb47c	0.11509034
28	0x3d72ffb6	0.059325896
29	0x3e1ee5c0	0.1551733
30	0x38ca3e39	9.6437005e-05
31	0x3d6b0dec	0.057386324
32	0xbd87f553	-0.06638589
33	0x3cc030fa	0.023460854
34	0xbe628607	-0.2212144
35	0xbd55b0a6	-0.05217042
36	0x3e20887f	0.15677069
37	0x3c0239fd	0.007948396
38	0xbd56bc84	-0.052425876
39	0xbb8813ba	-0.004152742
40	0xbe27f89f	-0.16403435
41	0x3e3213fc	0.17390436
42	0x3b82a220	0.003986612
43	0x3c1c6136	0.009544661
44	0x3d44db2d	0.048060585
45	0xbbf3a7de	-0.007435783
46	0xbc02079d	-0.007936385
47	0xbd8b64bc	-0.06806323
48	0x3dd05818	0.101730525
49	0xbd146a48	-0.03623417
50	0xbd618736	-0.055060588
51	0xbb0cd40c	-0.0021488694
52	0xbe38c38a	-0.18043342
53	0xbcdbf7fc	-0.026851647
54	0x3e04cd0b	0.12968843
55	0x3ca3d5fe	0.0199995
56	0x3dc796ba	0.09745546
57	0x3c8de6f2	0.017322037
58	0x3d44bebf	0.048033472
59	0xbdab7e5b	-0.0837371
60	0x3e670d28	0.22563612
61	0x3dba2bc0	0.09090376
62	0xbda59e4d	-0.08086834
63	0xbdf43c7f	-0.11925601
64	0xbdc6aff8	-0.09701532
65	0x3e0b1260	0.13581228
66	0xbd150776	-0.03638407
67	0x3ccbe0fc	0.024887554
68	0xbd96852e	-0.07349621
69	0x3db91b4b	0.09038409
70	0xbd427208	-0.04747203
71	0xbd950b60	-0.0727756
72	0x3e01d8ab	0.12680309
73	0xbe1a1fc5	-0.15051182
74	0x3db7b712	0.08970465
75	0x3e38633e	0.18006608
76	0xbda80fd6	-0.082061455
77	0xbea42f7c	-0.32067478
78	0x3b8fa721	0.004383937
79	0xbcc059a1	-0.023480238
80	0xbd19e9f2	-0.037576623
81	0xbdbecd1c	-0.09316465
82	0x3e821462	0.25406176
83	0x3c2d883d	0.010591564
84	0x3dd4836f	0.103766315
85	0x3ca0c49b	0.019624999
86	0xbde8ec1b	-0.113731585
87	0x3d8696f0	0.06571758
88	0xbe7ac7aa	-0.24490228
89	0x3dcab4c6	0.09897761
90	0xbcd7b52a	-0.026331503
91	0x3d7e7b54	0.062129334
92	0x3dc18803	0.0944977
93	0xbc9074be	-0.017633792
94	0xbd6ceb1a	-0.057841398
95	0xbd4b779e	-0.049674623
96	0xbe1f7e47	-0.15575515
97	0xbdd3d382	-0.10343076
98	0x3dd5fb6e	0.10448347
99	0x3e0c0d0f	0.13676856
100	0x3e243d6e	0.16039059
101	0xbe817d28	-0.252908
102	0x3cf4ece9	0.029898124
103	0xbde8f941	-0.113756664
104	0x3da1c15a	0.07898207
105	0x3db80033	0.08984413
106	0x3c9c4b8e	0.019078996
107	0xbbaf6346	-0.0053524105
108	0xbd77efaf	-0.060531314
109	0x3d7731a6	0.060350083
110	0xbe1b1a0e	-0.15146658
111	0xbd8734a8	-0.0660184
112	0x3c892612	0.016741786
113	0x3e1d8dc3	0.15386109
114	0x3dd164f3	0.10224333
115	0x3e1b7503	0.15181355
116	0x3923c8e0	0.00015619723
117	0xbd0e0902	-0.03467656
118	0xbe7a8013	-0.24462919
119	0xbd5eb1ae	-0.054368667
120	0x3e21d592	0.15804127
121	0x3df242fd	0.11829183
122	0xbd349280	-0.044085026
123	0xbd946b88	-0.072470725
124	0xbe8ce9b8	-0.27522063
125	0x3e0d6bba	0.13810626
126	0x3dd76672	0.10517587
127	0x3d235395	0.039874632
128	0x3da5e497	0.08100241
129	0xbd008d21	-0.03138459
130	0xbe23b96c	-0.15988702
131	0xbd955eb1	-0.072934516
132	0xbe342d80	-0.17595482
133	0xbdbc3270	-0.09189308
134	0x3d3bab1b	0.045817476
135	0x3ddae7b8	0.10688728
136	0x3dc555c5	0.096355
137	0xbd05907f	-0.032608505
138	0x3dadc393	0.084845684
139	0x3c2d0cf1	0.0105621675
140	0xbd02d5e9	-0.031942282
141	0xbd85e65d	-0.06538079
142	0xbd5bda27	-0.053674843
143	0x3d40d251	0.047075573
144	0xbc5d82b8	-0.013519935
145	0x3ed76a0f	0.42073104
146	0xbdddaacd	-0.10823593
147	0xbe76ca5f	-0.24100636
148	0xbeb612cc	-0.35561216
149	0x3f07024e	0.5273789
150	0x3da10289	0.07861812
151	0x3dd6f19d	0.10495303
152	0x3d254466	0.040348433
153	0x3c13734e	0.008999659
154	0xbe4f8b32	-0.20267943
155	0xbdb5f197	-0.0888397
156	0xbc7649b2	-0.015032219
157	0xbe25cb61	-0.16190864
158	0xbbfcc190	-0.007713504
159	0x3d87c546	0.06629424
160	0x3b8b6a24	0.0042545963
161	0x3d2cb037	0.04216024
162	0x3e24189c	0.16025013
163	0x3c74c1fe	0.0149388295
164	0xbbc2997b	-0.0059387065
165	0x3c286ad0	0.010279372
166	0xbc1729e5	-0.009226297
167	0xbde8055f	-0.113291495
168	0x3d965d48	0.07342011
169	0x3d589312	0.052874632
170	0xbd8528cc	-0.06501922
171	0x3b96f932	0.004607343
172	0x3cf922dc	0.03041213
173	0xbdae2449	-0.085030146
174	0xbdaf80d7	-0.08569496
175	0x3e197e53	0.14989595
176	0x3df61180	0.120150566
177	0x3d5b78c0	0.053581953
178	0xbe971683	-0.29509363
179	0xbc703b09	-0.014662513
180	0xbdaa8156	-0.0832545
181	0x3c243be1	0.010024042
182	0xbd424636	-0.04743024
183	0xbbd4138a	-0.006472056
184	0xbe029f37	-0.12756048
185	0x3e875b62	0.26436907
186	0xbd097586	-0.033559345
187	0x3d39ecda	0.045391895
188	0x3d5076c3	0.05089451
189	0x3cc591f8	0.024117455
190	0x3c5a2185	0.013313656
191	0xbdc02d4d	-0.093836404
192	0xbdbcfc01	-0.092277534
193	0xb9930103	-0.0002803878
194	0xbda5da79	-0.08098311
195	0x3de25044	0.11050466
196	0xbdf4c6a2	-0.11951949
197	0x3e04a179	0.12952222
198	0xbcf2ec9b	-0.029653838
199	0x3c96effc	0.01842498
200	0xbdd7a58b	-0.10529622
201	0xbbaff33c	-0.005369572
202	0x3d4690da	0.048477985
203	0xbd1917cc	-0.03737621
204	0x3d1ea569	0.038731966
205	0x3de897ac	0.11357054
206	0xbe14ae59	-0.14519633
207	0xbdc3808b	-0.09546002
208	0xbd96531e	-0.07340072
209	0x3e6eaad4	0.23307353
210	0x3d9b41f0	0.07580936
211	0xbc96689e	-0.018360432
212	0xbd86448e	-0.065560445
213	0x3dff5201	0.12466813
214	0x3bf38535	0.007431651
215	0xbe16513d	-0.14679427
216	0xbe616042	-0.22009376
217	0xbdc4a32d	-0.09601436
218	0x3d0a1585	0.03371193
219	0x3dddc974	0.1082944
220	0xbd64ced2	-0.0558613
221	0xbe483956	-0.19553122
222	0x3d97b560	0.074076414
223	0xbcfc3cb1	-0.030790659
224	0xbcc8ee4b	-0.02452769
225	0x3b2a8a0e	0.0026022228
226	0x3e637f62	0.22216561
227	0xbd6bf9ca	-0.057611264
228	0xbd1a8270	-0.03772205
229	0x3d1e3d6f	0.038632806
230	0xbe1aefd1	-0.15130545
231	0x3d84dc78	0.064873636
232	0xbe80eaa2	-0.2517901
233	0x3e140f5e	0.14458987
234	0xbdaab933	-0.08336105
235	0x3d8fff07	0.070310645
236	0x3c474123	0.012161526
237	0xbcd8f7ba	-0.026485313
238	0x3d5ab8cf	0.053398903
239	0xbd963f25	-0.073362626
240	0x3c069e14	0.0082164
241	0xbcab684a	-0.020923752
242	0x3e672387	0.22572146
243	0x3e25eaf3	0.16202907
244	0x3e0f80ab	0.14013927
245	0xbea283d1	-0.31741193
246	0xbe385c7a	-0.18004027
247	0xbdc30643	-0.09522679
248	0xbc9d3971	-0.01919243
249	0xbc459124	-0.01205853
250	0xbc6c9aba	-0.014441187
251	0x3d1f9a62	0.03896559
252	0x3e306b2d	0.17228384
253	0x3e015f2c	0.12633961
254	0xbdd251c7	-0.10269504
255	0xbd55e30f	-0.052218493
