mnk_transformer/probing_checkpoints/ckpt2.pt (torch, 13666 bytes, 20 tensors)

transformer.wte.weight f4 [11, 12]
0	0xbd83e499	-0.06440086
1	0x3d5c7068	0.053818136
2	0xbb50eca9	-0.0031879342
3	0xbdcb1d0d	-0.0991765
4	0xbd6a4013	-0.057190012
5	0xbdb51988	-0.0884276
6	0xbec2787a	-0.3798254
7	0x3d9cc37c	0.07654473
8	0x3d1524ba	0.03641198
9	0x3b96ec89	0.004605834
10	0x3d9008a3	0.07032897
11	0x3e64f71d	0.22359891
12	0x3d729e66	0.05923309
13	0xbe65c851	-0.22439696
14	0x3d238e0c	0.03993039
15	0xbde49002	-0.1116028
16	0x3dc1b2e1	0.094579466
17	0xbdbb927f	-0.09158801
18	0x3d405908	0.046959907
19	0x3d625148	0.055253297
20	0xbe83b4fb	-0.25724015
21	0xbdb1b7a0	-0.08677602
22	0x3dcf2903	0.10115244
23	0x3c7624e2	0.015023442
24	0x3db2af7d	0.08724878
25	0xbe0a426f	-0.13501905
26	0x3db79144	0.08963254
27	0x3d48f83a	0.049064852
28	0x3e2ad52d	0.16682883
29	0x3db9e746	0.09077315
30	0xbdfe4506	-0.12415509
31	0xbe88b57e	-0.26700968
32	0x3ddd84cb	0.10816344
33	0xbc519cf5	-0.012793769
34	0xbc8d0998	-0.017216489
35	0xbe8e372a	-0.27776462
36	0xbc89e63a	-0.016833413
37	0x3dabeb1b	0.08394452
38	0xbc99c34e	-0.018769886
39	0xbd473193	-0.048631262
40	0xbc6059b8	-0.013693266
41	0x3b47bda2	0.003047802
42	0x3d39133a	0.04518435
43	0xbe8a5798	-0.27019954
44	0x3dfc6dec	0.123256534
45	0xbea8aae2	-0.32942873
46	0x3c89c1fa	0.016816128
47	0x3e6aeb24	0.22941262
48	0xba9d7fa1	-0.0012016186
49	0xbd8d1a20	-0.068897486
50	0x3d936143	0.071962856
51	0xbe1b5d78	-0.15172374
52	0x3b00095c	0.0019536829
53	0xbe4da087	-0.20080768
54	0x3e305c8f	0.17222808
55	0x3d649abf	0.05581164
56	0x3e85ea0b	0.26155123
57	0x3dd8abd8	0.105796516
58	0x3dc9f748	0.09861618
59	0xbd11dc4b	-0.03561048
60	0x3d8c1291	0.06839479
61	0x3e34805a	0.17627087
62	0x3ecc12f0	0.39858198
63	0xbc63e3bf	-0.013909279
64	0xbe1afce2	-0.1513553
65	0xbd1aba86	-0.03777554
66	0x3d81d7f2	0.063400164
67	0xbd99b0b9	-0.0750441
68	0xbe25a03f	-0.1617441
69	0x3cbc2403	0.02296639
70	0xbbd4f2fd	-0.006498693
71	0xbcf8fbe4	-0.030393548
72	0x3dc3be75	0.09557811
73	0xbddead94	-0.10872951
74	0xbcea54da	-0.028604914
75	0x3d6c9ec3	0.057768594
76	0xbe080993	-0.13284902
77	0x3d332c27	0.04374328
78	0x3d09ce61	0.033644084
79	0xbdaffb73	-0.08592882
80	0x3bc53884	0.0060187
81	0x3e8d48e1	0.27594665
82	0xbdf35a53	-0.11882462
83	0x3e9e3b19	0.30904463
84	0x3d830df8	0.06399149
85	0xbddb1f9c	-0.106993884
86	0x3d3030f6	0.043015443
87	0x3e208f64	0.15679699
88	0xbda4a85e	-0.08039926
89	0xbd74a6e0	-0.059729457
90	0xbddc5a20	-0.107593775
91	0x3e8fc963	0.28083333
92	0x3de456ab	0.11149343
93	0xbe325e40	-0.17418766
94	0xbd4ff40b	-0.050769847
95	0xbbd5e41f	-0.0065274383
96	0x3dbca8a0	0.0921185
97	0x3e45bd29	0.1931044
98	0xbe552bdd	-0.20817514
99	0x3e13ed97	0.14446102
100	0x3b6897e7	0.0035490931
101	0xbe4d0925	-0.2002302
102	0xbc5f2632	-0.013619946
103	0xbd82e085	-0.0639048
104	0xbd41699f	-0.04721987
105	0x3d92552a	0.0714515
106	0x3e0ea748	0.13931
107	0xbdb5ad80	-0.08870983
108	0xbce95767	-0.02848406
109	0xbd882c0e	-0.06649028
110	0xbd133608	-0.0359402
111	0x3d0bc4c8	0.034123212
112	0xbe597ced	-0.21239062
113	0x3e8d6467	0.27615663
114	0x3d3a89dc	0.04554163
115	0x3cc59f21	0.02412373
116	0xbc9e69c7	-0.019337548
117	0xbc9c5eab	-0.01908811
118	0x3e62d6ea	0.22152296
119	0xbdd913dd	-0.10599492
120	0xbf231c1c	-0.63714767
121	0x3ea5a2fe	0.32350916
122	0xbe22348a	-0.15840355
123	0xbe3e7b09	-0.18601622
124	0x3e83dde5	0.2575523
125	0x3eeb7593	0.4598814
126	0x3dc34f37	0.095365934
127	0x3e3b4d5e	0.18291232
128	0xbd80d0d6	-0.06289832
129	0x3dcb7add	0.09935544
130	0xbf1f5dbf	-0.6225242
131	0xbe3d5814	-0.1849063

transformer.wpe.weight f4 [10, 12]
0	0xbca58c76	-0.020208579
1	0xba30029e	-0.0006714257
2	0x3b39d0f7	0.0028353313
3	0xbb7207bc	-0.003693088
4	0x3d3497e1	0.044090156
5	0x3c30ece1	0.010798664
6	0xbc51f028	-0.012813605
7	0xbcdd61f3	-0.027024245
8	0xbc4865b7	-0.012231282
9	0x3c3c2cb5	0.011485268
10	0x3d943a43	0.07237675
11	0x3cfe8cda	0.031073023
12	0x3d4d5629	0.050130997
13	0xbc16ba2c	-0.00919966
14	0xbb2afd84	-0.0026091048
15	0xbd5070d4	-0.05088885
16	0xbdec71da	-0.11545153
17	0x3d9fe20c	0.07806787
18	0xbb3567d8	-0.0027680304
19	0x3d12f45b	0.035877567
20	0x3ad5750a	0.0016285491
21	0xbc42c975	-0.011888851
22	0x3d994803	0.07484438
23	0xbd1e165a	-0.038595535
24	0x3d2ee4a5	0.04269852
25	0xbc11e0ac	-0.008903664
26	0xbb8f4b7e	-0.004373013
27	0xbd41937f	-0.047259804
28	0xbdc26597	-0.09492033
29	0x3d77934a	0.0604432
30	0xbadbb165	-0.0016761242
31	0x3cf43765	0.02981157
32	0x3abb9f96	0.0014314528
33	0xbc12cbfc	-0.0089597665
34	0x3d85be36	0.065304205
35	0xbcfb6789	-0.030689018
36	0x3d13a87b	0.036049347
37	0xbbc2782d	-0.005934736
38	0xbb45c4a9	-0.0030177033
39	0xbd2e7844	-0.042595163
40	0xbd95891e	-0.07301544
41	0x3d502d11	0.05082423
42	0x375553b4	1.2715278e-05
43	0x3cd5dade	0.02610534
44	0x3b2e0839	0.0026555194
45	0xbbb80a89	-0.0056164903
46	0x3d78be5f	0.060728427
47	0xbcb07602	-0.021540646
48	0x3cd85072	0.026405547
49	0xbc30c9e0	-0.010790318
50	0xbbafb045	-0.005361589
51	0xbd23b20c	-0.03996472
52	0xbd69a446	-0.05704143
53	0x3d139ab8	0.036036223
54	0xbb1a8e9f	-0.0023583544
55	0x3c941401	0.018075945
56	0x3b681cfe	0.0035417671
57	0xbba8dba8	-0.005153138
58	0x3d5418ac	0.05178134
59	0xbc8543fa	-0.016267765
60	0x3c35db19	0.0110996
61	0x3c324d55	0.010882695
62	0x3b91980b	0.0044431738
63	0xbd19a45e	-0.03751027
64	0xbd4e5950	-0.050378144
65	0x3cb1439c	0.021638684
66	0xbb35bb8b	-0.0027730193
67	0x3c8d15b9	0.017222272
68	0x3b81900c	0.0039539393
69	0xba29859a	-0.00064667466
70	0x3d0060e0	0.031342387
71	0xbc06b3f2	-0.008221613
72	0x3b9cb283	0.0047820224
73	0xbb0362af	-0.0020047834
74	0xbb8746cc	-0.0041283127
75	0xbd05c83e	-0.03266167
76	0xbd04ea71	-0.032450143
77	0x3c286cd5	0.010279854
78	0xbb468158	-0.0030289497
79	0x3c1393c4	0.009007398
80	0x3bd02ef5	0.006353254
81	0xb9ef92de	-0.00045695057
82	0x3cc74d8c	0.02432897
83	0xbb91f5a4	-0.0044543315
84	0xbb8438bc	-0.0040350836
85	0xb9bba50a	-0.00035790383
86	0xbbbdbc11	-0.0057902415
87	0xbcd01889	-0.025402324
88	0xbc8d3181	-0.01723552
89	0x39916942	0.00027734978
90	0x3b077f2a	0.002067516
91	0x3c085eff	0.00832343
92	0x3c0a3669	0.008435824
93	0x3790cddc	1.7261998e-05
94	0x3c7f9c69	0.015601256
95	0x3b5bc1ca	0.0033532255
96	0xbc01af7b	-0.007915373
97	0xbc119a2c	-0.008886855
98	0xbc4db084	-0.012554292
99	0xbbd46f90	-0.006483026
100	0x3819a38b	3.6630354e-05
101	0xbc11752b	-0.008878033
102	0x3b3b9005	0.0028619778
103	0x3bbc84a8	0.0057531185
104	0x3c4d3365	0.01252446
105	0x3b4c883e	0.0031209136
106	0x3be2e4b4	0.006924236
107	0x3bf06ab6	0.0073369397
108	0xbf930e12	-1.1488669
109	0x3fe7f9e9	1.8123142
110	0x3ba10b98	0.004914712
111	0xbf82331f	-1.0171851
112	0xbdaca56f	-0.084299915
113	0x3f8cb615	1.0993067
114	0xbf7f928c	-0.9983299
115	0x3edd284f	0.43194816
116	0x3d04e85c	0.032448158
117	0x3d80525c	0.06265709
118	0xbf37f962	-0.718649
119	0xbe719090	-0.23590302

transformer.h.0.ln_1.weight f4 [12]
0	0x3fed29da	1.8528397
1	0x3fb15883	1.3855137
2	0x3fc7a00e	1.559572
3	0x3fc45148	1.5337305
4	0x3fb31da0	1.3993416
5	0x3fb388e9	1.4026157
6	0x3fcec6d6	1.615443
7	0x3fe103ee	1.7579324
8	0x3ff3bf6b	1.9042791
9	0x40003097	2.0029657
10	0x3faea658	1.3644514
11	0x3fc7c0cc	1.5605712

transformer.h.0.attn.c_attn.weight f4 [36, 12]
0	0x3d60ba04	0.0548649
1	0x3dcfb685	0.10142235
2	0x3d541ac9	0.051783357
3	0xbda1640e	-0.07880412
4	0xbe7e95ef	-0.24861883
5	0x3e2be0e3	0.16785006
6	0xbd214260	-0.03936994
7	0x3d3561a6	0.044282578
8	0x3c5778fe	0.013151405
9	0x3ac1eef2	0.0014795943
10	0x3d2339e8	0.039850146
11	0xbd1bf083	-0.038071167
12	0x3e82404d	0.25439683
13	0xbe47644b	-0.19471852
14	0x3d9fa5af	0.077952735
15	0x3c899bea	0.016797978
16	0xbdd7f31b	-0.105444156
17	0xbd967f09	-0.07348449
18	0xbdb58a11	-0.08864225
19	0x3d8e0a4d	0.069355585
20	0x3b71c43a	0.0036890642
21	0xbc185827	-0.009298361
22	0x3d4daed5	0.05021556
23	0x3d7f8936	0.062386714
24	0xbe632d87	-0.22185336
25	0xbb0382a5	-0.0020066884
26	0x3b63751d	0.0034707256
27	0x3e5dfff2	0.21679667
28	0xbcd8606e	-0.026413169
29	0x3c9b47ec	0.018955193
30	0x3de06839	0.10957379
31	0x3ca0785b	0.01958864
32	0xbdd442fb	-0.10364338
33	0x3d37c2e4	0.044863597
34	0xbd88e31e	-0.06683944
35	0xbda18465	-0.078865804
36	0x3e8c3eff	0.27391812
37	0xbd6edd92	-0.058316775
38	0x3db61b56	0.08891933
39	0xbd3c2622	-0.045934804
40	0xbe11a0af	-0.14221452
41	0x3d6bde3a	0.05758498
42	0x3cd442c9	0.025910752
43	0xbd265758	-0.04061064
44	0x3d050ef4	0.032484964
45	0x3c8d9893	0.017284667
46	0x3c6c9a15	0.014441033
47	0xbd5870ae	-0.052841835
48	0x3e04fe10	0.12987542
49	0xbde246ae	-0.11048637
50	0x3d35ba90	0.044367373
51	0x3db0292b	0.08601602
52	0xbe541575	-0.2071131
53	0xbdcaaeb6	-0.09896605
54	0x3de2bb6b	0.110709034
55	0xbd57fe9c	-0.05273305
56	0x3d9c472d	0.07630763
57	0x3c61e421	0.0137873
58	0x3e38ef40	0.18060017
59	0xbcd7f5b2	-0.026362274
60	0x3b97ea16	0.0046360595
61	0xbc54b200	-0.012981892
62	0x3c3c4aad	0.0114924135
63	0xbdac1eb1	-0.084042914
64	0xbdcc6146	-0.09979491
65	0x3d8b29fa	0.06795116
66	0xbdf9ed4a	-0.122034624
67	0x3b95245f	0.004551455
68	0xbc45a2ef	-0.012062772
69	0x3d84e1f7	0.06488412
70	0x3e8aa28d	0.2707714
71	0xbcbc88ee	-0.023014512
72	0x3d903a20	0.070423365
73	0xbe150a39	-0.14554681
74	0xbb0649a9	-0.0020490682
75	0x3e897caf	0.2685294
76	0xbe01e8d5	-0.12686475
77	0xbe165f32	-0.14684752
78	0xbd8bab85	-0.06819824
79	0x3b024f80	0.0019883811
80	0xbb686e00	-0.0035465956
81	0x3d811042	0.06301929
82	0x3cefb7b4	0.029262401
83	0x3d7beb22	0.061503537
84	0x3e8df04a	0.27722389
85	0x3cfd55cd	0.030924702
86	0xbda8bb4a	-0.082388476
87	0xb9fb1002	-0.00047886377
88	0xbd9c4438	-0.07630199
89	0xbd448011	-0.047973696
90	0xbda7bd2c	-0.081903785
91	0x3cc3a032	0.023880098
92	0x3de4f970	0.11180389
93	0xbd4c19a5	-0.049829144
94	0xbd162dba	-0.036664702
95	0x3cafde62	0.021468345
96	0xbe31cc65	-0.17363127
97	0x3cbad329	0.022805767
98	0x3ca7b277	0.02047084
99	0x3da5da26	0.08098249
100	0x3e088604	0.13332373
101	0xbaea98e8	-0.0017898353
102	0xbd01ab18	-0.03165731
103	0x3d73cb6d	0.059520174
104	0x3ce68571	0.028139802
105	0x3dbe1e1b	0.09283086
106	0xbe85faa4	-0.26167786
107	0xbdeb7f60	-0.11498904
108	0xbd96848c	-0.073495
109	0x3afda6a7	0.0019352034
110	0xbe3e905a	-0.18609753
111	0xbd861e9f	-0.06548809
112	0xbd0689d3	-0.032846283
113	0x3d96fb6d	0.073721744
114	0x3e3075c2	0.17232421
115	0x3e2a822c	0.16651219
116	0xbda8b3ba	-0.08237405
117	0xbd4b085a	-0.04956851
118	0xbd8c395a	-0.068468764
119	0xba4cb00a	-0.0007808214
120	0x3e330119	0.17480887
121	0x3caed245	0.021340499
122	0x3cfa7410	0.030572921
123	0xbdc22a89	-0.09480769
124	0xbe319241	-0.17340948
125	0x3c861e3e	0.016371842
126	0x3baa2c0f	0.0051932405
127	0x3d11cddc	0.035596713
128	0x3de5693a	0.11201711
129	0xbd12ed18	-0.03587064
130	0x3cd8dfbc	0.026473872
131	0xbd3a9540	-0.045552492
132	0xbe0f4b0c	-0.13993472
133	0xbc5f1db9	-0.013617926
134	0x3d29ac8b	0.041424315
135	0x3e599573	0.21248417
136	0x3ce7b82f	0.028286068
137	0xbd579b13	-0.052638125
138	0x3c944424	0.018098898
139	0x3d959312	0.07303442
140	0xbb57ecff	-0.0032947657
141	0xbda86de6	-0.082240865
142	0xbe4e969e	-0.20174643
143	0xbb451482	-0.0030072038
144	0xbe9d877e	-0.30767435
145	0x3e6152ee	0.22004291
146	0x3e0b192b	0.1358382
147	0x3c273fa8	0.010208048
148	0xbe9b34a5	-0.30313602
149	0x3e29afa2	0.16570905
150	0x3ddfb590	0.10923302
151	0x3dcaa7d3	0.09895291
152	0xbd339956	-0.043847404
153	0x3c383d18	0.011245035
154	0xbd5f6077	-0.054535355
155	0xbd883797	-0.06651228
156	0xbd4eb330	-0.050463855
157	0xbea820a2	-0.32837397
158	0x3c163c92	0.0091697145
159	0x3e06699f	0.13126229
160	0x3c3eb7a9	0.011640468
161	0x3d2e41df	0.04254329
162	0x3d8f5d53	0.07000222
163	0x3dad7bdd	0.08470891
164	0xbceae7a1	-0.028674902
165	0xbd0aad54	-0.033856705
166	0x3cb7cf09	0.02243759
167	0xbd92fdd3	-0.071773194
168	0x3c686289	0.014183649
169	0x3e81ae12	0.25328118
170	0x3db67b37	0.0891022
171	0xbe24729c	-0.16059345
172	0xbad6ce1c	-0.001638833
173	0xbe2aa147	-0.16663085
174	0xbe3a6114	-0.18201095
175	0x3e0d20a3	0.13781981
176	0x3a207741	0.0006121286
177	0x3de8cde3	0.11367395
178	0xbdea1785	-0.11430267
179	0xbd3f53dc	-0.046710834
180	0xbe40af05	-0.18816765
181	0xbe212808	-0.15737927
182	0x3c7549d7	0.014971218
183	0x3dae3cdb	0.08507701
184	0xbcbb1401	-0.022836687
185	0x3e341a22	0.17588094
186	0xbe0fe287	-0.14051257
187	0x3d68f4d2	0.056874104
188	0x3b9636b0	0.004584156
189	0xbd0d3788	-0.034476787
190	0x3d52b1fe	0.051439278
191	0xbd916f99	-0.07101364
192	0xbd5fab8d	-0.054606963
193	0xbdc22ea3	-0.094815515
194	0xbe0bd3b7	-0.13654982
195	0x3dce417f	0.10071086
196	0xbd9fe48e	-0.07807265
197	0x3d8ddf62	0.069273725
198	0xbe3795e6	-0.17928275
199	0x3de0ea77	0.109822206
200	0xbd4e4e10	-0.050367415
201	0x3d7a6c72	0.061138578
202	0x3c6b6b0d	0.014368785
203	0x3bd91f2f	0.006626032
204	0xbd991544	-0.07474759
205	0x3c69db87	0.014273531
206	0xbd94ae80	-0.07259846
207	0xbd86a25c	-0.06573936
208	0xbd733504	-0.05937673
209	0x3df2002a	0.118164375
210	0x3e0a8724	0.13528115
211	0xbca7fb07	-0.020505441
212	0xbe53eac3	-0.20695023
213	0x3e2a4d41	0.16631033
214	0x3cfc709f	0.03081542
215	0xbddafe20	-0.10693002
216	0x3d8903d0	0.0669018
217	0xbd99a4a1	-0.075021036
218	0xbdc12768	-0.09431344
219	0x3dec03d7	0.1152417
220	0xbdc5c24b	-0.09656199
221	0xbca7c24c	-0.02047839
222	0xba56de9e	-0.00081966247
223	0x3dfd3eea	0.123655155
224	0x3c0eafc2	0.008708896
225	0x3d807c16	0.062736675
226	0xbb05c294	-0.0020410167
227	0xbe007f82	-0.1254864
228	0xbda49693	-0.08036532
229	0xbd32752d	-0.04356878
230	0xbe3eb18c	-0.18622416
231	0x3e904113	0.28174648
232	0xbbfa7c5d	-0.00764422
233	0x3d9c72b1	0.07639063
234	0x3dfe7384	0.124243766
235	0x3c50e3da	0.012749637
236	0x3d384130	0.044984043
237	0xbe34776a	-0.17623678
238	0xba077d6e	-0.0005168532
239	0xbd26f42f	-0.040760215
240	0x3de7a6e3	0.11311128
241	0x3de5a7bc	0.112136334
242	0x3e293200	0.1652298
243	0x3da327b9	0.07966561
244	0x3d87e33d	0.06635139
245	0xbd821920	-0.063524485
246	0xbd2797cb	-0.040916245
247	0xbdb5b836	-0.08873026
248	0x3d48ad52	0.048993416
249	0x3c99f405	0.018793115
250	0xbe0abdd4	-0.13548976
251	0xbd79cd51	-0.06098682
252	0xbbcab3e2	-0.0061859945
253	0x3e4a4da6	0.19756183
254	0x3e14d653	0.14534883
255	0x3d162d80	0.036664486

transformer.h.0.attn.c_proj.weight f4 [12, 12]
0	0x3cf8b968	0.030361846
1	0xbe586dc8	-0.21135628
2	0xbe08a68f	-0.13344787
3	0x3e0a3748	0.1349765
4	0xbe612624	-0.21987206
5	0xbdfcd1cb	-0.12344702
6	0x3d26485b	0.040596347
7	0x3e0cd63a	0.13753596
8	0xbd9470e1	-0.072480924
9	0xbd65d13a	-0.056107737
10	0x3e891062	0.26770312
11	0x3d16c5b9	0.036809657
12	0x3bf9a933	0.007619047
13	0xbcc1840b	-0.023622533
14	0xbe5f02d6	-0.21778426
15	0x3cabbdc8	0.020964518
16	0x3be1690b	0.006878977
17	0x3aff1f25	0.0019464238
18	0xbccc8d92	-0.02496985
19	0x3daa1903	0.08305552
20	0x3cca680d	0.024707818
21	0x3da6cdf8	0.08144754
22	0xbd80179c	-0.06254503
23	0xbdb203c3	-0.08692124
24	0x3e17dd81	0.14830591
25	0x3c8d78da	0.01726954
26	0x3e1a98d2	0.15097359
27	0xbc3c8031	-0.011505173
28	0xbc5903f7	-0.013245574
29	0x3cabad0f	0.020956544
30	0x3d2076f5	0.039175946
31	0xbd98d0ec	-0.07461724
32	0x3d5cbe94	0.053892687
33	0xbe04b459	-0.12959422
34	0xbcf5b0dd	-0.029991562
35	0x3e276679	0.16347684
36	0xbd87ceb2	-0.06631221
37	0x3d39719a	0.045274355
38	0xbe19a4b9	-0.15004243
39	0x393aba02	0.00017807636
40	0x3e921f53	0.28539523
41	0x3d13949a	0.03603039
42	0x3e809c78	0.25119376
43	0xbe7a4b39	-0.24442758
44	0xbe27acc0	-0.16374493
45	0xbd1b97bf	-0.037986513
46	0x3da2e86e	0.07954489
47	0xbcf2fe29	-0.029662209
48	0x3d0755d1	0.033040825
49	0x3d6fdd5a	0.058560707
50	0xbdfc790d	-0.12327776
51	0xbd2c311a	-0.042039014
52	0xbe22a5c2	-0.15883544
53	0x3d9664d1	0.07343448
54	0x3e6c52fa	0.23078528
55	0x3e0266b7	0.12734495
56	0xbddf0434	-0.108894736
57	0x3e0748b1	0.13211323
58	0xbda194b4	-0.07889691
59	0x3cd4aa26	0.02596004
60	0xbdab2e96	-0.08358495
61	0x3d159672	0.03652043
62	0x3e6b546a	0.2298142
63	0xbe8ea489	-0.27859905
64	0xbdb0ada5	-0.0862687
65	0xbcb83005	-0.022483835
66	0x3b82ad3c	0.0039879363
67	0xbd506eb0	-0.05088681
68	0x3d6323b4	0.05545397
69	0x3ca4878f	0.02008417
70	0x3db56e1a	0.08858891
71	0xbd1804e3	-0.037114035
72	0xbdc4cfd3	-0.09609952
73	0xbda2fda2	-0.07958533
74	0x3c327ca0	0.010893971
75	0xbcb468b7	-0.022022588
76	0x3e347bcf	0.17625354
77	0x3d997dab	0.074946724
78	0xbe81fec2	-0.25389677
79	0xbcb54ef8	-0.022132382
80	0x3d873ddd	0.06603596
81	0x3e4dceb5	0.20098384
82	0xbd997826	-0.074936196
83	0xbe05e338	-0.13074958
84	0xbcf2b270	-0.029626101
85	0xbd19989c	-0.037499055
86	0xbc3f9257	-0.011692605
87	0x3c092e51	0.008372859
88	0x3e0d2008	0.1378175
89	0xbe56e029	-0.20983948
90	0x3d2e1eef	0.04250997
91	0xbd4c1617	-0.049825754
92	0x3e4aafb1	0.19793583
93	0x3dd26eca	0.102750376
94	0x3dabf664	0.08396605
95	0xbdb7d25c	-0.0897567
96	0x3d8b61d1	0.068057664
97	0xbda196c5	-0.07890085
98	0x3e160858	0.1465162
99	0x3e116a7b	0.14200775
100	0x3e662485	0.22474869
101	0x3d841450	0.06449187
102	0xbe24fb83	-0.16111569
103	0xbe04450c	-0.12916964
104	0x3bd2e02b	0.0064354143
105	0xbcf47249	-0.029839652
106	0xba315436	-0.00067645626
107	0x3ddd94db	0.108194076
108	0x3c5df7d6	0.013547858
109	0x3e2e3d0b	0.17015474
110	0x3d81ceea	0.06338294
111	0x3e1132a6	0.14179477
112	0x3d5e5176	0.054276906
113	0xbdad1eef	-0.08453166
114	0xbbb3b680	-0.005484402
115	0x3db2e05c	0.087341994
116	0x3d3d458e	0.04620891
117	0xbdbfb870	-0.093613505
118	0xbd40f512	-0.047108717
119	0x3d1c006e	0.038086347
120	0xbd636a57	-0.055521335
121	0x3dbb0e9d	0.09133647
122	0x3c5bbed0	0.013412192
123	0xbbbbbe3e	-0.0057294657
124	0xbe18b58f	-0.14913009
125	0x3d20fcf6	0.039303742
126	0xbe316302	-0.17322925
127	0x3da859ca	0.08220251
128	0xbbab3516	-0.005224834
129	0xbe08401d	-0.13305707
130	0xbdccf804	-0.10008243
131	0xbd1579db	-0.036493164
132	0x3cb01039	0.02149211
133	0xbd91d2a7	-0.07120257
134	0xbc354e05	-0.011065965
135	0xbe0600d8	-0.1308626
136	0xbd8cc4d5	-0.0687348
137	0x3e45de2c	0.19323033
138	0x3c0ac722	0.0084703285
139	0xbd329a95	-0.043604452
140	0xbd8b5ff0	-0.06805408
141	0x3e0124e6	0.12611732
142	0xbe0695ae	-0.13143036
143	0xbc2319c0	-0.00995487

transformer.h.0.ln_2.weight f4 [12]
0	0x4031de0a	2.7791772
1	0x4001d9af	2.0289114
2	0x3ff4441b	1.9083284
3	0x401f01bb	2.4844806
4	0x4010969c	2.2591925
5	0x4018e54c	2.3889952
6	0x40092fc1	2.1435397
7	0x3fecdb96	1.8504512
8	0x3ff14e9a	1.8852112
9	0x3ffca4e9	1.9737827
10	0x40268cb6	2.6023383
11	0x3fd0ba72	1.6306899

transformer.h.0.mlp.c_fc.weight f4 [48, 12]
0	0x3d921893	0.071335934
1	0xbdd3efea	-0.10348494
2	0x3ddfb50b	0.10923203
3	0x3b9ec0a4	0.004844742
4	0x3b801db1	0.0039097895
5	0xbdb2fcbd	-0.08739612
6	0x3d837403	0.06418612
7	0x3da7f173	0.0820035
8	0x3be0ad82	0.0068566212
9	0xbdc419be	-0.095752224
10	0x3e08bcfb	0.1335334
11	0xbd831df4	-0.064021975
12	0xbd8f635f	-0.070013754
13	0xbdebe721	-0.11518694
14	0x3e4f3ab3	0.20237236
15	0xbda91e1a	-0.082576945
16	0x3a95ff77	0.0011443932
17	0x3d948966	0.07252769
18	0xbca0bf1b	-0.019622376
19	0x39f4ce68	0.0004669309
20	0x3cbb8db2	0.022894714
21	0xbd05d041	-0.03266931
22	0xbdcda6e3	-0.10041597
23	0x3c9ee64c	0.019396923
24	0x3d40099d	0.046884168
25	0x3d9810d9	0.074250884
26	0xbc0da3c8	-0.0086450055
27	0x3cc2d1d9	0.023781704
28	0x3d3fafd6	0.04679855
29	0xbd7cb127	-0.061692383
30	0xbbc51704	-0.0060147066
31	0x3d985185	0.074374236
32	0xbdef7e3f	-0.116940014
33	0xbd7430d2	-0.05961687
34	0xbc940e2f	-0.01807317
35	0x3deeb12b	0.11654886
36	0xbdcd8812	-0.10035719
37	0xbd9415e4	-0.07230738
38	0x3dae00d3	0.08496251
39	0xbd11cbef	-0.035594877
40	0x3d18fe70	0.037352026
41	0x3d8f3290	0.06992066
42	0x3e1343a3	0.1438127
43	0x3d42de4d	0.047575284
44	0xbd040ea7	-0.032240536
45	0xbc41d17f	-0.011829733
46	0xbda06070	-0.07830894
47	0xbabf6992	-0.0014603606
48	0xbe9fe24f	-0.31227347
49	0x3d3a1931	0.04543418
50	0x3e47f071	0.19525315
51	0x3eedd474	0.4645115
52	0x3ee8f080	0.45495987
53	0xbf18d39a	-0.5969788
54	0xbda40bc2	-0.08010055
55	0xbe45eb19	-0.19327964
56	0x3e6707b9	0.2256154
57	0xbd9f988c	-0.07792768
58	0xbf18468c	-0.59482646
59	0x3dffca5d	0.124897696
60	0x3cc9208c	0.024551652
61	0x3e196e55	0.14983495
62	0xbe2921c9	-0.16516794
63	0x3dba589c	0.09098932
64	0xbd59df94	-0.053191736
65	0x3b8afa7d	0.0042412863
66	0x3d63144e	0.055439286
67	0xbd6a3cde	-0.057186954
68	0xbd561562	-0.052266486
69	0x3e05bb19	0.13059653
70	0x3d7bc312	0.06146533
71	0xbde121d1	-0.10992778
72	0xbd4f33ec	-0.050586626
73	0xbd548c6d	-0.051891733
74	0xbe058dca	-0.1304237
75	0xbd35dd9e	-0.044400804
76	0x3d97415f	0.073855154
77	0x3d2805de	0.04102122
78	0xbde6fc48	-0.112785876
79	0x3d989371	0.07449997
80	0x3ddd1a42	0.10796024
81	0xbcfde65d	-0.030993635
82	0x3cabc588	0.020968214
83	0x3d726c44	0.05918528
84	0xbdd05ffc	-0.101745576
85	0xbe077a9f	-0.1323037
86	0x3e536746	0.20644864
87	0xbe14dfd4	-0.14538509
88	0x3ce534a8	0.02797921
89	0x3e04a6ae	0.12954208
90	0xbd1e2817	-0.03861245
91	0x3d6896e5	0.05678453
92	0x3d339a02	0.043848045
93	0xbd91ed39	-0.07125325
94	0xbdf9877e	-0.12184046
95	0x3e069292	0.1314185
96	0x3d0286c8	0.03186682
97	0xbcb7df41	-0.022445323
98	0x3dcb25ec	0.099193424
99	0x3ca2d5aa	0.019877274
100	0xbd5b60d9	-0.053559158
101	0xbd22656b	-0.0396475
102	0x3d479caf	0.04873341
103	0x3aaea983	0.0013325665
104	0xbdb47b09	-0.088125296
105	0xbd19ce38	-0.03755018
106	0x3d848b5f	0.064718954
107	0x3cdd6dad	0.027029837
108	0x3cbdc0d3	0.023163235
109	0xbbc507b6	-0.006012882
110	0x3d256c66	0.04038658
111	0x3c5b50ac	0.013385933
112	0x3d1e4770	0.038642347
113	0xbc956b4e	-0.018239643
114	0xbdcaa23b	-0.09894224
115	0x3e3bce7b	0.18340485
116	0xbddc2aa4	-0.107503206
117	0x3e8c2e4e	0.27379078
118	0xbd84045d	-0.06446145
119	0xbe3b6bec	-0.18302888
120	0xbeb25c0b	-0.34835848
121	0x3ebd46cc	0.36968076
122	0xbebb8d91	-0.36631444
123	0xbe2d1aa1	-0.1690469
124	0x3ea5b2bd	0.3236293
125	0x3e10e2a5	0.14148958
126	0x3e92bfa0	0.28661823
127	0x3ef0c774	0.4702717
128	0xbe5c2daf	-0.21501802
129	0xbdf3d5fe	-0.1190605
130	0xbf05386d	-0.52039224
131	0xbd108f38	-0.035292834
132	0xbd8b5878	-0.068039834
133	0x3e100097	0.14062725
134	0x3d0e5f5c	0.03475891
135	0xbe2dd6c6	-0.16976461
136	0x3e9ce243	0.30641374
137	0xbda7f6b2	-0.0820135
138	0xbd90c143	-0.07068112
139	0xbe276d7c	-0.16350359
140	0xbe0b6e15	-0.13616212
141	0x3dc38372	0.095465556
142	0x3d9b7fc4	0.07592729
143	0x3dda07b5	0.10646001
144	0xbe3498fe	-0.17636487
145	0x3e38a665	0.18032224
146	0xbe4eb27f	-0.20185278
147	0xbd6c1a9b	-0.05764256
148	0x3e074753	0.13210802
149	0x3d933191	0.071871884
150	0x3e2ac010	0.16674829
151	0x3e80aa32	0.2512985
152	0xbdf9b840	-0.12193346
153	0xbda7fd43	-0.08202603
154	0xbe65a032	-0.22424391
155	0x3c08d7d5	0.00835224
156	0x3dae69e4	0.08516291
157	0xbda2111c	-0.079134196
158	0x3dee815b	0.11645766
159	0x3c359f79	0.0110853845
160	0xbd59193f	-0.053002592
161	0xbc7d51f2	-0.015461432
162	0x3e0401df	0.12891339
163	0xbdab1a8e	-0.08354674
164	0xbdfe5885	-0.124192275
165	0x3e1e9639	0.15486993
166	0xbd985132	-0.07437362
167	0xbbe7179d	-0.0070523755
168	0x3dda26d1	0.10651935
169	0xbd81e630	-0.06342733
170	0xbd13d929	-0.036095772
171	0xb9c52672	-0.00037603412
172	0x3ac0b1d5	0.0014701436
173	0x3dd3a0a5	0.10333375
174	0x3ccb94a2	0.024851147
175	0xbdd8ccd5	-0.105859436
176	0xbce8dc10	-0.028425246
177	0xba8784d8	-0.0010339273
178	0xbca6852d	-0.020327175
179	0x3ce23ae4	0.027615972
180	0x3ce909b3	0.028447008
181	0xbe0523f4	-0.13001996
182	0xbc84c6e4	-0.01620812
183	0x3df90e90	0.12160981
184	0x3cc1a1eb	0.023636779
185	0x3d050273	0.03247304
186	0xbc980894	-0.018558778
187	0xba8233c1	-0.0009933637
188	0xbc46abea	-0.012125948
189	0xbcedb727	-0.029017998
190	0x3cc963d7	0.02458374
191	0xbcfac857	-0.030613108
192	0xbd254504	-0.04034902
193	0xbca256cd	-0.01981678
194	0xbe17183d	-0.1475534
195	0x3c0926bf	0.008371054
196	0x3a611ed2	0.00085876614
197	0xbbedacc6	-0.007253262
198	0xbdb0e053	-0.086365364
199	0x3d9c5d1c	0.07634947
200	0x3de2bf78	0.11071676
201	0x3c91aa08	0.017781273
202	0x3d96665c	0.07343742
203	0x3b9bff4e	0.0047606593
204	0xbca80f8f	-0.020515231
205	0x3e1a330f	0.1505854
206	0xbdf9cad0	-0.121968865
207	0x3c51e63a	0.012811238
208	0x3cc5846e	0.024110999
209	0x3dbdcdfc	0.09267804
210	0xbd07eb39	-0.03318331
211	0xbe115a10	-0.14194512
212	0x3e5cc0c5	0.2155791
213	0xbd94278b	-0.07234105
214	0x3ba397fc	0.004992483
215	0xbd4ec0af	-0.050476726
216	0x3d4e2b90	0.050334513
217	0x3df5765c	0.11985466
218	0xbe085d69	-0.13316883
219	0xba551bdd	-0.0008129457
220	0xbd17dde9	-0.037076864
221	0xbb94cd1b	-0.004541052
222	0xbdb2b4bf	-0.08725881
223	0xbdb7c7c6	-0.08973651
224	0x3da16a26	0.07881574
225	0x3db09aec	0.08623299
226	0xbd0d7d70	-0.034543455
227	0x3db427db	0.08796664
228	0x3e82c3da	0.25540048
229	0x3d55feee	0.052245073
230	0xbd5d255c	-0.053990707
231	0xbdf05381	-0.11734677
232	0x3d9c679f	0.07636952
233	0xbdcb2e3b	-0.09920927
234	0xbd2f6884	-0.042824283
235	0x3d821b47	0.06352859
236	0x3c2d463c	0.010575827
237	0xbd825ae7	-0.063649945
238	0xbe3b852b	-0.18312518
239	0x3d4983ee	0.049198084
240	0x3d9e6d37	0.07735675
241	0x3dbbf903	0.091783546
242	0x3c51f293	0.012814182
243	0x3c81bdf9	0.015837656
244	0xbd17ebca	-0.0370901
245	0x3c0688b6	0.008211305
246	0x3c947870	0.018123835
247	0xbdc0144b	-0.093788706
248	0x3b782d75	0.0037868891
249	0x3d817e9c	0.06322977
250	0x3cad8702	0.02118254
251	0xbd7a89d9	-0.061166618
252	0x3f1812ec	0.5940387
253	0x3e2d7a6a	0.16941229
254	0xbdc48792	-0.095961705
255	0xbeacd6f4	-0.33757746

transformer.h.0.mlp.c_proj.weight f4 [12, 48]
0	0xbd2dc600	-0.042425156
1	0xbd421886	-0.04738667
2	0xbd9aa3bc	-0.07550761
3	0x3d834991	0.06410516
4	0xbd4066be	-0.046972983
5	0xbc7e1dc9	-0.015510031
6	0x3dd9465f	0.10609125
7	0xbd86e1a2	-0.06586005
8	0x3ca366d0	0.019946486
9	0xbd42295c	-0.047402725
10	0x3cdd9bf3	0.027051901
11	0xbccae918	-0.02476935
12	0xbd5e0eb8	-0.054213256
13	0x3cf272c0	0.029595733
14	0xbccf6a23	-0.025319165
15	0x3d5aa750	0.053382218
16	0x3d81d11b	0.06338712
17	0xbcf3de6f	-0.02976915
18	0xbd205cf9	-0.039151166
19	0xbdecf046	-0.11569266
20	0xbd515916	-0.05111035
21	0xbc837fc8	-0.016052142
22	0x3d297fb1	0.04138154
23	0x3c45e9b0	0.012079641
24	0x3d43de76	0.047819577
25	0xbdc366a8	-0.095410645
26	0xbd8215d8	-0.063518226
27	0x37dd70a0	2.6397698e-05
28	0xbc979eb8	-0.0185083
29	0xbd90c477	-0.07068723
30	0x3d0ec7e9	0.034858618
31	0x3abca957	0.0014393729
32	0x3b9c641a	0.004772675
33	0xbca3737f	-0.019952534
34	0xbc5ddb4b	-0.013541053
35	0xbcb35222	-0.02188975
36	0x3a6ca2d1	0.0009026947
37	0xbcb327fd	-0.021869654
38	0xbc2987ae	-0.01034729
39	0x3c4c3337	0.012463382
40	0x3ca629ac	0.020283543
41	0x3e12c8d4	0.14334422
42	0xbd744a99	-0.059641454
43	0x3d17bb6a	0.037043966
44	0x3d46a843	0.04850031
45	0x3dae1de5	0.08501796
46	0x3db70fef	0.08938586
47	0x3c99c370	0.01876995
48	0x3d9e3016	0.077240154
49	0xbe0cdc02	-0.13755801
50	0x3d9d1344	0.0766969
51	0xbd8e2200	-0.06940079
52	0xbe4def11	-0.20110728
53	0xbda6211c	-0.08111784
54	0xbdc10975	-0.09425632
55	0xbd735655	-0.059408505
56	0xbca50512	-0.02014402
57	0xbda69fc2	-0.0813594
58	0xbe6586de	-0.22414729
59	0x3dd59dea	0.1043051
60	0x3e8376b3	0.25676498
61	0xbd480b45	-0.048838872
62	0x3d2d1020	0.042251706
63	0x3d1dfea3	0.03857292
64	0xbd645f57	-0.055754986
65	0xbb00f4d2	-0.0019677174
66	0x3d1b6076	0.03793379
67	0x3e426655	0.18984349
68	0xbdc985c3	-0.09839966
69	0xbda1354d	-0.078714944
70	0x3d0cae13	0.034345698
71	0x3d57cf7f	0.052688118
72	0x3e3b6106	0.1829873
73	0x3cfc7cd1	0.030821236
74	0x3df528b2	0.11970653
75	0x3d20a605	0.03922083
76	0x3d877b75	0.066153444
77	0xbc07f21c	-0.0082974695
78	0x3d7ce027	0.061737206
79	0xbd3b8baf	-0.04578751
80	0xbbe94eb5	-0.0071199783
81	0x3d4fa2d0	0.05069238
82	0x3db6294c	0.088945955
83	0x3d404d37	0.046948638
84	0x3be9a31c	0.00713004
85	0xbdb6ee5b	-0.089321814
86	0xbc84ff88	-0.016235128
87	0xbda8c35f	-0.08240389
88	0x3c8f585d	0.01749819
89	0xbdf4cf5d	-0.11953614
90	0x3d1aff97	0.037841406
91	0xbaff9be5	-0.0019501416
92	0x3cfefdb7	0.03112684
93	0x3e8294e3	0.25504217
94	0x3c9e7012	0.019340549
95	0xbdb0e4b9	-0.086373754
96	0x3d97ee23	0.07418468
97	0x3d7a0752	0.061042137
98	0xbd52b974	-0.051446393
99	0x3cb015a8	0.021494702
100	0xbe889fdb	-0.2668446
101	0x3e03b9f6	0.12863907
102	0xbc4a5cf7	-0.012351266
103	0x3e2c54de	0.1682925
104	0xbd05ca1d	-0.032663453
105	0x3d4e9244	0.05043246
106	0xbe588032	-0.21142653
107	0xba818b3e	-0.0009883416
108	0x3df31fdb	0.1187131
109	0xbdb3c333	-0.08777466
110	0x3d956e65	0.07296447
111	0x3d8ec43e	0.06971024
112	0x3d0da90d	0.034585048
113	0x3cbc7ba1	0.02300817
114	0x3dadc9f3	0.084857844
115	0x3e0180e3	0.12646823
116	0xb98fdcbe	-0.0002743955
117	0xbaf4c2e0	-0.00186738
118	0x3c288cc2	0.0102874655
119	0x3dbfe597	0.09369963
120	0x3df33811	0.11875928
121	0x3d2e1289	0.042498145
122	0xbd73e7af	-0.059547123
123	0xbcaa86b9	-0.020816194
124	0x3bace6e2	0.005276547
125	0x3c6e54be	0.014546571
126	0x3d276159	0.040864322
127	0x3c9ba10d	0.018997693
128	0x3d989017	0.07449358
129	0xbcabab07	-0.020955576
130	0xbd9ab9f5	-0.07555
131	0xbbcd5847	-0.006266627
132	0xbca7ea6a	-0.02049752
133	0x3e21c9f9	0.15799703
134	0xbca94841	-0.020664336
135	0xbdf681cd	-0.12036476
136	0xbc578021	-0.013153107
137	0xbc9c5306	-0.019082557
138	0x3ab2b2bd	0.001363359
139	0xbd2767b3	-0.04087038
140	0x3df054fa	0.11734958
141	0x3e87b3e3	0.2650443
142	0x3cb368d5	0.021900574
143	0x3d8469a3	0.06465461
144	0xbd1cbe93	-0.038267683
145	0xbd9b9115	-0.075960316
146	0xbd6b3dff	-0.05743217
147	0x3c90e134	0.01768551
148	0xbdc6b12c	-0.097017616
149	0xbd0ad352	-0.033892937
150	0x3ddbb920	0.10728669
151	0xbe2b2763	-0.16714244
152	0x3d628b99	0.055308912
153	0xbcbc0929	-0.022953587
154	0x3e1715d3	0.14754419
155	0xbe8b93ac	-0.27261102
156	0xbe606165	-0.21912153
157	0x3dc8e124	0.09808567
158	0xbd0c59fc	-0.034265503
159	0xbbc163fe	-0.0059018126
160	0x3d2cc2d8	0.042178005
161	0x3c4c9fa1	0.01248923
162	0xbd0a7e6d	-0.033811975
163	0xbe1b40d9	-0.15161456
164	0xbd89371d	-0.06699965
165	0x3e59a493	0.21254186
166	0x3cda516d	0.026650155
167	0x3ae08d2a	0.0017131914
168	0xbd058c20	-0.032604337
169	0xbe0648c8	-0.13113701
170	0xbdcb2eca	-0.09921034
171	0x3cfa8cb1	0.030584665
172	0x3d470b0a	0.048594512
173	0xbe1189d5	-0.14212735
174	0x3ca62354	0.020280518
175	0x3c941dd8	0.018080637
176	0x3d014fd5	0.031570274
177	0x3da7d97e	0.0819578
178	0xbc42e9e2	-0.011896582
179	0xbd02357c	-0.031789288
180	0x3d388f5c	0.045058593
181	0xbe14d250	-0.14533353
182	0xbc4162cf	-0.011803343
183	0xbc542ec6	-0.012950605
184	0xbd9d6471	-0.07685173
185	0x3ebc9993	0.36835918
186	0xbdeea502	-0.116525665
187	0xbdb19176	-0.086703226
188	0x3d8452af	0.06461083
189	0x3dee500e	0.11636363
190	0x3d7badd6	0.06144508
191	0x3d092b7d	0.03348874
192	0xbcdc8428	-0.026918486
193	0x3c9e5e48	0.019332066
194	0xbba8affe	-0.005147933
195	0xbd9dcc85	-0.07705025
196	0x3e8663d2	0.26248032
197	0xbc8e2577	-0.017351849
198	0xbd84f0d2	-0.06491245
199	0xbd5e92d6	-0.054339252
200	0x3d42ef60	0.047591567
201	0xbd9a12eb	-0.075231396
202	0x3e67dce1	0.22642852
203	0x3d9f6f47	0.07784896
204	0xbe81f85a	-0.2538479
205	0x3c8fa6fb	0.017535677
206	0x3bf5e4e7	0.007504094
207	0xbd1d473a	-0.038398005
208	0xbca919e3	-0.020642227
209	0xbc84eb76	-0.016225558
210	0x3cebffd7	0.028808517
211	0x3e4a9021	0.19781543
212	0x3da63fd5	0.08117644
213	0xbd383497	-0.04497203
214	0x3d23ebb9	0.040019725
215	0xbdb11141	-0.08645869
216	0xbe1e9d10	-0.15489602
217	0x3d605aaf	0.054773983
218	0x3bf5bd49	0.007499371
219	0x3cb2420e	0.021760013
220	0x3d9fe328	0.078069985
221	0xbc60cbee	-0.013720496
222	0xbbbe89e1	-0.0058147763
223	0x3c57fe31	0.013183163
224	0xbce46507	-0.027880205
225	0x3d96bd6f	0.0736035
226	0xbd7929e1	-0.060830954
227	0xbd1e0e44	-0.038587824
228	0x3d9a53e2	0.075355306
229	0xbc82e6be	-0.015979167
230	0x3e1131a9	0.141791
231	0x3ce1b8b6	0.027553897
232	0x3cee8969	0.029118257
233	0xbdadc8a8	-0.08485538
234	0x3e33a1f2	0.17542246
235	0x3d9ae179	0.07562537
236	0x3d4d15d2	0.050069638
237	0xbee2f0f8	-0.4432447
238	0x3d3d97cc	0.046287343
239	0xbbe38da7	-0.0069443765
240	0x3d541917	0.05178174
241	0x3dc4a35c	0.09601471
242	0x3d17ffe2	0.037109263
243	0xbd4d7d35	-0.050168235
244	0x3d6203e9	0.05517951
245	0x3d22582a	0.03963486
246	0xbd95121e	-0.07278846
247	0x3e508840	0.20364475
248	0x3ad8def0	0.0016545933
249	0xbd02a06f	-0.031891283
250	0x3dcca4c2	0.099923626
251	0xbd537c1e	-0.05163204
252	0xbe34fb1b	-0.17673914
253	0xbcbca3ed	-0.023027385
254	0xbddad659	-0.10685415
255	0xbd579f49	-0.05264214

transformer.ln_f.weight f4 [12]
0	0x407ece08	3.9813251
1	0x40cb144f	6.346229
2	0x40b58f60	5.673752
3	0x40c6b625	6.2097344
4	0x40b20410	5.562996
5	0x4093dc2a	4.6206255
6	0x40b8dcfc	5.7769756
7	0x40bd6dae	5.9196386
8	0x40c9f673	6.311334
9	0x40e41472	7.127496
10	0x4092c6be	4.5867605
11	0x4091c574	4.555353

lm_head.weight f4 [11, 12]
0	0xbd83e499	-0.06440086
1	0x3d5c7068	0.053818136
2	0xbb50eca9	-0.0031879342
3	0xbdcb1d0d	-0.0991765
4	0xbd6a4013	-0.057190012
5	0xbdb51988	-0.0884276
6	0xbec2787a	-0.3798254
7	0x3d9cc37c	0.07654473
8	0x3d1524ba	0.03641198
9	0x3b96ec89	0.004605834
10	0x3d9008a3	0.07032897
11	0x3e64f71d	0.22359891
12	0x3d729e66	0.05923309
13	0xbe65c851	-0.22439696
14	0x3d238e0c	0.03993039
15	0xbde49002	-0.1116028
16	0x3dc1b2e1	0.094579466
17	0xbdbb927f	-0.09158801
18	0x3d405908	0.046959907
19	0x3d625148	0.055253297
20	0xbe83b4fb	-0.25724015
21	0xbdb1b7a0	-0.08677602
22	0x3dcf2903	0.10115244
23	0x3c7624e2	0.015023442
24	0x3db2af7d	0.08724878
25	0xbe0a426f	-0.13501905
26	0x3db79144	0.08963254
27	0x3d48f83a	0.049064852
28	0x3e2ad52d	0.16682883
29	0x3db9e746	0.09077315
30	0xbdfe4506	-0.12415509
31	0xbe88b57e	-0.26700968
32	0x3ddd84cb	0.10816344
33	0xbc519cf5	-0.012793769
34	0xbc8d0998	-0.017216489
35	0xbe8e372a	-0.27776462
36	0xbc89e63a	-0.016833413
37	0x3dabeb1b	0.08394452
38	0xbc99c34e	-0.018769886
39	0xbd473193	-0.048631262
40	0xbc6059b8	-0.013693266
41	0x3b47bda2	0.003047802
42	0x3d39133a	0.04518435
43	0xbe8a5798	-0.27019954
44	0x3dfc6dec	0.123256534
45	0xbea8aae2	-0.32942873
46	0x3c89c1fa	0.016816128
47	0x3e6aeb24	0.22941262
48	0xba9d7fa1	-0.0012016186
49	0xbd8d1a20	-0.068897486
50	0x3d936143	0.071962856
51	0xbe1b5d78	-0.15172374
52	0x3b00095c	0.0019536829
53	0xbe4da087	-0.20080768
54	0x3e305c8f	0.17222808
55	0x3d649abf	0.05581164
56	0x3e85ea0b	0.26155123
57	0x3dd8abd8	0.105796516
58	0x3dc9f748	0.09861618
59	0xbd11dc4b	-0.03561048
60	0x3d8c1291	0.06839479
61	0x3e34805a	0.17627087
62	0x3ecc12f0	0.39858198
63	0xbc63e3bf	-0.013909279
64	0xbe1afce2	-0.1513553
65	0xbd1aba86	-0.03777554
66	0x3d81d7f2	0.063400164
67	0xbd99b0b9	-0.0750441
68	0xbe25a03f	-0.1617441
69	0x3cbc2403	0.02296639
70	0xbbd4f2fd	-0.006498693
71	0xbcf8fbe4	-0.030393548
72	0x3dc3be75	0.09557811
73	0xbddead94	-0.10872951
74	0xbcea54da	-0.028604914
75	0x3d6c9ec3	0.057768594
76	0xbe080993	-0.13284902
77	0x3d332c27	0.04374328
78	0x3d09ce61	0.033644084
79	0xbdaffb73	-0.08592882
80	0x3bc53884	0.0060187
81	0x3e8d48e1	0.27594665
82	0xbdf35a53	-0.11882462
83	0x3e9e3b19	0.30904463
84	0x3d830df8	0.06399149
85	0xbddb1f9c	-0.106993884
86	0x3d3030f6	0.043015443
87	0x3e208f64	0.15679699
88	0xbda4a85e	-0.08039926
89	0xbd74a6e0	-0.059729457
90	0xbddc5a20	-0.107593775
91	0x3e8fc963	0.28083333
92	0x3de456ab	0.11149343
93	0xbe325e40	-0.17418766
94	0xbd4ff40b	-0.050769847
95	0xbbd5e41f	-0.0065274383
96	0x3dbca8a0	0.0921185
97	0x3e45bd29	0.1931044
98	0xbe552bdd	-0.20817514
99	0x3e13ed97	0.14446102
100	0x3b6897e7	0.0035490931
101	0xbe4d0925	-0.2002302
102	0xbc5f2632	-0.013619946
103	0xbd82e085	-0.0639048
104	0xbd41699f	-0.04721987
105	0x3d92552a	0.0714515
106	0x3e0ea748	0.13931
107	0xbdb5ad80	-0.08870983
108	0xbce95767	-0.02848406
109	0xbd882c0e	-0.06649028
110	0xbd133608	-0.0359402
111	0x3d0bc4c8	0.034123212
112	0xbe597ced	-0.21239062
113	0x3e8d6467	0.27615663
114	0x3d3a89dc	0.04554163
115	0x3cc59f21	0.02412373
116	0xbc9e69c7	-0.019337548
117	0xbc9c5eab	-0.01908811
118	0x3e62d6ea	0.22152296
119	0xbdd913dd	-0.10599492
120	0xbf231c1c	-0.63714767
121	0x3ea5a2fe	0.32350916
122	0xbe22348a	-0.15840355
123	0xbe3e7b09	-0.18601622
124	0x3e83dde5	0.2575523
125	0x3eeb7593	0.4598814
126	0x3dc34f37	0.095365934
127	0x3e3b4d5e	0.18291232
128	0xbd80d0d6	-0.06289832
129	0x3dcb7add	0.09935544
130	0xbf1f5dbf	-0.6225242
131	0xbe3d5814	-0.1849063

transformer.wte.weight f4 [11, 12]
0	0xbd83e499	-0.06440086
1	0x3d5c7068	0.053818136
2	0xbb50eca9	-0.0031879342
3	0xbdcb1d0d	-0.0991765
4	0xbd6a4013	-0.057190012
5	0xbdb51988	-0.0884276
6	0xbec2787a	-0.3798254
7	0x3d9cc37c	0.07654473
8	0x3d1524ba	0.03641198
9	0x3b96ec89	0.004605834
10	0x3d9008a3	0.07032897
11	0x3e64f71d	0.22359891
12	0x3d729e66	0.05923309
13	0xbe65c851	-0.22439696
14	0x3d238e0c	0.03993039
15	0xbde49002	-0.1116028
16	0x3dc1b2e1	0.094579466
17	0xbdbb927f	-0.09158801
18	0x3d405908	0.046959907
19	0x3d625148	0.055253297
20	0xbe83b4fb	-0.25724015
21	0xbdb1b7a0	-0.08677602
22	0x3dcf2903	0.10115244
23	0x3c7624e2	0.015023442
24	0x3db2af7d	0.08724878
25	0xbe0a426f	-0.13501905
26	0x3db79144	0.08963254
27	0x3d48f83a	0.049064852
28	0x3e2ad52d	0.16682883
29	0x3db9e746	0.09077315
30	0xbdfe4506	-0.12415509
31	0xbe88b57e	-0.26700968
32	0x3ddd84cb	0.10816344
33	0xbc519cf5	-0.012793769
34	0xbc8d0998	-0.017216489
35	0xbe8e372a	-0.27776462
36	0xbc89e63a	-0.016833413
37	0x3dabeb1b	0.08394452
38	0xbc99c34e	-0.018769886
39	0xbd473193	-0.048631262
40	0xbc6059b8	-0.013693266
41	0x3b47bda2	0.003047802
42	0x3d39133a	0.04518435
43	0xbe8a5798	-0.27019954
44	0x3dfc6dec	0.123256534
45	0xbea8aae2	-0.32942873
46	0x3c89c1fa	0.016816128
47	0x3e6aeb24	0.22941262
48	0xba9d7fa1	-0.0012016186
49	0xbd8d1a20	-0.068897486
50	0x3d936143	0.071962856
51	0xbe1b5d78	-0.15172374
52	0x3b00095c	0.0019536829
53	0xbe4da087	-0.20080768
54	0x3e305c8f	0.17222808
55	0x3d649abf	0.05581164
56	0x3e85ea0b	0.26155123
57	0x3dd8abd8	0.105796516
58	0x3dc9f748	0.09861618
59	0xbd11dc4b	-0.03561048
60	0x3d8c1291	0.06839479
61	0x3e34805a	0.17627087
62	0x3ecc12f0	0.39858198
63	0xbc63e3bf	-0.013909279
64	0xbe1afce2	-0.1513553
65	0xbd1aba86	-0.03777554
66	0x3d81d7f2	0.063400164
67	0xbd99b0b9	-0.0750441
68	0xbe25a03f	-0.1617441
69	0x3cbc2403	0.02296639
70	0xbbd4f2fd	-0.006498693
71	0xbcf8fbe4	-0.030393548
72	0x3dc3be75	0.09557811
73	0xbddead94	-0.10872951
74	0xbcea54da	-0.028604914
75	0x3d6c9ec3	0.057768594
76	0xbe080993	-0.13284902
77	0x3d332c27	0.04374328
78	0x3d09ce61	0.033644084
79	0xbdaffb73	-0.08592882
80	0x3bc53884	0.0060187
81	0x3e8d48e1	0.27594665
82	0xbdf35a53	-0.11882462
83	0x3e9e3b19	0.30904463
84	0x3d830df8	0.06399149
85	0xbddb1f9c	-0.106993884
86	0x3d3030f6	0.043015443
87	0x3e208f64	0.15679699
88	0xbda4a85e	-0.08039926
89	0xbd74a6e0	-0.059729457
90	0xbddc5a20	-0.107593775
91	0x3e8fc963	0.28083333
92	0x3de456ab	0.11149343
93	0xbe325e40	-0.17418766
94	0xbd4ff40b	-0.050769847
95	0xbbd5e41f	-0.0065274383
96	0x3dbca8a0	0.0921185
97	0x3e45bd29	0.1931044
98	0xbe552bdd	-0.20817514
99	0x3e13ed97	0.14446102
100	0x3b6897e7	0.0035490931
101	0xbe4d0925	-0.2002302
102	0xbc5f2632	-0.013619946
103	0xbd82e085	-0.0639048
104	0xbd41699f	-0.04721987
105	0x3d92552a	0.0714515
106	0x3e0ea748	0.13931
107	0xbdb5ad80	-0.08870983
108	0xbce95767	-0.02848406
109	0xbd882c0e	-0.06649028
110	0xbd133608	-0.0359402
111	0x3d0bc4c8	0.034123212
112	0xbe597ced	-0.21239062
113	0x3e8d6467	0.27615663
114	0x3d3a89dc	0.04554163
115	0x3cc59f21	0.02412373
116	0xbc9e69c7	-0.019337548
117	0xbc9c5eab	-0.01908811
118	0x3e62d6ea	0.22152296
119	0xbdd913dd	-0.10599492
120	0xbf231c1c	-0.63714767
121	0x3ea5a2fe	0.32350916
122	0xbe22348a	-0.15840355
123	0xbe3e7b09	-0.18601622
124	0x3e83dde5	0.2575523
125	0x3eeb7593	0.4598814
126	0x3dc34f37	0.095365934
127	0x3e3b4d5e	0.18291232
128	0xbd80d0d6	-0.06289832
129	0x3dcb7add	0.09935544
130	0xbf1f5dbf	-0.6225242
131	0xbe3d5814	-0.1849063

transformer.wpe.weight f4 [10, 12]
0	0xbca58c76	-0.020208579
1	0xba30029e	-0.0006714257
2	0x3b39d0f7	0.0028353313
3	0xbb7207bc	-0.003693088
4	0x3d3497e1	0.044090156
5	0x3c30ece1	0.010798664
6	0xbc51f028	-0.012813605
7	0xbcdd61f3	-0.027024245
8	0xbc4865b7	-0.012231282
9	0x3c3c2cb5	0.011485268
10	0x3d943a43	0.07237675
11	0x3cfe8cda	0.031073023
12	0x3d4d5629	0.050130997
13	0xbc16ba2c	-0.00919966
14	0xbb2afd84	-0.0026091048
15	0xbd5070d4	-0.05088885
16	0xbdec71da	-0.11545153
17	0x3d9fe20c	0.07806787
18	0xbb3567d8	-0.0027680304
19	0x3d12f45b	0.035877567
20	0x3ad5750a	0.0016285491
21	0xbc42c975	-0.011888851
22	0x3d994803	0.07484438
23	0xbd1e165a	-0.038595535
24	0x3d2ee4a5	0.04269852
25	0xbc11e0ac	-0.008903664
26	0xbb8f4b7e	-0.004373013
27	0xbd41937f	-0.047259804
28	0xbdc26597	-0.09492033
29	0x3d77934a	0.0604432
30	0xbadbb165	-0.0016761242
31	0x3cf43765	0.02981157
32	0x3abb9f96	0.0014314528
33	0xbc12cbfc	-0.0089597665
34	0x3d85be36	0.065304205
35	0xbcfb6789	-0.030689018
36	0x3d13a87b	0.036049347
37	0xbbc2782d	-0.005934736
38	0xbb45c4a9	-0.0030177033
39	0xbd2e7844	-0.042595163
40	0xbd95891e	-0.07301544
41	0x3d502d11	0.05082423
42	0x375553b4	1.2715278e-05
43	0x3cd5dade	0.02610534
44	0x3b2e0839	0.0026555194
45	0xbbb80a89	-0.0056164903
46	0x3d78be5f	0.060728427
47	0xbcb07602	-0.021540646
48	0x3cd85072	0.026405547
49	0xbc30c9e0	-0.010790318
50	0xbbafb045	-0.005361589
51	0xbd23b20c	-0.03996472
52	0xbd69a446	-0.05704143
53	0x3d139ab8	0.036036223
54	0xbb1a8e9f	-0.0023583544
55	0x3c941401	0.018075945
56	0x3b681cfe	0.0035417671
57	0xbba8dba8	-0.005153138
58	0x3d5418ac	0.05178134
59	0xbc8543fa	-0.016267765
60	0x3c35db19	0.0110996
61	0x3c324d55	0.010882695
62	0x3b91980b	0.0044431738
63	0xbd19a45e	-0.03751027
64	0xbd4e5950	-0.050378144
65	0x3cb1439c	0.021638684
66	0xbb35bb8b	-0.0027730193
67	0x3c8d15b9	0.017222272
68	0x3b81900c	0.0039539393
69	0xba29859a	-0.00064667466
70	0x3d0060e0	0.031342387
71	0xbc06b3f2	-0.008221613
72	0x3b9cb283	0.0047820224
73	0xbb0362af	-0.0020047834
74	0xbb8746cc	-0.0041283127
75	0xbd05c83e	-0.03266167
76	0xbd04ea71	-0.032450143
77	0x3c286cd5	0.010279854
78	0xbb468158	-0.0030289497
79	0x3c1393c4	0.009007398
80	0x3bd02ef5	0.006353254
81	0xb9ef92de	-0.00045695057
82	0x3cc74d8c	0.02432897
83	0xbb91f5a4	-0.0044543315
84	0xbb8438bc	-0.0040350836
85	0xb9bba50a	-0.00035790383
86	0xbbbdbc11	-0.0057902415
87	0xbcd01889	-0.025402324
88	0xbc8d3181	-0.01723552
89	0x39916942	0.00027734978
90	0x3b077f2a	0.002067516
91	0x3c085eff	0.00832343
92	0x3c0a3669	0.008435824
93	0x3790cddc	1.7261998e-05
94	0x3c7f9c69	0.015601256
95	0x3b5bc1ca	0.0033532255
96	0xbc01af7b	-0.007915373
97	0xbc119a2c	-0.008886855
98	0xbc4db084	-0.012554292
99	0xbbd46f90	-0.006483026
100	0x3819a38b	3.6630354e-05
101	0xbc11752b	-0.008878033
102	0x3b3b9005	0.0028619778
103	0x3bbc84a8	0.0057531185
104	0x3c4d3365	0.01252446
105	0x3b4c883e	0.0031209136
106	0x3be2e4b4	0.006924236
107	0x3bf06ab6	0.0073369397
108	0xbf930e12	-1.1488669
109	0x3fe7f9e9	1.8123142
110	0x3ba10b98	0.004914712
111	0xbf82331f	-1.0171851
112	0xbdaca56f	-0.084299915
113	0x3f8cb615	1.0993067
114	0xbf7f928c	-0.9983299
115	0x3edd284f	0.43194816
116	0x3d04e85c	0.032448158
117	0x3d80525c	0.06265709
118	0xbf37f962	-0.718649
119	0xbe719090	-0.23590302

transformer.h.0.ln_1.weight f4 [12]
0	0x3fed29da	1.8528397
1	0x3fb15883	1.3855137
2	0x3fc7a00e	1.559572
3	0x3fc45148	1.5337305
4	0x3fb31da0	1.3993416
5	0x3fb388e9	1.4026157
6	0x3fcec6d6	1.615443
7	0x3fe103ee	1.7579324
8	0x3ff3bf6b	1.9042791
9	0x40003097	2.0029657
10	0x3faea658	1.3644514
11	0x3fc7c0cc	1.5605712

transformer.h.0.attn.c_attn.weight f4 [36, 12]
0	0x3d60ba04	0.0548649
1	0x3dcfb685	0.10142235
2	0x3d541ac9	0.051783357
3	0xbda1640e	-0.07880412
4	0xbe7e95ef	-0.24861883
5	0x3e2be0e3	0.16785006
6	0xbd214260	-0.03936994
7	0x3d3561a6	0.044282578
8	0x3c5778fe	0.013151405
9	0x3ac1eef2	0.0014795943
10	0x3d2339e8	0.039850146
11	0xbd1bf083	-0.038071167
12	0x3e82404d	0.25439683
13	0xbe47644b	-0.19471852
14	0x3d9fa5af	0.077952735
15	0x3c899bea	0.016797978
16	0xbdd7f31b	-0.105444156
17	0xbd967f09	-0.07348449
18	0xbdb58a11	-0.08864225
19	0x3d8e0a4d	0.069355585
20	0x3b71c43a	0.0036890642
21	0xbc185827	-0.009298361
22	0x3d4daed5	0.05021556
23	0x3d7f8936	0.062386714
24	0xbe632d87	-0.22185336
25	0xbb0382a5	-0.0020066884
26	0x3b63751d	0.0034707256
27	0x3e5dfff2	0.21679667
28	0xbcd8606e	-0.026413169
29	0x3c9b47ec	0.018955193
30	0x3de06839	0.10957379
31	0x3ca0785b	0.01958864
32	0xbdd442fb	-0.10364338
33	0x3d37c2e4	0.044863597
34	0xbd88e31e	-0.06683944
35	0xbda18465	-0.078865804
36	0x3e8c3eff	0.27391812
37	0xbd6edd92	-0.058316775
38	0x3db61b56	0.08891933
39	0xbd3c2622	-0.045934804
40	0xbe11a0af	-0.14221452
41	0x3d6bde3a	0.05758498
42	0x3cd442c9	0.025910752
43	0xbd265758	-0.04061064
44	0x3d050ef4	0.032484964
45	0x3c8d9893	0.017284667
46	0x3c6c9a15	0.014441033
47	0xbd5870ae	-0.052841835
48	0x3e04fe10	0.12987542
49	0xbde246ae	-0.11048637
50	0x3d35ba90	0.044367373
51	0x3db0292b	0.08601602
52	0xbe541575	-0.2071131
53	0xbdcaaeb6	-0.09896605
54	0x3de2bb6b	0.110709034
55	0xbd57fe9c	-0.05273305
56	0x3d9c472d	0.07630763
57	0x3c61e421	0.0137873
58	0x3e38ef40	0.18060017
59	0xbcd7f5b2	-0.026362274
60	0x3b97ea16	0.0046360595
61	0xbc54b200	-0.012981892
62	0x3c3c4aad	0.0114924135
63	0xbdac1eb1	-0.084042914
64	0xbdcc6146	-0.09979491
65	0x3d8b29fa	0.06795116
66	0xbdf9ed4a	-0.122034624
67	0x3b95245f	0.004551455
68	0xbc45a2ef	-0.012062772
69	0x3d84e1f7	0.06488412
70	0x3e8aa28d	0.2707714
71	0xbcbc88ee	-0.023014512
72	0x3d903a20	0.070423365
73	0xbe150a39	-0.14554681
74	0xbb0649a9	-0.0020490682
75	0x3e897caf	0.2685294
76	0xbe01e8d5	-0.12686475
77	0xbe165f32	-0.14684752
78	0xbd8bab85	-0.06819824
79	0x3b024f80	0.0019883811
80	0xbb686e00	-0.0035465956
81	0x3d811042	0.06301929
82	0x3cefb7b4	0.029262401
83	0x3d7beb22	0.061503537
84	0x3e8df04a	0.27722389
85	0x3cfd55cd	0.030924702
86	0xbda8bb4a	-0.082388476
87	0xb9fb1002	-0.00047886377
88	0xbd9c4438	-0.07630199
89	0xbd448011	-0.047973696
90	0xbda7bd2c	-0.081903785
91	0x3cc3a032	0.023880098
92	0x3de4f970	0.11180389
93	0xbd4c19a5	-0.049829144
94	0xbd162dba	-0.036664702
95	0x3cafde62	0.021468345
96	0xbe31cc65	-0.17363127
97	0x3cbad329	0.022805767
98	0x3ca7b277	0.02047084
99	0x3da5da26	0.08098249
100	0x3e088604	0.13332373
101	0xbaea98e8	-0.0017898353
102	0xbd01ab18	-0.03165731
103	0x3d73cb6d	0.059520174
104	0x3ce68571	0.028139802
105	0x3dbe1e1b	0.09283086
106	0xbe85faa4	-0.26167786
107	0xbdeb7f60	-0.11498904
108	0xbd96848c	-0.073495
109	0x3afda6a7	0.0019352034
110	0xbe3e905a	-0.18609753
111	0xbd861e9f	-0.06548809
112	0xbd0689d3	-0.032846283
113	0x3d96fb6d	0.073721744
114	0x3e3075c2	0.17232421
115	0x3e2a822c	0.16651219
116	0xbda8b3ba	-0.08237405
117	0xbd4b085a	-0.04956851
118	0xbd8c395a	-0.068468764
119	0xba4cb00a	-0.0007808214
120	0x3e330119	0.17480887
121	0x3caed245	0.021340499
122	0x3cfa7410	0.030572921
123	0xbdc22a89	-0.09480769
124	0xbe319241	-0.17340948
125	0x3c861e3e	0.016371842
126	0x3baa2c0f	0.0051932405
127	0x3d11cddc	0.035596713
128	0x3de5693a	0.11201711
129	0xbd12ed18	-0.03587064
130	0x3cd8dfbc	0.026473872
131	0xbd3a9540	-0.045552492
132	0xbe0f4b0c	-0.13993472
133	0xbc5f1db9	-0.013617926
134	0x3d29ac8b	0.041424315
135	0x3e599573	0.21248417
136	0x3ce7b82f	0.028286068
137	0xbd579b13	-0.052638125
138	0x3c944424	0.018098898
139	0x3d959312	0.07303442
140	0xbb57ecff	-0.0032947657
141	0xbda86de6	-0.082240865
142	0xbe4e969e	-0.20174643
143	0xbb451482	-0.0030072038
144	0xbe9d877e	-0.30767435
145	0x3e6152ee	0.22004291
146	0x3e0b192b	0.1358382
147	0x3c273fa8	0.010208048
148	0xbe9b34a5	-0.30313602
149	0x3e29afa2	0.16570905
150	0x3ddfb590	0.10923302
151	0x3dcaa7d3	0.09895291
152	0xbd339956	-0.043847404
153	0x3c383d18	0.011245035
154	0xbd5f6077	-0.054535355
155	0xbd883797	-0.06651228
156	0xbd4eb330	-0.050463855
157	0xbea820a2	-0.32837397
158	0x3c163c92	0.0091697145
159	0x3e06699f	0.13126229
160	0x3c3eb7a9	0.011640468
161	0x3d2e41df	0.04254329
162	0x3d8f5d53	0.07000222
163	0x3dad7bdd	0.08470891
164	0xbceae7a1	-0.028674902
165	0xbd0aad54	-0.033856705
166	0x3cb7cf09	0.02243759
167	0xbd92fdd3	-0.071773194
168	0x3c686289	0.014183649
169	0x3e81ae12	0.25328118
170	0x3db67b37	0.0891022
171	0xbe24729c	-0.16059345
172	0xbad6ce1c	-0.001638833
173	0xbe2aa147	-0.16663085
174	0xbe3a6114	-0.18201095
175	0x3e0d20a3	0.13781981
176	0x3a207741	0.0006121286
177	0x3de8cde3	0.11367395
178	0xbdea1785	-0.11430267
179	0xbd3f53dc	-0.046710834
180	0xbe40af05	-0.18816765
181	0xbe212808	-0.15737927
182	0x3c7549d7	0.014971218
183	0x3dae3cdb	0.08507701
184	0xbcbb1401	-0.022836687
185	0x3e341a22	0.17588094
186	0xbe0fe287	-0.14051257
187	0x3d68f4d2	0.056874104
188	0x3b9636b0	0.004584156
189	0xbd0d3788	-0.034476787
190	0x3d52b1fe	0.051439278
191	0xbd916f99	-0.07101364
192	0xbd5fab8d	-0.054606963
193	0xbdc22ea3	-0.094815515
194	0xbe0bd3b7	-0.13654982
195	0x3dce417f	0.10071086
196	0xbd9fe48e	-0.07807265
197	0x3d8ddf62	0.069273725
198	0xbe3795e6	-0.17928275
199	0x3de0ea77	0.109822206
200	0xbd4e4e10	-0.050367415
201	0x3d7a6c72	0.061138578
202	0x3c6b6b0d	0.014368785
203	0x3bd91f2f	0.006626032
204	0xbd991544	-0.07474759
205	0x3c69db87	0.014273531
206	0xbd94ae80	-0.07259846
207	0xbd86a25c	-0.06573936
208	0xbd733504	-0.05937673
209	0x3df2002a	0.118164375
210	0x3e0a8724	0.13528115
211	0xbca7fb07	-0.020505441
212	0xbe53eac3	-0.20695023
213	0x3e2a4d41	0.16631033
214	0x3cfc709f	0.03081542
215	0xbddafe20	-0.10693002
216	0x3d8903d0	0.0669018
217	0xbd99a4a1	-0.075021036
218	0xbdc12768	-0.09431344
219	0x3dec03d7	0.1152417
220	0xbdc5c24b	-0.09656199
221	0xbca7c24c	-0.02047839
222	0xba56de9e	-0.00081966247
223	0x3dfd3eea	0.123655155
224	0x3c0eafc2	0.008708896
225	0x3d807c16	0.062736675
226	0xbb05c294	-0.0020410167
227	0xbe007f82	-0.1254864
228	0xbda49693	-0.08036532
229	0xbd32752d	-0.04356878
230	0xbe3eb18c	-0.18622416
231	0x3e904113	0.28174648
232	0xbbfa7c5d	-0.00764422
233	0x3d9c72b1	0.07639063
234	0x3dfe7384	0.124243766
235	0x3c50e3da	0.012749637
236	0x3d384130	0.044984043
237	0xbe34776a	-0.17623678
238	0xba077d6e	-0.0005168532
239	0xbd26f42f	-0.040760215
240	0x3de7a6e3	0.11311128
241	0x3de5a7bc	0.112136334
242	0x3e293200	0.1652298
243	0x3da327b9	0.07966561
244	0x3d87e33d	0.06635139
245	0xbd821920	-0.063524485
246	0xbd2797cb	-0.040916245
247	0xbdb5b836	-0.08873026
248	0x3d48ad52	0.048993416
249	0x3c99f405	0.018793115
250	0xbe0abdd4	-0.13548976
251	0xbd79cd51	-0.06098682
252	0xbbcab3e2	-0.0061859945
253	0x3e4a4da6	0.19756183
254	0x3e14d653	0.14534883
255	0x3d162d80	0.036664486
