mnk_transformer/probing_checkpoints/ckpt1.pt (torch, 13666 bytes, 20 tensors)

transformer.wte.weight f4 [11, 12]
00000000: 8c03 e33a c77a 57bc 5bc6 b5bc e427 92bb
00000010: bba8 eabc 6227 b8bb 06b0 3abd d8ea f5bc
00000020: 49a3 bf3c abdc 65bc f7eb 0d3b fe7f b6bc
00000030: f02d e0bc 0124 33bb 9960 2c3c 604a 8b3c
00000040: c60f 9e3c b440 f0bc 63ac fbbc c5a7 b9bb
00000050: a0b6 3d3c b8ae adbc 2be4 28bb c06b 963a
00000060: f3c3 c3ba 93cc 703c 3e51 cf3c 21ef 543c
00000070: d49f 2e3d 1ede 093c 2edc 20bd ef31 11bc
00000080: 2e36 4abc b978 0dbd cfed 0ebc c1d2 7dbc
00000090: 9d25 a2bc 75be 4abb 38a1 d0bb 0e21 983c
000000a0: 4518 763c f9c7 8e3c 262c 9dbc 0bfd e2bc
000000b0: aed5 003c aeae bfbc 1bb7 953c 4a58 cd3c
000000c0: 86e7 2abd 65ef e2bc d5f6 963c 5e2b c2bc
000000d0: 32c3 25bb 7877 3e3b 8a72 703c 2990 80bc
000000e0: cfec 173c 5087 163d a977 92bc 77fc 9ebc
000000f0: f5b8 e13a 21c4 24bc 8724 1d3d 04f2 1cbc
00000100: 02f9 d0bc 4972 643c a60d 9c3b e721 89bc
00000110: 562e 8cbb 45b3 083d 14f8 083c 35d4 b73c
00000120: de48 2a3c 20b0 73bc 9068 4c3c f28e e83b
00000130: fbeb 18bc c353 9cbc 5608 0b3c 800a 08bc
00000140: 7231 d53c 5996 d7bc a399 ebbc 1b21 6abc
00000150: 6fd1 75bb fc4c 7e3c d59e f7b9 b71e 7c3c
00000160: 95b2 71bc 1a46 163d 2c50 cfbb a159 5e3b
00000170: 4789 bdbb 9966 67bc 700e 99bb 4f9e ff3a
00000180: ab01 1dbc abfb 193c fe0d c9bc 92dd 69bc
00000190: 1dc0 16bb 5de1 dcb9 9b5d 503b 02a5 0dbc
000001a0: 204e 223c f348 f03b 21d9 d83b 5233 5abc
000001b0: b953 d1bc 8271 0dbc a4f6 823c 4589 953c
000001c0: 75d8 39bb bb65 123d 4238 1ebc 6e9c 953b
000001d0: 92b5 0a3c 7d4e 8fbc d7fb 84bc 57b4 86bc
000001e0: a457 1fbc 109e 0d3d 4fe1 0c3c e2a6 0cbb
000001f0: c943 113d 50c4 4b3d a41b 8c3c cf8e f63c
00000200: dee9 6c3c 056a 993c f91c f8bc 5b3f 8e3c
0.0017319783 -0.013151831 -0.02218931 -0.0044603217 -0.02864491 -0.005619929 -0.045578025 -0.030019209
0.02339329 -0.014029662 0.0021655539 -0.022277828 -0.027365655 -0.0027334692 0.010521078 0.017003238
0.01929463 -0.029327728 -0.030721849 -0.0056657516 0.011579186 -0.021201476 -0.0025770764 0.0011476204
-0.0014935717 0.014697212 0.025307294 0.012996466 0.042632893 0.008414773 -0.03927248 -0.008862003
-0.012342019 -0.03453896 -0.00872369 -0.015492142 -0.019793326 -0.0030936275 -0.006366875 0.01857045
0.015020435 0.017429339 -0.01918609 -0.02770855 0.007863445 -0.023398723 0.018275788 0.025066514
-0.041724704 -0.027702043 0.018428246 -0.02370232 -0.0025293347 0.0029062908 0.014675746 -0.01569374
0.009272768 0.036750138 -0.017879324 -0.019407494 0.0017221259 -0.010056526 0.038364913 -0.009579185
-0.025509361 0.013943263 0.004762369 -0.016739799 -0.0042779846 0.03337409 0.008359928 0.022440055
0.010393349 -0.014873534 0.0124761015 0.0070971185 -0.009333606 -0.01908291 0.008485874 -0.008303285
0.026024554 -0.026316809 -0.028759783 -0.0142901195 -0.0037508865 0.015521284 -0.0004722985 0.015388182
-0.01475205 0.036687948 -0.006326696 0.0033927935 -0.005784187 -0.014123582 -0.0046709105 0.0019502136
-0.009582917 0.009398381 -0.024542805 -0.014274018 -0.0023002692 -0.0004212958 0.0031794074 -0.008645298
0.009906322 0.007332915 0.0066176807 -0.0133179 -0.025552617 -0.008633019 0.015986748 0.018253932
-0.0028357778 0.03574155 -0.009656968 0.004565767 0.008466141 -0.01749348 -0.016233368 -0.016443415
-0.009725485 0.03457457 0.00859864 -0.0021461775 0.035465036 0.049747765 0.017103024 0.030097393
0.014460055 0.018727312 -0.030287253 0.017364195

transformer.wpe.weight f4 [10, 12]
00000000: 44bd 44bc bc66 d7bb ceac b8bb 9072 b73b
00000010: aacb 2f3c c26f dbbc b5a0 353b 41c6 f0ba
00000020: 1946 c6bb 38de 343c 29a1 42bc 21e3 7c3c
00000030: 0560 313c 154f 443c e28a 323c 790e 33bb
00000040: e9c6 1bbc c155 d73a a182 393d d250 d2bc
00000050: 78b2 f3bc 213b e93c f417 8f3c 4c3d 913a
00000060: 4deb 3f3b f80d c53b d5e6 63bc 3250 b3bc
00000070: e6ed a13a ab3a 153c ce1b d8bc c7c5 033b
00000080: fef8 d53c 65b9 cebc b88f afba 9283 c43b
00000090: 6296 2ebd 9323 363c e765 01bd 06b4 9a3c
000000a0: 8c94 dcbb 203b c63b 6402 0bbc deaa 9a3b
000000b0: a9bf 65b9 e73f 613d 13ef 653b f9da d43c
000000c0: 3d5b 18bc 2754 04bc 1b93 293c ef45 e23b
000000d0: 2226 1e3c a28c 7bbc 6027 a2bb 1916 253c
000000e0: 6163 bebb 8422 4e3c 7c97 903c ddf2 3bbd
000000f0: a014 fd3b 4b3d 763c e37e 1bbd 4345 123c
00000100: 86c6 56bc d4cf 2e3d 861d 42bc 9176 9d3b
00000110: 727d eb3c cfd2 033b 7909 58bc d839 90bc
00000120: 9f21 843c a9cc f5ba 1bad b13c 97f0 aabc
00000130: 1d74 16bc f7c1 4c3c d143 903c f8f7 7c39
00000140: c708 88bc 42e7 573c 99f9 cebb 3bdf 88bb
00000150: 1e40 613c 8a84 933a 7bed 093c 0e97 96bb
00000160: d9c0 a3ba c953 8a3c cf18 a5b9 7751 0d3d
00000170: 05c6 70bc 8cdb 5b3c 1767 0fbd 3568 0f3c
00000180: 0a9f 9fba 86f3 86bb d780 d83c 2b41 5a3c
00000190: 5381 a03c ddf5 10bd 69ad b7bb f9f8 cfbc
000001a0: 1e16 793c 979c 9ebc 6ea3 603a 18b5 793b
000001b0: 9441 c2bc 2066 5fbc 593a cd3a bb30 c1ba
000001c0: cab3 15bc 81f8 0e3c ab34 7d3c fee3 403b
000001d0: 4c77 fa3c 64f3 1338 0740 ec3c 999a d2bc
-0.012008015 -0.006573526 -0.0056358343 0.0055983737 0.01072971 -0.026786689 0.0027714197 -0.0018369631
-0.0060508368 0.011039309 -0.011879244 0.015435011 0.0108261155 0.011981745 0.01089737 -0.0027321859
-0.009507873 0.0016428755 0.045290593 -0.025673304 -0.029748186 0.028470578 0.017467476 0.001108089
0.0029284537 0.006013628 -0.013910015 -0.021888826 0.0012354224 0.009108226 -0.026380446 0.0020106898
0.026119705 -0.025234887 -0.0013394272 0.0059971297 -0.042623885 0.01111688 -0.031591322 0.01888467
-0.0067315754 0.0060495287 -0.008484457 0.004720076 -0.00021910541 0.054992583 0.0035085126 0.02598332
-0.009299097 -0.008076704 0.010350014 0.0069053094 0.009652646 -0.015353354 -0.0049485415 0.010076069
-0.0058101867 0.012581471 0.017650358 -0.04588591 0.007723406 0.015029262 -0.037962805 0.008927646
-0.013108855 0.04267867 -0.011847859 0.004805394 0.02874634 0.0020114665 -0.013185852 -0.017605707
0.016129313 -0.001875301 0.021688988 -0.020866675 -0.009182957 0.012497417 0.017610462 0.00024124968
-0.016605748 0.013177695 -0.0063163755 -0.004177002 0.013748197 0.001125471 0.008418436 -0.004595644
-0.0012493386 0.016885655 -0.00031489736 0.03450152 -0.014695649 0.013419043 -0.035010424 0.008752872
-0.0012178135 -0.0041183857 0.026428623 0.013321201 0.019592917 -0.035390723 -0.005605389 -0.025387274
0.015203027 -0.019361777 0.0008569275 0.0038102325 -0.02371291 -0.013635188 0.0015657648 -0.0014739254
-0.009137103 0.00872624 0.015454452 0.002943277 0.030574463 3.5274206e-05 0.028839124 -0.025708484

transformer.h.0.ln_1.weight f4 [12]
00000000: 0000 803f 0000 803f 0000 803f 0000 803f
00000010: 0000 803f 0000 803f 0000 803f 0000 803f
00000020: 0000 803f 0000 803f 0000 803f 0000 803f
1.0 1.0 1.0 1.0 1.0 1.0 1.0 1.0
1.0 1.0 1.0 1.0

transformer.h.0.attn.c_attn.weight f4 [36, 12]
00000000: db4d 413a d9ab 18bb e91f 84bc 9749 83bc
00000010: 4f53 c2bc 1658 14bc 435f ec3c a495 05bd
00000020: 52ff fe3b c591 9835 9ff1 0cbc b9f1 80bb
00000030: 5365 0f3d 8f75 df39 4098 a2bc 322a ff3b
00000040: b280 ba39 8199 cebc 2dbc 3bbd a4a6 62ba
00000050: cc1d e53b 8095 a5bc 300d 393c 2e30 953c
00000060: 495e 893c 0938 b7bc 00b1 e83b 7ca3 923c
00000070: 6538 2fbc 6476 57bc 8e14 233b 94d7 973b
00000080: 00e7 0d3d 9ac1 07bd d876 e83b 6542 b2bb
00000090: 7c06 283c f086 adbc 5afd 1a3d 615c 523c
000000a0: a620 be3c 924c 5e3c 2509 a5bc 243e cf3c
000000b0: 432f ee3c 2e0f 3cbd 8613 07bd 9659 94bc
000000c0: becd a1bc ef59 3dbb a116 afbc 2914 adbb
000000d0: 49c2 0fbb 34e9 ca3c b923 3c3c e3cb ef3c
000000e0: 0626 f9bc 7be8 79bd 07e8 67bc 6415 a73b
000000f0: bbc4 adbc f364 533c 00d6 20bd 7750 5cb9
00000100: 9255 59ba 5ff4 18bc 22ad 4c3c 20b8 883c
00000110: 248c c6bb 1060 953c e256 9c3b 1bf0 02bd
00000120: ef7a 19bc c01a 9e3c e19e ad3c f0ec 843c
00000130: 332d 843c 3654 90bb 8e08 893c 2c6e df3c
00000140: 2296 083d be32 38bc 2724 ff3a 5473 3e3b
00000150: 210e 8d3c 2229 a2bb 5793 44bd 2f56 ff3b
00000160: ae4b 063d 1c94 d63b aba5 293c 3239 b7bc
00000170: f3df 5bbc 7664 a0bc f030 97bc 85a7 40bc
00000180: 7bb3 98bc 149e 13bc 9c2f 123c 2a3c 373a
00000190: c374 17bc 4145 d9bc 5e64 b93c ab70 33bc
000001a0: f214 f3bb 47e4 c03c 8a38 b2bc 6fa0 d7bc
000001b0: ceaa ac3c 5fb1 8b3d bf9f 9dbc f504 c0bc
000001c0: 3c8c 7d3b 92f3 2abd 06d4 973c 10bd f8bc
000001d0: a6fe 09bd e672 303c d55f 1b3d 12e5 b3bb
000001e0: d36a e53b feb0 8a3c 3d61 55bb 2cde dabc
000001f0: 1c6a cbbc e7dc 673c 1815 22bc 737a c13c
00000200: 6e80 013c 2e8d b5bc c4cb 84bc 6b51 a4bc
00000210: 9c54 51ba bb77 a43c e558 bbbc a1c8 133d
00000220: 7c34 1c3c 3c86 97bc 61a8 7f3c 1c05 37bc
00000230: 526f 283c b463 20bc 3328 d3ba 5fee 953c
00000240: 1a17 963c 723d 93bc 32df 213d 5b40 853c
00000250: a63d eaba c17a b23b b5bc 453c f1f6 973b
00000260: dce0 dfbc 6cbf 9bbb b80b da3c 4083 52bc
00000270: e42b a3bc e8f3 0ebc b38b 8ebc 4c1c 8dba
00000280: 8ed4 14bc fd63 2c3c f881 babc 87fd cfbc
00000290: 7f3f 033c 7e43 b23c 8437 1ebc 87fb b9ba
000002a0: 5973 ed3a b9f3 753c 10af f7ba 8679 f43c
000002b0: e679 ea3c 3854 083c 643d 36bd eeed fe3b
000002c0: db10 a83b 8a8a 383c 3c9c 42bc 8288 afbc
000002d0: abe0 e5bc 0e5c d33b f459 2f3c 80f1 93bb
000002e0: 4139 d6ba d056 b13c e1da 233d 735e c2bc
000002f0: 95eb 033c f257 aa3b e9d7 38bc 2b29 003c
00000300: 9c20 27bc 42d0 56bc d414 f5bb e6c4 ad3c
00000310: 65a1 6c3c d7c4 9dbc 7e93 28bd 6db5 213d
00000320: 1b5b a5b9 ad9b 02bb e469 bf3c fd53 293c
00000330: bdde 513c 22e0 06bd 0bb5 213c 3747 753c
00000340: 4ffc 293c 8ebe d1bb 993e bb3b c911 f23c
00000350: 75c4 cabb 724f b53c a971 bdbb 45d8 773b
00000360: 2910 7ebb f4f5 3cbd 959f e43b ad0f 88bc
00000370: f892 ea3c 72ce bc3b 504c 0ebc c342 0c3c
00000380: 59da 273b 3ca9 89ba aedd b3bc 2ca5 663b
00000390: 7b54 203c 4168 503a 2217 b2bb cd80 37bd
000003a0: c584 053c c0e7 92bc 36e0 843c ea01 0c3d
000003b0: 04ff 403b d0e4 c2bc 22bc 89bc 4f66 cd3b
000003c0: 5acc 823c 6bb1 75bc fd30 a03a 9e83 3f3b
000003d0: 4aff cf3b 7283 1e3c 8524 19b9 c472 02bd
000003e0: 5919 efbc fd79 b2bc eedb 243c 18fb 19bd
000003f0: 3256 49bb f5b5 dfbb b918 b2b9 04fe 55bb
0.0007373967 -0.0023295789 -0.016128497 -0.016026301 -0.023721365 -0.009054204 0.028854018 -0.03261341
0.0077819014 1.1367307e-06 -0.008602529 -0.0039350656 0.03500874 0.00042621462 -0.01984799 0.0077870125
0.0003557257 -0.02521968 -0.045833755 -0.0008646047 0.0069920775 -0.020212889 0.011294648 0.01821145
0.016768591 -0.022365587 0.007101178 0.017900221 -0.010694598 -0.013150785 0.0024884078 0.004633853
0.034644127 -0.033143617 0.0070942454 -0.0054400438 0.010255452 -0.021182507 0.03783927 0.012839408
0.023208927 0.0135680605 -0.020145962 0.025298186 0.02907527 -0.045912914 -0.032977603 -0.018109124
-0.019751426 -0.0028892716 -0.021373095 -0.0052819443 -0.0021935871 0.024769403 0.011483126 0.029272025
-0.030413639 -0.061012726 -0.014154441 0.0050989855 -0.021211972 0.012902486 -0.039266586 -0.0002101081
-0.0008290644 -0.009335606 0.01249245 0.01668936 -0.0060591865 0.018234283 0.0047710994 -0.031967264
-0.009367689 0.019299865 0.021193923 0.016226262 0.016134834 -0.00440457 0.016727712 0.027274214
0.033346303 -0.011242567 0.001946573 0.002906044 0.017218651 -0.004948751 -0.047992077 0.0077922563
0.032787018 0.0065484177 0.01035444 -0.02236614 -0.013420093 -0.019579154 -0.018455952 -0.01175869
-0.01864027 -0.009009857 0.008922484 0.0006989861 -0.009244147 -0.02652228 0.022630867 -0.010952155
-0.0074182684 0.023546351 -0.021755476 -0.026321618 0.02107754 0.0682094 -0.019241212 -0.023439864
0.0038688323 -0.041736193 0.018533718 -0.03036359 -0.033690117 0.010769581 0.03793319 -0.005489954
0.00700126 0.0169301 -0.003255918 -0.026717268 -0.02483087 0.014151788 -0.009892724 0.023617959
0.007904155 -0.022162046 -0.016210444 -0.020058354 -0.0007985325 0.020076623 -0.022869537 0.036080007
0.009533998 -0.018496625 0.0156041095 -0.011170652 0.010280447 -0.009789396 -0.0016110003 0.01830214
0.018321563 -0.017973635 0.039519496 0.016266039 -0.0017871156 0.0054467623 0.012068917 0.004637592
-0.027328901 -0.004753044 0.026616916 -0.012848675 -0.01991839 -0.008725144 -0.017400598 -0.0010765879
-0.00908388 0.010521886 -0.022767052 -0.025389446 0.008010744 0.021760698 -0.009656791 -0.0014189341
0.0018116041 0.015011721 -0.0018896777 0.029843103 0.028622579 0.008320861 -0.04449214 0.0077798283
0.0051289625 0.011263499 -0.0118780695 -0.021427397 -0.028061232 0.0064501828 0.010702599 -0.004514873
-0.0016343967 0.02164784 0.04000366 -0.023726678 0.008051773 0.005198472 -0.011281946 0.007822315
-0.010200646 -0.013111176 -0.0074792895 0.021212053 0.014442776 -0.0192589 -0.041156285 0.03947966
-0.0003153913 -0.0019929216 0.023365922 0.010334966 0.012809453 -0.032928593 0.009869824 0.014970592
0.010375096 -0.0064008897 0.0057142493 0.029549496 -0.0061879703 0.022132609 -0.0057813716 0.0037818116
-0.0038766956 -0.046132997 0.0069770315 -0.016609037 0.028634533 0.005761915 -0.0086851865 0.008560839
0.0025612323 -0.0010502706 -0.021956291 0.0035193665 0.009785767 0.00079501054 -0.0054348866 -0.04480057
0.0081493305 -0.017932773 0.016220193 0.034181513 0.0029448876 -0.023790747 -0.016813342 0.0062682997
0.015966583 -0.014995913 0.0012221631 0.0029222737 0.0063475715 0.009674894 -0.00014604822 -0.03184773
-0.029186891 -0.021786684 0.010062201 -0.037592977 -0.0030721542 -0.006827111 -0.00033969225 -0.0032652626

transformer.h.0.attn.c_proj.weight f4 [12, 12]
00000000: 303f 0bbc b494 953b 9675 1abb 4216 7f3b
00000010: 40db 0cbc 0b04 1ebc c003 56bc fb43 de3b
00000020: 5409 06bb 2ee0 8a3c 43ed 08bc 75dc 0dbc
00000030: c242 793c 5088 163c 4fc1 8c3c 0146 5e3c
00000040: fd00 a43c 91c3 be3b 09ba 9bbc 623f 6b3c
00000050: 64b4 803c 608e 833c 6940 153c 24d6 8ebc
00000060: 66e0 a63c aba1 633c 82cd 6fbb f42d 853c
00000070: 1d13 14bc ce9b e1bb 0f57 b6bb 8bb4 7f3c
00000080: db41 b6bb c6bc 47bc 1d2c 333c 5627 a63c
00000090: 0666 ae3c a3a7 103c ab22 baba 50a6 633b
000000a0: e444 a53c 9396 47ba 4c52 50bc 3613 533c
000000b0: 41b6 78bb 0f66 fb3c c2f3 2f3b d39e 8b3c
000000c0: c960 e8bb cac8 b1bb daaa 41bc 35c6 c2bc
000000d0: 7426 343c 819f 5ebc 5b7c 873c 85d1 d33c
000000e0: fec2 f33b 0d92 a23c 04db 513c d3b5 7b3c
000000f0: ccb4 db3c 00f1 0f3c ac10 0b3c c57e 4dbb
00000100: 6d0d 85bc 17b9 d4ba 6f17 203c 7c47 be3b
00000110: 6d9b e93b 5efd 943c 5d86 973c 63b6 1dbc
00000120: 77d5 8cbc 531a 343b 8f32 c43b f52c 123d
00000130: 79b7 b73c d42d 52bc 54e6 8cbc ab48 b53b
00000140: 14ed 41b9 d94e e93b cc7a fd39 05c9 3dbb
00000150: 9d30 473a f176 91bb 04f0 5b39 0ca5 bc3c
00000160: 01da ff3b f3ee 01bc a63c e1bc 3135 9ebc
00000170: 892b 793c 9733 d6bc beab d53c ec1e d7bb
00000180: 4cea 7e3c df0d 223c fd15 8e3c 3c53 4e3c
00000190: ab19 053b 4ba7 34bb 7d56 473c ede8 77bb
000001a0: e665 423c 37b1 8f3c 3400 69bb 00be cdbc
000001b0: 6450 34ba 0a90 b2bb db4f 2d3c cc76 7f3c
000001c0: 8b1f 67bc 7ec2 243b 2156 9ebb a5a3 6abc
000001d0: 5408 81bb 1b6f a4bc 2899 133c 61a5 ecbc
000001e0: 342f 3abc cff9 ec3b 3822 babc b84a 983c
000001f0: bf54 c13b 51ff 8c3c ea85 68bc cdae 02bc
00000200: 703e 8a3b 2de5 9bbc 3883 38bc f851 8dbc
00000210: bd8d afba ce18 413c 0be6 423b 384e 59bb
00000220: e3d0 c63c 8b9f fb3b 0825 1b3c 1091 8e3c
00000230: 4fcd d3bc cc93 9a3c a0c9 0cbb 9b10 b63b
-0.008498952 0.004564846 -0.0023568622 0.0038923179 -0.008597195 -0.009644519 -0.0130624175 0.0067830062
-0.0020452337 0.0169526 -0.008357349 -0.008658518 0.01521367 0.009187773 0.01718202 0.013566495
0.020020002 0.005821653 -0.019009607 0.014358373 0.015711017 0.0160591 0.009109595 -0.017436095
0.020370673 0.013893525 -0.0036590998 0.016257264 -0.00903776 -0.0068850284 -0.0055645774 0.01560701
-0.00556205 -0.012191003 0.01093581 0.020282429 0.021288883 0.00882903 -0.0014201006 0.003473658
0.020174451 -0.0007613685 -0.012714934 0.012882998 -0.0037950429 0.030688314 0.0026848172 0.017043507
-0.007091616 -0.0054255472 -0.011820519 -0.023776153 0.010995496 -0.013587833 0.01653879 0.025856743
0.0074390164 0.019845033 0.012808565 0.0153631745 0.02681961 0.008785486 0.008487862 -0.0031356078
-0.016241753 -0.0016229477 0.009771212 0.0058068614 0.007129124 0.018187221 0.018496687 -0.009626004
-0.017191632 0.002748151 0.0059874724 0.035687406 0.022426354 -0.012828309 -0.017199673 0.0055323443
-0.00018494233 0.007119995 0.0004834741 -0.0028958928 0.00075984915 -0.0044392277 0.0002097488 0.02302792
0.0078079705 -0.007930505 -0.02749474 -0.019312473 0.0152081335 -0.026147647 0.02608287 -0.0065649655
0.01555879 0.009891002 0.01734447 0.012593087 0.0020309489 -0.0027565535 0.0121666165 -0.0037828044
0.011865115 0.017540557 -0.00355531 -0.025115013 -0.0006878434 -0.0054492997 0.010578121 0.015592288
-0.0141066415 0.002514034 -0.0048320447 -0.014321242 -0.0039377604 -0.02007251 0.009008683 -0.028887453
-0.011363793 0.007231928 -0.022721395 0.018590316 0.005899995 0.017211588 -0.014192084 -0.007976246
0.004218869 -0.019030178 -0.011261754 -0.017251 -0.0013393682 0.011785699 0.0029739167 -0.0033158194
0.024269527 0.007678931 0.009469278 0.017403156 -0.025854735 0.018869303 -0.0021482483 0.0055561787

transformer.h.0.ln_2.weight f4 [12]
00000000: 0000 803f 0000 803f 0000 803f 0000 803f
00000010: 0000 803f 0000 803f 0000 803f 0000 803f
00000020: 0000 803f 0000 803f 0000 803f 0000 803f
1.0 1.0 1.0 1.0 1.0 1.0 1.0 1.0
1.0 1.0 1.0 1.0

transformer.h.0.mlp.c_fc.weight f4 [48, 12]
00000000: 79fb 9d3c 123e c5bc 0298 0abd ae12 ed3b
00000010: 7748 ac3c b2f1 a0bc 8a18 06bd 6e2c ddbc
00000020: 1dad e93c 645a 4fbc 5261 5e3b 87d7 91bc
00000030: abe7 43bc e9c5 f13c e08c 183c 9298 78bd
00000040: 9926 cabb 4136 e63b a2be bbbc d984 47bb
00000050: b9f4 b03b 13a2 0dbc d078 b63b 3e76 37bc
00000060: 357c 41bc 4614 58bc 5039 c43a b216 033d
00000070: 1b15 b1bc c7f8 ccbb 3a42 09bc a75d 3bbc
00000080: e927 ffbb 1cc8 b7bb cb7a 6cbc ab7c 363c
00000090: 0e03 fa3c 42e8 e5bb 9cd5 ffbc b303 153c
000000a0: 123f 873b 9cef 3e3c 8036 773c 2083 f0b9
000000b0: 4003 fdbc 3bf3 b83c d0c8 b7bc 21f4 0dbd
000000c0: 9ca1 d8bc 47a3 16bd dd0a f03b 54e6 783b
000000d0: 9e62 5eba 8eff 70bc bddf 75bc 9c4e 70bc
000000e0: 04f5 44bb e9ea 4dbb ff45 0ebc 45bc fabb
000000f0: 4724 fa3b b553 f039 d8c1 53bc 2f40 bd3c
00000100: 6b2a 86bc 9786 4abc a903 ecbb 7123 123d
00000110: 70e8 ae3b f03b b73c 827f 343c 223c 713b
00000120: 66a4 9bbb 6b38 863b ae6d 393a e6da 63bd
00000130: 377f 073d f3a2 cc3c 1606 0c3d b7b8 063d
00000140: a636 54bc 009f e63b 300c 013d dea7 b6bc
00000150: 8f6c 24bd 6469 9aba d2d1 9b3c 27d6 2d3a
00000160: b9dc f93c c92e 693c 4f36 093d 84b4 05bb
00000170: 9058 a2ba 36fd 94bc e102 d6bc ed91 80bc
00000180: 1062 713c 1ce1 4cbc 4b48 033d 0442 1bbd
00000190: 8551 5ebc b297 0bbc 9604 a2ba 791b 213c
000001a0: 4d76 89bc f006 bc3c 1e9d 3fbb 6f72 3bbd
000001b0: 7960 943b 94bc cd3a f106 1fbd 821a 013d
000001c0: 63ad 0b3b 84cc bbba 6c8a 913a 6f0a 4b3b
000001d0: 0d34 303c bd97 a6bb 27ae 17bd 0141 db3c
000001e0: 73b7 a9bc c2ce 60bc eb6e 28bc a09e 30bd
000001f0: 7551 3abb 851e 683c 5b4b b4bb 4fb3 c63c
00000200: 8e34 eb3a fee8 a5bc 80d3 fcbc 292d da3c
00000210: 79f3 f5bc 7250 0bbd c620 cf3c 997f b5bc
00000220: 46fc 973c 61e9 aa3c 05db b2bc 2f28 94bb
00000230: 6531 09bb 8215 82bc 619b b73c f318 94bc
00000240: 4a5a 13bc b03a 0a3c b50a 71bb 8bff eabb
00000250: ef0e 25bc 230d 75bc 7019 dfbc 1c51 dbbb
00000260: bf82 90bb 7eb6 95bc 53b4 413c 176a 2d3d
00000270: 4ec7 9d3c aeb2 10bd 439d fbbb 17c0 b2b9
00000280: 9061 0dbd 8f71 abbc 34d1 e13c c79b 03bd
00000290: cc21 d639 9b61 3cbc fb9e 0cbc 306f c43c
000002a0: cc5e 8b3c a74d ae3b 6000 8dbc c371 06bc
000002b0: dbd8 c0bc 8eba 623c 3e5e d9bc ae53 4e3d
000002c0: 4309 9bbc 3d5c 4a3c 5211 10bc bc4e adbc
000002d0: 5ecf c2bc 1c57 c1bb b95d 55bc c7ba f43c
000002e0: 8a19 e7bc 1396 e5bc 6987 443c 9ee5 debb
000002f0: af0d b1bb 0da6 9c3a 3d4f f0bb edc4 933b
00000300: c7bd 01bd e706 09bd bb67 d8bc 89c1 c6bb
00000310: caa3 b1bc 780b efbb ed13 0fbb 8f8b 50bb
00000320: 9db1 e0bc 1bec 79bc 854a a43c 7533 00bd
00000330: 61a7 97ba eaf2 acbc 90f1 65bc ef01 223c
00000340: f080 463c f292 0d3d b549 763c dd05 ceba
00000350: 980b f63c 841e 4dbd 60ad 8b3c 79fb 923a
00000360: 6bd4 9038 78fd f63c 8eb2 3dbd 422e 6e3c
00000370: cecd c8bc cfd6 b23a e0a5 ad3c 00c3 87bc
00000380: 3fe2 083c cf90 0e3d 863b aabc 0623 1bbc
00000390: 6409 abbc fcc1 e6bc 6228 95bb d34e 57bc
000003a0: fd0e ab3c bd18 b33c fe43 423b 0d35 9fbc
000003b0: 529b c03c a7e5 a5b9 49f0 3abc 01e6 283d
000003c0: 046a 2bbc 6ce9 72bc 7c29 95bc f430 44bd
000003d0: 3ca0 cf3c 5801 553d 89c3 74bc 4b56 f3bc
000003e0: c334 8e3c 00dd ef3c a515 a63c 240b a5ba
000003f0: a04f 953c 799b b6b9 4f0a b139 5025 4e3c
0.01928495 -0.024077449 -0.033836372 0.007234893 0.021030648 -0.0196465 -0.032738246 -0.026998725
0.02852493 -0.012655828 0.003393252 -0.017802967 -0.011957089 0.029513316 0.009310931 -0.060692377
-0.006169152 0.0070255105 -0.02291805 -0.0030444174 0.005400267 -0.008644599 0.005568601 -0.011197625
-0.011809398 -0.013188427 0.0014970694 0.032004066 -0.02161651 -0.0062552425 -0.008377606 -0.011435903
-0.00778674 -0.0056085717 -0.014433573 0.011138122 0.030519035 -0.0070162127 -0.031229787 0.00909512
0.0041273916 0.011653807 0.015088677 -0.00045874063 -0.030885339 0.022576919 -0.022434622 -0.034656648
-0.026444249 -0.036776807 0.0073255138 0.0037979083 -0.0008483323 -0.0147093665 -0.015006957 -0.014667179
-0.0030053267 -0.0031420535 -0.008683681 -0.007651838 0.007633719 0.00045838734 -0.012924634 0.023101894
-0.016377648 -0.01236119 -0.0072025848 0.03567833 0.0053377673 0.022367448 0.011016728 0.0036809524
-0.0047498224 0.004096081 0.00070735335 -0.05562868 0.033080306 0.024980044 0.03418549 0.032891
-0.012952482 0.0070379972 0.031505764 -0.022296842 -0.040142592 -0.0011780676 0.019020949 0.00066313375
0.030500757 0.014232346 0.03349906 -0.0020401785 -0.0012386013 -0.018187147 -0.02612442 -0.015694583
0.014732853 -0.012504842 0.032051366 -0.037904754 -0.01356924 -0.008520054 -0.0012360986 0.00983321
-0.016780043 0.022952527 -0.0029237936 -0.04576343 0.004528102 0.001569646 -0.03882498 0.03151942
0.0021313063 -0.0014327918 0.0011103875 0.003098156 0.010754597 -0.0050840066 -0.03703132 0.026764395
-0.020717358 -0.01372117 -0.010280351 -0.043120027 -0.00284299 0.014167433 -0.005502147 0.024255423
0.001794474 -0.0202527 -0.03086257 0.026632862 -0.030023323 -0.034012266 0.025284182 -0.02215557
0.01855291 0.020863237 -0.021832952 -0.004521392 -0.0020933982 -0.015879396 0.022412958 -0.018078303
-0.008993695 0.008436844 -0.0036780064 -0.0071715764 -0.010074361 -0.014956745 -0.02723381 -0.0066930186
-0.0044101174 -0.018275496 0.011822778 0.042337503 0.019260075 -0.035326652 -0.007678659 -0.00034093924
-0.03451687 -0.020928172 0.027565576 -0.032130983 0.0004084244 -0.01149788 -0.008582826 0.0239788
0.017012976 0.0053193155 -0.017212093 -0.008205834 -0.023540905 0.013838423 -0.026534196 0.050372772
-0.018925315 0.012351093 -0.008793192 -0.021155708 -0.023780521 -0.005900277 -0.0130228335 0.029874219
-0.02821042 -0.028025663 0.011995175 -0.006802275 -0.0054032425 0.0011951342 -0.0073336647 0.0045095594
-0.031675126 -0.03345385 -0.02641665 -0.0060655517 -0.021684546 -0.0072950684 -0.0021831945 -0.0031821465
-0.027428443 -0.015254046 0.020055065 -0.031299073 -0.0011570269 -0.021111924 -0.014034644 0.009888156
0.012115702 0.034563966 0.015032222 -0.00157183 0.030034825 -0.05007793 0.017050445 0.0011213861
6.906021e-05 0.03015016 -0.04631286 0.014537396 -0.024512198 0.001364434 0.02119726 -0.016572475
0.0083547225 0.03480607 -0.020780336 -0.009468799 -0.020878501 -0.02816867 -0.004551933 -0.013141352
0.02088117 0.021862382 0.0029642577 -0.019434476 0.023511562 -0.00031642357 -0.0114098275 0.041234974
-0.010462288 -0.01482616 -0.018208258 -0.047898248 0.02534496 0.052003235 -0.014939197 -0.029704234
0.017359143 0.029280186 0.020273993 -0.0012591821 0.018226445 -0.0003482958 0.0003376775 0.012582138

transformer.h.0.mlp.c_proj.weight f4 [12, 48]
00000000: 9939 303c 11ed 82bb 2a58 aabb 9d3e 89bc
00000010: d406 f93b fe97 663b fff7 383c 806e 7dbc
00000020: a6fd 863a aa6c ff3a 7f82 903c a88a 16bb
00000030: e757 a23a fa6e 7ebc 8083 093b 410b e5ba
00000040: 01c1 613c 217d 71bb 7aa1 1f3b 2627 0abb
00000050: 9f08 8fbb 903a 73bc 1b69 3fbc 40eb c83c
00000060: 1d5a 71bc cdb3 05bd 9c1a 43bc ce30 4b3c
00000070: 29f9 a33c abf4 1c3c 034b 44bb ee80 86bb
00000080: 27a1 d6bc b2a0 84bc a0cb 803c 8f38 4abc
00000090: 919c 583c 0b7c 3f3c 380a 03b9 15fd dcbc
000000a0: 7c80 d03a 92b1 053d e5b9 c9bb 026c bebc
000000b0: b52f b5bb 738d 8a3b d101 f83a 13ff ddbb
000000c0: d5e8 453c 012c cc3c 2956 34bb 3f25 953c
000000d0: c492 95bc fcf3 51bc b23a b13c 7e06 9539
000000e0: 2594 a73c d9b4 873a d459 8ebc df01 8a3c
000000f0: d315 563c 0efd fd3b b21d 8fbb 5584 1abb
00000100: f867 03bd 6e61 9cbb 94dc c739 817a 533b
00000110: 5cd5 d1bb a410 95bc be07 c3bc 3bb3 3a3c
00000120: 0296 753c d926 d63c fac0 1e39 ad00 a33c
00000130: 0fd8 acbb ec61 fe3c 8da2 dbbb bd16 59bc
00000140: 6449 a43c 7186 5b3b c297 703c 1587 fdbb
00000150: 9800 033d e2c2 953c 076b 263c f143 0d3c
00000160: a810 8bbc a182 60bb 906e 953c b1e8 1d3b
00000170: 555d 423c f29a a5bc f06f 24ba eace 6a39
00000180: 6693 7f39 d24d 0b3b 5d6d f63b 48d8 fabb
00000190: fb27 a1bc 2a6f 673c 281a 34bb 3ccc 5cbc
000001a0: b3c5 363c f7bb b63c c7fd bfbc 059c ef3b
000001b0: dc80 14bc 1963 d5bc 812a e73b 4b6f b73c
000001c0: 7256 ad3b 735b 983c b496 933c 47bb 89bc
000001d0: c6c1 83bc c311 82bc 626b 553c 8462 983c
000001e0: 5977 823b 9d6a 513c 500a 01bb 5822 c63c
000001f0: c996 b4bc a009 493c f1b4 723c 80ca ca3c
00000200: b91d 77bc f2a0 72bc a687 2ebb 4b6f d63b
00000210: c912 803c 6749 973b 642e df3b 00e9 863b
00000220: 67fa d73b 0a97 fa3a c763 abbc 4e54 3b3b
00000230: 162f 403a 4755 8bbc b48f 4cbb 9e69 243d
00000240: 2454 913b 1169 0ebc cbfc e83c af47 803b
00000250: 1da1 05bc c479 613c b28b 85bb 8487 72bc
00000260: 86ce 98ba 4fc9 0e3d bb9e afbc 80bf 47bd
00000270: 3b67 40bc 6848 9ebb 5848 bc3c e4e8 113b
00000280: 3b8b bd3c 1ec3 64bc 8fd5 1cbb a01b c7bc
00000290: b9e1 2a3b 2e7b a03b c353 8d3b 44cc 283c
000002a0: 1422 e0ba df47 edbc 3e2e e3bc 0427 813b
000002b0: 94ae 87bb 2684 993a 4fb2 593c 76e8 f4bb
000002c0: 8e4e 8ebc 1516 ddba d5d0 fbbc 7e99 5f3b
000002d0: 5056 b2bb 9b3a acbc 8f7c 233d 3c06 2abc
000002e0: db35 9ebb bf58 e4bb c61a f63b cca4 d4bc
000002f0: cd9b 563c a7e9 7ebb dd17 8dbb 5634 70bc
00000300: 2832 8c3b 0c64 903c bb2c cabc 6be2 9cbb
00000310: 5bc4 45bc adeb b3bb bd06 4eba bd84 833b
00000320: 7148 b9bb 74f5 60bc f6dd 333c 2a70 a33b
00000330: 5647 1dbd 472b 96bc cc20 30b9 9b89 e1ba
00000340: 6c73 ebbb 19df d4bc 6738 db3b f190 7a3b
00000350: 4603 953c 87a0 d13b 6a1a 69bc 4fa9 973b
00000360: c249 c1bb c267 9e3c 3abf 7dbb c42f 843c
00000370: 3839 c63b ba7d 633c a23e 843c 33d2 d73b
00000380: dbc2 d0bc 0b77 5c3a 8a56 83bc e185 d13b
00000390: 4f0d f6bc 8d45 29bd d9aa 83bb c5df a33a
000003a0: 0927 7dba aaa6 7abc 09c8 a53c fbf4 70bb
000003b0: f1c2 d23c 381b a63c de79 173b d6a7 06bd
000003c0: a373 4a3c e6fe 173b 405a 5abc 682c 8e3a
000003d0: 36ab 3a3c ab31 0dbb 562b 2cbc c697 75bc
000003e0: 437b 6cbc 6586 38bb 9f01 05bc 5f5d a03c
000003f0: 6d90 51bc efa7 42bc 6555 9dbc fdb9 c93b
0.01075592 -0.0039955457 -0.0051984983 -0.01675349 0.007599691 0.003518581 0.011289596 -0.01546824
0.0010298982 0.001948734 0.01764035 -0.002297083 0.0012385816 -0.015529389 0.002098292 -0.0017474667
0.013778926 -0.0036848264 0.0024357722 -0.0021080463 -0.0043650414 -0.014845505 -0.011682774 0.024526238
-0.014730957 -0.032642175 -0.0119082 0.012401773 0.02001627 0.009579818 -0.0029951937 -0.004104725
-0.02619989 -0.016189907 0.015722096 -0.012342586 0.013220922 0.011687289 -0.0001249694 -0.026976148
0.0015907432 0.032640047 -0.0061561936 -0.023244862 -0.0055293688 0.004228288 0.001892144 -0.006774792
0.012079437 0.024923326 -0.0027517176 0.018206237 -0.01825846 -0.012814518 0.021634433 0.00028424332
0.020456383 0.001035358 -0.017376818 0.016846595 0.013066727 0.0077511137 -0.0043675536 -0.0023577411
-0.032081574 -0.0047723567 0.0003812058 0.0032269063 -0.0064036082 -0.018196411 -0.023807403 0.011395271
0.014989378 0.02614157 0.00015139944 0.019897783 -0.0052747796 0.031052552 -0.006702727 -0.01325005
0.020054527 0.0033496881 0.014684619 -0.0077370503 0.031982988 0.018281404 0.010157353 0.0086221555
-0.016975716 -0.0034257548 0.018241197 0.0024094994 0.011863072 -0.020215485 -0.00062727835 0.0002239306
0.00024373605 0.0021256101 0.0075203613 -0.0076551773 -0.019672384 0.014125625 -0.002748141 -0.013476428
0.011155534 0.022306425 -0.02343644 0.0073123 -0.009063926 -0.02604823 0.0070546274 0.022391936
0.005289846 0.018598294 0.018016197 -0.016812934 -0.01608361 -0.01587761 0.01302609 0.018601663
0.0039815125 0.012781766 -0.0019689985 0.024186298 -0.022044556 0.012270361 0.014813648 0.024754763
-0.01508277 -0.01480888 -0.0026631146 0.006544029 0.015633957 0.0046169045 0.00681095 0.0041171312
0.0065911296 0.00191185 -0.020921601 0.0028584185 0.0007331235 -0.017008437 -0.0031213583 0.040139787
0.004435079 -0.008692042 0.028440854 0.0039147954 -0.008156088 0.013761941 -0.004075491 -0.014802817
-0.0011658228 0.03485995 -0.021437993 -0.048766613 -0.011743362 -0.004830409 0.022983715 0.0022264058
0.02313768 -0.013962535 -0.0023931002 -0.024305165 0.0026074483 0.0048974967 0.0043129637 0.010302607
-0.00171 -0.028964935 -0.02773201 0.0039414186 -0.0041406844 0.0011712357 0.013287141 -0.0074740006
-0.017371442 -0.0016867543 -0.030739227 0.0034118588 -0.005442418 -0.021024039 0.03991371 -0.010377463
-0.0048281974 -0.006968587 0.007510516 -0.025957488 0.013098669 -0.0038896592 -0.0043058232 -0.014660915
0.00427844 0.017625831 -0.024679532 -0.0047877333 -0.012070741 -0.005490741 -0.00078592804 0.0040136264
-0.0056543876 -0.013730396 0.010978213 0.004987736 -0.03839811 -0.018331183 -0.00016796886 -0.0017207147
-0.00718539 -0.025985288 0.0066900733 0.0038233364 0.018190037 0.00639731 -0.014227489 0.0046283375
-0.005898685 0.019336585 -0.0038718716 0.016136058 0.0060493015 0.013884956 0.016143147 0.006586337
-0.02548354 0.0008410073 -0.016032476 0.0063941334 -0.030035643 -0.041326094 -0.0040181694 0.0012502602
-0.0009657001 -0.015298525 0.020236986 -0.0036767113 0.02572772 0.02027665 0.002311341 -0.032874905
0.0123566715 0.0023192703 -0.013327181 0.0010846974 0.011393359 -0.0021544497 -0.010508379 -0.014989799
-0.014433685 -0.0028156277 -0.008118062 0.019575773 -0.012790781 -0.011880859 -0.019205758 0.0061562047

transformer.ln_f.weight f4 [12]
00000000: 0000 803f 0000 803f 0000 803f 0000 803f
00000010: 0000 803f 0000 803f 0000 803f 0000 803f
00000020: 0000 803f 0000 803f 0000 803f 0000 803f
1.0 1.0 1.0 1.0 1.0 1.0 1.0 1.0
1.0 1.0 1.0 1.0

lm_head.weight f4 [11, 12]
00000000: 8c03 e33a c77a 57bc 5bc6 b5bc e427 92bb
00000010: bba8 eabc 6227 b8bb 06b0 3abd d8ea f5bc
00000020: 49a3 bf3c abdc 65bc f7eb 0d3b fe7f b6bc
00000030: f02d e0bc 0124 33bb 9960 2c3c 604a 8b3c
00000040: c60f 9e3c b440 f0bc 63ac fbbc c5a7 b9bb
00000050: a0b6 3d3c b8ae adbc 2be4 28bb c06b 963a
00000060: f3c3 c3ba 93cc 703c 3e51 cf3c 21ef 543c
00000070: d49f 2e3d 1ede 093c 2edc 20bd ef31 11bc
00000080: 2e36 4abc b978 0dbd cfed 0ebc c1d2 7dbc
00000090: 9d25 a2bc 75be 4abb 38a1 d0bb 0e21 983c
000000a0: 4518 763c f9c7 8e3c 262c 9dbc 0bfd e2bc
000000b0: aed5 003c aeae bfbc 1bb7 953c 4a58 cd3c
000000c0: 86e7 2abd 65ef e2bc d5f6 963c 5e2b c2bc
000000d0: 32c3 25bb 7877 3e3b 8a72 703c 2990 80bc
000000e0: cfec 173c 5087 163d a977 92bc 77fc 9ebc
000000f0: f5b8 e13a 21c4 24bc 8724 1d3d 04f2 1cbc
00000100: 02f9 d0bc 4972 643c a60d 9c3b e721 89bc
00000110: 562e 8cbb 45b3 083d 14f8 083c 35d4 b73c
00000120: de48 2a3c 20b0 73bc 9068 4c3c f28e e83b
00000130: fbeb 18bc c353 9cbc 5608 0b3c 800a 08bc
00000140: 7231 d53c 5996 d7bc a399 ebbc 1b21 6abc
00000150: 6fd1 75bb fc4c 7e3c d59e f7b9 b71e 7c3c
00000160: 95b2 71bc 1a46 163d 2c50 cfbb a159 5e3b
00000170: 4789 bdbb 9966 67bc 700e 99bb 4f9e ff3a
00000180: ab01 1dbc abfb 193c fe0d c9bc 92dd 69bc
00000190: 1dc0 16bb 5de1 dcb9 9b5d 503b 02a5 0dbc
000001a0: 204e 223c f348 f03b 21d9 d83b 5233 5abc
000001b0: b953 d1bc 8271 0dbc a4f6 823c 4589 953c
000001c0: 75d8 39bb bb65 123d 4238 1ebc 6e9c 953b
000001d0: 92b5 0a3c 7d4e 8fbc d7fb 84bc 57b4 86bc
000001e0: a457 1fbc 109e 0d3d 4fe1 0c3c e2a6 0cbb
000001f0: c943 113d 50c4 4b3d a41b 8c3c cf8e f63c
00000200: dee9 6c3c 056a 993c f91c f8bc 5b3f 8e3c
0.0017319783 -0.013151831 -0.02218931 -0.0044603217 -0.02864491 -0.005619929 -0.045578025 -0.030019209
0.02339329 -0.014029662 0.0021655539 -0.022277828 -0.027365655 -0.0027334692 0.010521078 0.017003238
0.01929463 -0.029327728 -0.030721849 -0.0056657516 0.011579186 -0.021201476 -0.0025770764 0.0011476204
-0.0014935717 0.014697212 0.025307294 0.012996466 0.042632893 0.008414773 -0.03927248 -0.008862003
-0.012342019 -0.03453896 -0.00872369 -0.015492142 -0.019793326 -0.0030936275 -0.006366875 0.01857045
0.015020435 0.017429339 -0.01918609 -0.02770855 0.007863445 -0.023398723 0.018275788 0.025066514
-0.041724704 -0.027702043 0.018428246 -0.02370232 -0.0025293347 0.0029062908 0.014675746 -0.01569374
0.009272768 0.036750138 -0.017879324 -0.019407494 0.0017221259 -0.010056526 0.038364913 -0.009579185
-0.025509361 0.013943263 0.004762369 -0.016739799 -0.0042779846 0.03337409 0.008359928 0.022440055
0.010393349 -0.014873534 0.0124761015 0.0070971185 -0.009333606 -0.01908291 0.008485874 -0.008303285
0.026024554 -0.026316809 -0.028759783 -0.0142901195 -0.0037508865 0.015521284 -0.0004722985 0.015388182
-0.01475205 0.036687948 -0.006326696 0.0033927935 -0.005784187 -0.014123582 -0.0046709105 0.0019502136
-0.009582917 0.009398381 -0.024542805 -0.014274018 -0.0023002692 -0.0004212958 0.0031794074 -0.008645298
0.009906322 0.007332915 0.0066176807 -0.0133179 -0.025552617 -0.008633019 0.015986748 0.018253932
-0.0028357778 0.03574155 -0.009656968 0.004565767 0.008466141 -0.01749348 -0.016233368 -0.016443415
-0.009725485 0.03457457 0.00859864 -0.0021461775 0.035465036 0.049747765 0.017103024 0.030097393
0.014460055 0.018727312 -0.030287253 0.017364195

transformer.wte.weight f4 [11, 12]
00000000: 8c03 e33a c77a 57bc 5bc6 b5bc e427 92bb
00000010: bba8 eabc 6227 b8bb 06b0 3abd d8ea f5bc
00000020: 49a3 bf3c abdc 65bc f7eb 0d3b fe7f b6bc
00000030: f02d e0bc 0124 33bb 9960 2c3c 604a 8b3c
00000040: c60f 9e3c b440 f0bc 63ac fbbc c5a7 b9bb
00000050: a0b6 3d3c b8ae adbc 2be4 28bb c06b 963a
00000060: f3c3 c3ba 93cc 703c 3e51 cf3c 21ef 543c
00000070: d49f 2e3d 1ede 093c 2edc 20bd ef31 11bc
00000080: 2e36 4abc b978 0dbd cfed 0ebc c1d2 7dbc
00000090: 9d25 a2bc 75be 4abb 38a1 d0bb 0e21 983c
000000a0: 4518 763c f9c7 8e3c 262c 9dbc 0bfd e2bc
000000b0: aed5 003c aeae bfbc 1bb7 953c 4a58 cd3c
000000c0: 86e7 2abd 65ef e2bc d5f6 963c 5e2b c2bc
000000d0: 32c3 25bb 7877 3e3b 8a72 703c 2990 80bc
000000e0: cfec 173c 5087 163d a977 92bc 77fc 9ebc
000000f0: f5b8 e13a 21c4 24bc 8724 1d3d 04f2 1cbc
00000100: 02f9 d0bc 4972 643c a60d 9c3b e721 89bc
00000110: 562e 8cbb 45b3 083d 14f8 083c 35d4 b73c
00000120: de48 2a3c 20b0 73bc 9068 4c3c f28e e83b
00000130: fbeb 18bc c353 9cbc 5608 0b3c 800a 08bc
00000140: 7231 d53c 5996 d7bc a399 ebbc 1b21 6abc
00000150: 6fd1 75bb fc4c 7e3c d59e f7b9 b71e 7c3c
00000160: 95b2 71bc 1a46 163d 2c50 cfbb a159 5e3b
00000170: 4789 bdbb 9966 67bc 700e 99bb 4f9e ff3a
00000180: ab01 1dbc abfb 193c fe0d c9bc 92dd 69bc
00000190: 1dc0 16bb 5de1 dcb9 9b5d 503b 02a5 0dbc
000001a0: 204e 223c f348 f03b 21d9 d83b 5233 5abc
000001b0: b953 d1bc 8271 0dbc a4f6 823c 4589 953c
000001c0: 75d8 39bb bb65 123d 4238 1ebc 6e9c 953b
000001d0: 92b5 0a3c 7d4e 8fbc d7fb 84bc 57b4 86bc
000001e0: a457 1fbc 109e 0d3d 4fe1 0c3c e2a6 0cbb
000001f0: c943 113d 50c4 4b3d a41b 8c3c cf8e f63c
00000200: dee9 6c3c 056a 993c f91c f8bc 5b3f 8e3c
0.0017319783 -0.013151831 -0.02218931 -0.0044603217 -0.02864491 -0.005619929 -0.045578025 -0.030019209
0.02339329 -0.014029662 0.0021655539 -0.022277828 -0.027365655 -0.0027334692 0.010521078 0.017003238
0.01929463 -0.029327728 -0.030721849 -0.0056657516 0.011579186 -0.021201476 -0.0025770764 0.0011476204
-0.0014935717 0.014697212 0.025307294 0.012996466 0.042632893 0.008414773 -0.03927248 -0.008862003
-0.012342019 -0.03453896 -0.00872369 -0.015492142 -0.019793326 -0.0030936275 -0.006366875 0.01857045
0.015020435 0.017429339 -0.01918609 -0.02770855 0.007863445 -0.023398723 0.018275788 0.025066514
-0.041724704 -0.027702043 0.018428246 -0.02370232 -0.0025293347 0.0029062908 0.014675746 -0.01569374
0.009272768 0.036750138 -0.017879324 -0.019407494 0.0017221259 -0.010056526 0.038364913 -0.009579185
-0.025509361 0.013943263 0.004762369 -0.016739799 -0.0042779846 0.03337409 0.008359928 0.022440055
0.010393349 -0.014873534 0.0124761015 0.0070971185 -0.009333606 -0.01908291 0.008485874 -0.008303285
0.026024554 -0.026316809 -0.028759783 -0.0142901195 -0.0037508865 0.015521284 -0.0004722985 0.015388182
-0.01475205 0.036687948 -0.006326696 0.0033927935 -0.005784187 -0.014123582 -0.0046709105 0.0019502136
-0.009582917 0.009398381 -0.024542805 -0.014274018 -0.0023002692 -0.0004212958 0.0031794074 -0.008645298
0.009906322 0.007332915 0.0066176807 -0.0133179 -0.025552617 -0.008633019 0.015986748 0.018253932
-0.0028357778 0.03574155 -0.009656968 0.004565767 0.008466141 -0.01749348 -0.016233368 -0.016443415
-0.009725485 0.03457457 0.00859864 -0.0021461775 0.035465036 0.049747765 0.017103024 0.030097393
0.014460055 0.018727312 -0.030287253 0.017364195

transformer.wpe.weight f4 [10, 12]
00000000: 44bd 44bc bc66 d7bb ceac b8bb 9072 b73b
00000010: aacb 2f3c c26f dbbc b5a0 353b 41c6 f0ba
00000020: 1946 c6bb 38de 343c 29a1 42bc 21e3 7c3c
00000030: 0560 313c 154f 443c e28a 323c 790e 33bb
00000040: e9c6 1bbc c155 d73a a182 393d d250 d2bc
00000050: 78b2 f3bc 213b e93c f417 8f3c 4c3d 913a
00000060: 4deb 3f3b f80d c53b d5e6 63bc 3250 b3bc
00000070: e6ed a13a ab3a 153c ce1b d8bc c7c5 033b
00000080: fef8 d53c 65b9 cebc b88f afba 9283 c43b
00000090: 6296 2ebd 9323 363c e765 01bd 06b4 9a3c
000000a0: 8c94 dcbb 203b c63b 6402 0bbc deaa 9a3b
000000b0: a9bf 65b9 e73f 613d 13ef 653b f9da d43c
000000c0: 3d5b 18bc 2754 04bc 1b93 293c ef45 e23b
000000d0: 2226 1e3c a28c 7bbc 6027 a2bb 1916 253c
000000e0: 6163 bebb 8422 4e3c 7c97 903c ddf2 3bbd
000000f0: a014 fd3b 4b3d 763c e37e 1bbd 4345 123c
00000100: 86c6 56bc d4cf 2e3d 861d 42bc 9176 9d3b
00000110: 727d eb3c cfd2 033b 7909 58bc d839 90bc
00000120: 9f21 843c a9cc f5ba 1bad b13c 97f0 aabc
00000130: 1d74 16bc f7c1 4c3c d143 903c f8f7 7c39
00000140: c708 88bc 42e7 573c 99f9 cebb 3bdf 88bb
00000150: 1e40 613c 8a84 933a 7bed 093c 0e97 96bb
00000160: d9c0 a3ba c953 8a3c cf18 a5b9 7751 0d3d
00000170: 05c6 70bc 8cdb 5b3c 1767 0fbd 3568 0f3c
00000180: 0a9f 9fba 86f3 86bb d780 d83c 2b41 5a3c
00000190: 5381 a03c ddf5 10bd 69ad b7bb f9f8 cfbc
000001a0: 1e16 793c 979c 9ebc 6ea3 603a 18b5 793b
000001b0: 9441 c2bc 2066 5fbc 593a cd3a bb30 c1ba
000001c0: cab3 15bc 81f8 0e3c ab34 7d3c fee3 403b
000001d0: 4c77 fa3c 64f3 1338 0740 ec3c 999a d2bc
-0.012008015 -0.006573526 -0.0056358343 0.0055983737 0.01072971 -0.026786689 0.0027714197 -0.0018369631
-0.0060508368 0.011039309 -0.011879244 0.015435011 0.0108261155 0.011981745 0.01089737 -0.0027321859
-0.009507873 0.0016428755 0.045290593 -0.025673304 -0.029748186 0.028470578 0.017467476 0.001108089
0.0029284537 0.006013628 -0.013910015 -0.021888826 0.0012354224 0.009108226 -0.026380446 0.0020106898
0.026119705 -0.025234887 -0.0013394272 0.0059971297 -0.042623885 0.01111688 -0.031591322 0.01888467
-0.0067315754 0.0060495287 -0.008484457 0.004720076 -0.00021910541 0.054992583 0.0035085126 0.02598332
-0.009299097 -0.008076704 0.010350014 0.0069053094 0.009652646 -0.015353354 -0.0049485415 0.010076069
-0.0058101867 0.012581471 0.017650358 -0.04588591 0.007723406 0.015029262 -0.037962805 0.008927646
-0.013108855 0.04267867 -0.011847859 0.004805394 0.02874634 0.0020114665 -0.013185852 -0.017605707
0.016129313 -0.001875301 0.021688988 -0.020866675 -0.009182957 0.012497417 0.017610462 0.00024124968
-0.016605748 0.013177695 -0.0063163755 -0.004177002 0.013748197 0.001125471 0.008418436 -0.004595644
-0.0012493386 0.016885655 -0.00031489736 0.03450152 -0.014695649 0.013419043 -0.035010424 0.008752872
-0.0012178135 -0.0041183857 0.026428623 0.013321201 0.019592917 -0.035390723 -0.005605389 -0.025387274
0.015203027 -0.019361777 0.0008569275 0.0038102325 -0.02371291 -0.013635188 0.0015657648 -0.0014739254
-0.009137103 0.00872624 0.015454452 0.002943277 0.030574463 3.5274206e-05 0.028839124 -0.025708484

transformer.h.0.ln_1.weight f4 [12]
00000000: 0000 803f 0000 803f 0000 803f 0000 803f
00000010: 0000 803f 0000 803f 0000 803f 0000 803f
00000020: 0000 803f 0000 803f 0000 803f 0000 803f
1.0 1.0 1.0 1.0 1.0 1.0 1.0 1.0
1.0 1.0 1.0 1.0

transformer.h.0.attn.c_attn.weight f4 [36, 12]
00000000: db4d 413a d9ab 18bb e91f 84bc 9749 83bc
00000010: 4f53 c2bc 1658 14bc 435f ec3c a495 05bd
00000020: 52ff fe3b c591 9835 9ff1 0cbc b9f1 80bb
00000030: 5365 0f3d 8f75 df39 4098 a2bc 322a ff3b
00000040: b280 ba39 8199 cebc 2dbc 3bbd a4a6 62ba
00000050: cc1d e53b 8095 a5bc 300d 393c 2e30 953c
00000060: 495e 893c 0938 b7bc 00b1 e83b 7ca3 923c
00000070: 6538 2fbc 6476 57bc 8e14 233b 94d7 973b
00000080: 00e7 0d3d 9ac1 07bd d876 e83b 6542 b2bb
00000090: 7c06 283c f086 adbc 5afd 1a3d 615c 523c
000000a0: a620 be3c 924c 5e3c 2509 a5bc 243e cf3c
000000b0: 432f ee3c 2e0f 3cbd 8613 07bd 9659 94bc
000000c0: becd a1bc ef59 3dbb a116 afbc 2914 adbb
000000d0: 49c2 0fbb 34e9 ca3c b923 3c3c e3cb ef3c
000000e0: 0626 f9bc 7be8 79bd 07e8 67bc 6415 a73b
000000f0: bbc4 adbc f364 533c 00d6 20bd 7750 5cb9
00000100: 9255 59ba 5ff4 18bc 22ad 4c3c 20b8 883c
00000110: 248c c6bb 1060 953c e256 9c3b 1bf0 02bd
00000120: ef7a 19bc c01a 9e3c e19e ad3c f0ec 843c
00000130: 332d 843c 3654 90bb 8e08 893c 2c6e df3c
00000140: 2296 083d be32 38bc 2724 ff3a 5473 3e3b
00000150: 210e 8d3c 2229 a2bb 5793 44bd 2f56 ff3b
00000160: ae4b 063d 1c94 d63b aba5 293c 3239 b7bc
00000170: f3df 5bbc 7664 a0bc f030 97bc 85a7 40bc
00000180: 7bb3 98bc 149e 13bc 9c2f 123c 2a3c 373a
00000190: c374 17bc 4145 d9bc 5e64 b93c ab70 33bc
000001a0: f214 f3bb 47e4 c03c 8a38 b2bc 6fa0 d7bc
000001b0: ceaa ac3c 5fb1 8b3d bf9f 9dbc f504 c0bc
000001c0: 3c8c 7d3b 92f3 2abd 06d4 973c 10bd f8bc
000001d0: a6fe 09bd e672 303c d55f 1b3d 12e5 b3bb
000001e0: d36a e53b feb0 8a3c 3d61 55bb 2cde dabc
000001f0: 1c6a cbbc e7dc 673c 1815 22bc 737a c13c
00000200: 6e80 013c 2e8d b5bc c4cb 84bc 6b51 a4bc
00000210: 9c54 51ba bb77 a43c e558 bbbc a1c8 133d
00000220: 7c34 1c3c 3c86 97bc 61a8 7f3c 1c05 37bc
00000230: 526f 283c b463 20bc 3328 d3ba 5fee 953c
00000240: 1a17 963c 723d 93bc 32df 213d 5b40 853c
00000250: a63d eaba c17a b23b b5bc 453c f1f6 973b
00000260: dce0 dfbc 6cbf 9bbb b80b da3c 4083 52bc
00000270: e42b a3bc e8f3 0ebc b38b 8ebc 4c1c 8dba
00000280: 8ed4 14bc fd63 2c3c f881 babc 87fd cfbc
00000290: 7f3f 033c 7e43 b23c 8437 1ebc 87fb b9ba
000002a0: 5973 ed3a b9f3 753c 10af f7ba 8679 f43c
000002b0: e679 ea3c 3854 083c 643d 36bd eeed fe3b
000002c0: db10 a83b 8a8a 383c 3c9c 42bc 8288 afbc
000002d0: abe0 e5bc 0e5c d33b f459 2f3c 80f1 93bb
000002e0: 4139 d6ba d056 b13c e1da 233d 735e c2bc
000002f0: 95eb 033c f257 aa3b e9d7 38bc 2b29 003c
00000300: 9c20 27bc 42d0 56bc d414 f5bb e6c4 ad3c
00000310: 65a1 6c3c d7c4 9dbc 7e93 28bd 6db5 213d
00000320: 1b5b a5b9 ad9b 02bb e469 bf3c fd53 293c
00000330: bdde 513c 22e0 06bd 0bb5 213c 3747 753c
00000340: 4ffc 293c 8ebe d1bb 993e bb3b c911 f23c
00000350: 75c4 cabb 724f b53c a971 bdbb 45d8 773b
00000360: 2910 7ebb f4f5 3cbd 959f e43b ad0f 88bc
00000370: f892 ea3c 72ce bc3b 504c 0ebc c342 0c3c
00000380: 59da 273b 3ca9 89ba aedd b3bc 2ca5 663b
00000390: 7b54 203c 4168 503a 2217 b2bb cd80 37bd
000003a0: c584 053c c0e7 92bc 36e0 843c ea01 0c3d
000003b0: 04ff 403b d0e4 c2bc 22bc 89bc 4f66 cd3b
000003c0: 5acc 823c 6bb1 75bc fd30 a03a 9e83 3f3b
000003d0: 4aff cf3b 7283 1e3c 8524 19b9 c472 02bd
000003e0: 5919 efbc fd79 b2bc eedb 243c 18fb 19bd
000003f0: 3256 49bb f5b5 dfbb b918 b2b9 04fe 55bb
0.0007373967 -0.0023295789 -0.016128497 -0.016026301 -0.023721365 -0.009054204 0.028854018 -0.03261341
0.0077819014 1.1367307e-06 -0.008602529 -0.0039350656 0.03500874 0.00042621462 -0.01984799 0.0077870125
0.0003557257 -0.02521968 -0.045833755 -0.0008646047 0.0069920775 -0.020212889 0.011294648 0.01821145
0.016768591 -0.022365587 0.007101178 0.017900221 -0.010694598 -0.013150785 0.0024884078 0.004633853
0.034644127 -0.033143617 0.0070942454 -0.0054400438 0.010255452 -0.021182507 0.03783927 0.012839408
0.023208927 0.0135680605 -0.020145962 0.025298186 0.02907527 -0.045912914 -0.032977603 -0.018109124
-0.019751426 -0.0028892716 -0.021373095 -0.0052819443 -0.0021935871 0.024769403 0.011483126 0.029272025
-0.030413639 -0.061012726 -0.014154441 0.0050989855 -0.021211972 0.012902486 -0.039266586 -0.0002101081
-0.0008290644 -0.009335606 0.01249245 0.01668936 -0.0060591865 0.018234283 0.0047710994 -0.031967264
-0.009367689 0.019299865 0.021193923 0.016226262 0.016134834 -0.00440457 0.016727712 0.027274214
0.033346303 -0.011242567 0.001946573 0.002906044 0.017218651 -0.004948751 -0.047992077 0.0077922563
0.032787018 0.0065484177 0.01035444 -0.02236614 -0.013420093 -0.019579154 -0.018455952 -0.01175869
-0.01864027 -0.009009857 0.008922484 0.0006989861 -0.009244147 -0.02652228 0.022630867 -0.010952155
-0.0074182684 0.023546351 -0.021755476 -0.026321618 0.02107754 0.0682094 -0.019241212 -0.023439864
0.0038688323 -0.041736193 0.018533718 -0.03036359 -0.033690117 0.010769581 0.03793319 -0.005489954
0.00700126 0.0169301 -0.003255918 -0.026717268 -0.02483087 0.014151788 -0.009892724 0.023617959
0.007904155 -0.022162046 -0.016210444 -0.020058354 -0.0007985325 0.020076623 -0.022869537 0.036080007
0.009533998 -0.018496625 0.0156041095 -0.011170652 0.010280447 -0.009789396 -0.0016110003 0.01830214
0.018321563 -0.017973635 0.039519496 0.016266039 -0.0017871156 0.0054467623 0.012068917 0.004637592
-0.027328901 -0.004753044 0.026616916 -0.012848675 -0.01991839 -0.008725144 -0.017400598 -0.0010765879
-0.00908388 0.010521886 -0.022767052 -0.025389446 0.008010744 0.021760698 -0.009656791 -0.0014189341
0.0018116041 0.015011721 -0.0018896777 0.029843103 0.028622579 0.008320861 -0.04449214 0.0077798283
0.0051289625 0.011263499 -0.0118780695 -0.021427397 -0.028061232 0.0064501828 0.010702599 -0.004514873
-0.0016343967 0.02164784 0.04000366 -0.023726678 0.008051773 0.005198472 -0.011281946 0.007822315
-0.010200646 -0.013111176 -0.0074792895 0.021212053 0.014442776 -0.0192589 -0.041156285 0.03947966
-0.0003153913 -0.0019929216 0.023365922 0.010334966 0.012809453 -0.032928593 0.009869824 0.014970592
0.010375096 -0.0064008897 0.0057142493 0.029549496 -0.0061879703 0.022132609 -0.0057813716 0.0037818116
-0.0038766956 -0.046132997 0.0069770315 -0.016609037 0.028634533 0.005761915 -0.0086851865 0.008560839
0.0025612323 -0.0010502706 -0.021956291 0.0035193665 0.009785767 0.00079501054 -0.0054348866 -0.04480057
0.0081493305 -0.017932773 0.016220193 0.034181513 0.0029448876 -0.023790747 -0.016813342 0.0062682997
0.015966583 -0.014995913 0.0012221631 0.0029222737 0.0063475715 0.009674894 -0.00014604822 -0.03184773
-0.029186891 -0.021786684 0.010062201 -0.037592977 -0.0030721542 -0.006827111 -0.00033969225 -0.0032652626

transformer.h.0.attn.c_proj.weight f4 [12, 12]
00000000: 303f 0bbc b494 953b 9675 1abb 4216 7f3b
00000010: 40db 0cbc 0b04 1ebc c003 56bc fb43 de3b
00000020: 5409 06bb 2ee0 8a3c 43ed 08bc 75dc 0dbc
00000030: c242 793c 5088 163c 4fc1 8c3c 0146 5e3c
00000040: fd00 a43c 91c3 be3b 09ba 9bbc 623f 6b3c
00000050: 64b4 803c 608e 833c 6940 153c 24d6 8ebc
00000060: 66e0 a63c aba1 633c 82cd 6fbb f42d 853c
00000070: 1d13 14bc ce9b e1bb 0f57 b6bb 8bb4 7f3c
00000080: db41 b6bb c6bc 47bc 1d2c 333c 5627 a63c
00000090: 0666 ae3c a3a7 103c ab22 baba 50a6 633b
000000a0: e444 a53c 9396 47ba 4c52 50bc 3613 533c
000000b0: 41b6 78bb 0f66 fb3c c2f3 2f3b d39e 8b3c
000000c0: c960 e8bb cac8 b1bb daaa 41bc 35c6 c2bc
000000d0: 7426 343c 819f 5ebc 5b7c 873c 85d1 d33c
000000e0: fec2 f33b 0d92 a23c 04db 513c d3b5 7b3c
000000f0: ccb4 db3c 00f1 0f3c ac10 0b3c c57e 4dbb
00000100: 6d0d 85bc 17b9 d4ba 6f17 203c 7c47 be3b
00000110: 6d9b e93b 5efd 943c 5d86 973c 63b6 1dbc
00000120: 77d5 8cbc 531a 343b 8f32 c43b f52c 123d
00000130: 79b7 b73c d42d 52bc 54e6 8cbc ab48 b53b
00000140: 14ed 41b9 d94e e93b cc7a fd39 05c9 3dbb
00000150: 9d30 473a f176 91bb 04f0 5b39 0ca5 bc3c
00000160: 01da ff3b f3ee 01bc a63c e1bc 3135 9ebc
00000170: 892b 793c 9733 d6bc beab d53c ec1e d7bb
00000180: 4cea 7e3c df0d 223c fd15 8e3c 3c53 4e3c
00000190: ab19 053b 4ba7 34bb 7d56 473c ede8 77bb
000001a0: e665 423c 37b1 8f3c 3400 69bb 00be cdbc
000001b0: 6450 34ba 0a90 b2bb db4f 2d3c cc76 7f3c
000001c0: 8b1f 67bc 7ec2 243b 2156 9ebb a5a3 6abc
000001d0: 5408 81bb 1b6f a4bc 2899 133c 61a5 ecbc
000001e0: 342f 3abc cff9 ec3b 3822 babc b84a 983c
000001f0: bf54 c13b 51ff 8c3c ea85 68bc cdae 02bc
00000200: 703e 8a3b 2de5 9bbc 3883 38bc f851 8dbc
00000210: bd8d afba ce18 413c 0be6 423b 384e 59bb
00000220: e3d0 c63c 8b9f fb3b 0825 1b3c 1091 8e3c
00000230: 4fcd d3bc cc93 9a3c a0c9 0cbb 9b10 b63b
-0.008498952 0.004564846 -0.0023568622 0.0038923179 -0.008597195 -0.009644519 -0.0130624175 0.0067830062
-0.0020452337 0.0169526 -0.008357349 -0.008658518 0.01521367 0.009187773 0.01718202 0.013566495
0.020020002 0.005821653 -0.019009607 0.014358373 0.015711017 0.0160591 0.009109595 -0.017436095
0.020370673 0.013893525 -0.0036590998 0.016257264 -0.00903776 -0.0068850284 -0.0055645774 0.01560701
-0.00556205 -0.012191003 0.01093581 0.020282429 0.021288883 0.00882903 -0.0014201006 0.003473658
0.020174451 -0.0007613685 -0.012714934 0.012882998 -0.0037950429 0.030688314 0.0026848172 0.017043507
-0.007091616 -0.0054255472 -0.011820519 -0.023776153 0.010995496 -0.013587833 0.01653879 0.025856743
0.0074390164 0.019845033 0.012808565 0.0153631745 0.02681961 0.008785486 0.008487862 -0.0031356078
-0.016241753 -0.0016229477 0.009771212 0.0058068614 0.007129124 0.018187221 0.018496687 -0.009626004
-0.017191632 0.002748151 0.0059874724 0.035687406 0.022426354 -0.012828309 -0.017199673 0.0055323443
-0.00018494233 0.007119995 0.0004834741 -0.0028958928 0.00075984915 -0.0044392277 0.0002097488 0.02302792
0.0078079705 -0.007930505 -0.02749474 -0.019312473 0.0152081335 -0.026147647 0.02608287 -0.0065649655
0.01555879 0.009891002 0.01734447 0.012593087 0.0020309489 -0.0027565535 0.0121666165 -0.0037828044
0.011865115 0.017540557 -0.00355531 -0.025115013 -0.0006878434 -0.0054492997 0.010578121 0.015592288
-0.0141066415 0.002514034 -0.0048320447 -0.014321242 -0.0039377604 -0.02007251 0.009008683 -0.028887453
-0.011363793 0.007231928 -0.022721395 0.018590316 0.005899995 0.017211588 -0.014192084 -0.007976246
0.004218869 -0.019030178 -0.011261754 -0.017251 -0.0013393682 0.011785699 0.0029739167 -0.0033158194
0.024269527 0.007678931 0.009469278 0.017403156 -0.025854735 0.018869303 -0.0021482483 0.0055561787

transformer.h.0.ln_2.weight f4 [12]
00000000: 0000 803f 0000 803f 0000 803f 0000 803f
00000010: 0000 803f 0000 803f 0000 803f 0000 803f
00000020: 0000 803f 0000 803f 0000 803f 0000 803f
1.0 1.0 1.0 1.0 1.0 1.0 1.0 1.0
1.0 1.0 1.0 1.0
