mnk_transformer/probing_checkpoints_2head/ckpt3.pt (torch, 13666 bytes, 20 tensors)

transformer.wte.weight f4 [11, 12]
000000 53 09 c5 3d f2 01 20 bd 6c 1d 84 be 88 a4 f7 bd
       0.09620919 -0.039064355 -0.25803697 -0.12091929
000010 65 5c 49 bd d0 76 fb bd 6d e5 73 bc 1a 9c 48 be
       -0.04916038 -0.12278521 -0.014886242 -0.19590798
000020 b5 c2 7b 3d 5f 99 1a 3e 3d 0a 4f bc 63 68 4e 3e
       0.061464984 0.15097569 -0.012636718 0.20157008
000030 fa d0 ed 3d 79 50 93 bd 3b 4b d1 3e 7d e5 58 3e
       0.11612125 -0.07193083 0.4087771 0.21181293
000040 c5 a7 aa 3b 41 90 1a bd de c5 75 be 03 73 ab 3d
       0.005207988 -0.037735227 -0.24001262 0.08371546
000050 88 b4 85 be e2 bf c8 3d ea fd c5 3d ab da 68 3a
       -0.26114297 0.09802224 0.09667571 0.0008882682
000060 e5 a9 5d be c7 cf 62 bc 42 c4 13 3e 7e 6e b9 3d
       -0.21646841 -0.013843483 0.14430335 0.09054278
000070 d9 af 9f 3b 08 5a b9 3d 5f fe 82 bd 34 c9 87 be
       0.0048732576 0.09050375 -0.06396174 -0.26520693
000080 9d 9b f3 3d bb 60 b2 bd 9c c9 86 3e d4 4b aa bd
       0.11894915 -0.08709856 0.2632569 -0.08315244
000090 7d a7 13 bc 2e 1a 75 3e 24 dc 8c bd 2e 49 04 bd
       -0.0090121 0.23935768 -0.06877926 -0.032296352
0000a0 1a 56 a3 3d d0 9b 0f be f3 39 b6 bc b0 8a 08 3e
       0.07975407 -0.14024282 -0.02224443 0.13334155
0000b0 8a 0b 9d 3c f3 c4 f4 bd 62 fa 03 3e a9 d9 80 3e
       0.019170541 -0.119516276 0.12888482 0.25166062
0000c0 e6 00 7f bb 93 3f 14 be 8c 01 18 3e d2 9b 27 bd
       -0.0038910448 -0.14477377 0.1484434 -0.040920086
0000d0 6d c2 18 bd e0 61 97 bd d1 58 1d bd b3 d5 59 3e
       -0.037294794 -0.07391715 -0.03841478 0.21272926
0000e0 b9 3d b9 3e d5 c4 15 3e a5 12 85 3d c8 f6 8a bd
       0.36179903 0.14625867 0.06497697 -0.06785351
0000f0 e0 e3 9a 3d a0 21 2b 3d 59 aa ce 3e 03 e1 85 be
       0.07562995 0.041780114 0.4036434 -0.26148233
000100 f0 d6 14 be f0 4f c6 bd f9 22 f3 3d aa e1 aa bd
       -0.14535117 -0.096832156 0.11871905 -0.08343823
000110 c7 f2 95 bd d0 4f 3b 3d 78 63 00 be 65 47 89 3d
       -0.07321697 0.045730412 -0.12537944 0.067030706
000120 2b 4a fe 3d 2b 58 a3 bd 65 ad be bd 1e b4 f0 3d
       0.1241649 -0.07975801 -0.09310416 0.117531046
000130 87 76 36 bd 49 c1 00 be 3b 30 9e bb 77 b9 a3 bd
       -0.04454663 -0.12573732 -0.004827527 -0.07994359
000140 bf ba 50 bd 03 9a 4e 3e c9 9f b0 3d 38 68 80 3e
       -0.050959345 0.20175938 0.086242266 0.25079513
000150 0c f9 3d ba 03 87 88 be 9c 92 40 bc 2f a8 37 bd
       -0.00072468887 -0.26665506 -0.011753704 -0.044838127
000160 d8 b6 58 3c 3e f9 ea bd 69 5d 2f bd 69 1c f5 3c
       0.013227187 -0.114733204 -0.042813692 0.029920774
000170 1a 1b a0 bc 10 92 05 bf 17 75 1a bc 20 ad e5 3d
       -0.019544173 -0.52176 -0.00942733 0.112146616
000180 68 5e 05 3e 70 de 0c 3e 28 0b 9f 3d eb cb c1 3d
       0.13024294 0.13756728 0.077658 0.094627224
000190 05 3c 4e bd 5c 45 85 bd 33 52 82 be 3a 3d 91 be
       -0.050350208 -0.0650737 -0.25453338 -0.28367025
0001a0 03 0a 43 3e bb 0a 74 bd 7f 2d cf bd 3b e6 d2 bd
       0.19046788 -0.059580546 -0.101160996 -0.10297819
0001b0 50 b7 69 3d 65 0f ae bd c0 1f 7c bd 4b 4e 6a 3e
       0.057059586 -0.0849903 -0.061553717 0.22881429
0001c0 48 dc 32 be 00 21 1f 3e 1b fe 26 3e 72 46 57 3d
       -0.17466843 0.15539932 0.16307871 0.052557416
0001d0 c8 0b 57 bd ee ad 0f bd c9 7f 41 3d 64 94 33 be
       -0.05250147 -0.03507798 0.047241006 -0.17537075
0001e0 03 71 f8 be ba 43 4f 3f 38 9c 05 bf d8 d6 1f bf
       -0.4852372 0.8096272 -0.52191496 -0.624372
0001f0 2f 2e da 3f 84 67 11 40 b9 9f b7 3d 4f 3c 4b 3e
       1.7045344 2.271943 0.089660116 0.19847225
000200 9d 99 46 bf e5 68 93 3d bd 67 cc bf 1e af 41 bf
       -0.77578145 0.071977414 -1.5969158 -0.7565783

transformer.wpe.weight f4 [10, 12]
000000 61 ce 0f bc 13 07 a4 3c 0c 01 16 bb d6 68 47 3d
       -0.008777232 0.020022905 -0.0022888808 0.048683964
000010 76 65 d9 b9 7b c7 c5 bd f9 52 06 bd 84 2d c2 bc
       -0.0004146506 -0.096571885 -0.032793973 -0.023703344
000020 37 02 c7 3b 94 cb cf 3c 89 36 a7 3c 59 20 89 3d
       0.006073262 0.025365628 0.020411747 0.06695623
000030 25 ec 06 3d 5e d2 3a 3d 20 c7 60 bd d8 ef cd bc
       0.03294005 0.045610778 -0.0548774 -0.02513878
000040 8a 88 cf bd 07 44 cd 3d bb 81 13 bc 29 5f c3 3c
       -0.10133465 0.10022741 -0.009003098 0.023849087
000050 ab 9d 01 bd bc 56 22 bc cf 58 8d 3c d2 e0 40 3d
       -0.031644505 -0.009908374 0.017254261 0.047089405
000060 66 e9 b8 3d 45 91 e1 3a 3d ea 49 bd 80 4e cc bd
       0.09028892 0.0017209431 -0.049295653 -0.0997591
000070 78 c9 0a 3d a9 d0 db 3c 55 99 ea 39 28 70 8b bc
       0.03388354 0.026832895 0.000447462 -0.017021254
000080 19 9b 6f bd 63 c5 1e bc 1a 81 a1 3d fd 92 05 bd
       -0.058497522 -0.009690615 0.07885952 -0.032610882
000090 04 72 49 3c a5 13 2f 3d fe c7 40 bd 98 d4 94 bc
       0.01229525 0.042743344 -0.047065727 -0.018167779
0000a0 d8 ca c7 bd dc d9 a7 3d a5 93 ae bb 78 ad c0 3c
       -0.09755486 0.0819585 -0.005327659 0.023520216
0000b0 a3 ee cb bc e0 d4 1c bc b7 a5 ab 3b 19 ba 68 3d
       -0.024894064 -0.009572238 0.0052382606 0.0568181
0000c0 a5 71 9e 3d ee 6b 5d 3a bf 11 48 bd e2 17 b1 bd
       0.0773652 0.0008446564 -0.04884505 -0.086471334
0000d0 12 70 17 3d 2b 29 07 3b fe e5 8c 3b 68 40 ac bc
       0.036972113 0.0020623903 0.004299878 -0.021026805
0000e0 ed 06 63 bd 7e c7 cf bb 3c 02 77 3d d2 d0 e9 bc
       -0.055426527 -0.00634092 0.060304865 -0.028541956
0000f0 07 35 8f bc 47 34 40 3d 7c fe 11 bd 4e 1a 55 bc
       -0.01748134 0.046924856 -0.035643086 -0.01300676
000100 92 95 90 bd ba 36 8a 3d 1d 0d 95 bb b4 88 98 3c
       -0.07059778 0.067487195 -0.0045486824 0.018619873
000110 d7 22 28 bc 34 b2 47 3b 4a 03 10 bc c4 cb 99 3d
       -0.010262213 0.0030471208 -0.008789847 0.07509568
000120 67 99 23 3d d1 f9 a5 3a fd 1d 2e bd d5 81 b5 bd
       0.039941218 0.0012662952 -0.042509068 -0.08862654
000130 ba 66 6d 3d de 4b b1 bc 92 64 23 3b da ed d8 bc
       0.057959296 -0.021642622 0.002493177 -0.026480604
000140 f0 3f 39 bd c0 c0 5a 3b 68 c9 2a 3d b7 7d 95 bc
       -0.04522699 0.0033379048 0.041695982 -0.018248422
000150 db d5 26 bd a9 e0 5c 3d 48 b5 ae bc 92 9f 58 3b
       -0.040731292 0.05392519 -0.021326676 0.0033054096
000160 77 60 52 bd 38 a7 60 3d 96 0d bd 3a f1 e0 05 3d
       -0.051361527 0.054846972 0.0014423605 0.032685224
000170 c8 c4 a9 3b c5 02 82 3c 30 e8 6b bc 89 3d 9b 3d
       0.005180929 0.015870461 -0.0143986195 0.07580096
000180 af d4 99 3c 28 63 3b 3c 6c 64 c5 bc 42 b0 93 bd
       0.018778173 0.011437215 -0.024095736 -0.07211353
000190 fa b0 9a 3d a2 38 bb bc cd a8 af 3b 0f a7 72 bb
       0.07553287 -0.022854153 0.005360699 -0.0037025844
0001a0 3a 6b c5 bc fd 24 6f 3c 61 34 de 3c a5 fd d7 bc
       -0.024098981 0.014596221 0.027124586 -0.026366064
0001b0 2b df f7 be 04 82 88 3f e8 a9 eb be 90 ac 44 bf
       -0.4841245 1.0664678 -0.46028066 -0.7682581
0001c0 d1 2c 53 3f 7c b9 81 3f f8 d0 d8 be f3 03 25 3e
       0.8249026 1.013473 -0.4234693 0.16114788
0001d0 13 24 13 3c 5c 0d 5a bf 3c 59 e9 be 83 63 66 3e
       0.008980769 -0.85176635 -0.45575893 0.22498898

transformer.h.0.ln_1.weight f4 [12]
000000 83 00 e3 3f 9e 8d d3 3f d6 05 e0 3f f3 e5 c3 3f
       1.7734531 1.6527593 1.7501781 1.530455
000010 31 97 fe 3f 2e e9 f4 3f 95 36 e2 3f 2f db f3 3f
       1.988989 1.9133661 1.7672907 1.9051265
000020 a5 c5 f0 3f 05 31 01 40 68 08 da 3f 86 d8 da 3f
       1.8810316 2.018617 1.7033815 1.7097328

transformer.h.0.attn.c_attn.weight f4 [36, 12]
000000 5c 42 83 3e ed 94 7e be 34 b9 31 be 58 b2 c8 3e
       0.25636566 -0.24861498 -0.17355806 0.39198565
000010 c4 de 97 be c6 d7 87 3e 53 72 03 be d6 3c e9 3d
       -0.29662144 0.2653181 -0.1283658 0.11388557
000020 d5 4a 17 3e 1e c7 9d be d9 c6 85 3d d9 a7 5f 3e
       0.1477464 -0.30815977 0.06532068 0.21841373
000030 e9 60 a5 3e c0 71 34 be cc 21 ff bd 81 11 bf be
       0.323005 -0.17621517 -0.12457618 -0.37318042
000040 cf 36 f5 bd 1b 56 65 3e 2a 3e 83 3e 74 f3 1b bb
       -0.119733445 0.22396128 0.25633365 -0.0023796232
000050 58 59 b6 3c dc 11 60 bb 59 71 bf 3e a6 3b 25 3c
       0.0222594 -0.0034190333 0.37391165 0.010085022
000060 fb b4 a2 be 06 73 52 bd e2 0b e6 bc 3d 31 f8 3d
       -0.31778702 -0.051379226 -0.028081838 0.121187665
000070 91 96 b9 be 41 52 97 3d 94 52 ae be 70 60 c1 bd
       -0.36247686 0.073887356 -0.34047377 -0.09442222
000080 9c bc 87 3e 1e 00 62 3d 19 97 8d bc 72 48 93 3e
       0.26511085 0.055175893 -0.017283963 0.2876621
000090 6b 06 69 3d c3 a2 88 be af e7 20 3c 1e ad 5d 3d
       0.056890886 -0.26686677 0.009820863 0.054120176
0000a0 42 6b 9d 3f 74 81 0e bf 2e f2 2c 3e 34 29 33 be
       1.2298357 -0.5566628 0.16889259 -0.17496186
0000b0 21 a9 0c 3e 39 c6 37 3e c0 98 70 3d 15 8b ab be
       0.13736393 0.1794671 0.058739424 -0.3350455
0000c0 32 57 9a be 04 3f 47 3e 6a 28 f5 bd 1d 65 4f bd
       -0.3014465 0.19457632 -0.11970599 -0.05063354
0000d0 9f 79 00 3d 07 c4 4e 3e 87 26 67 3e ee 99 48 bd
       0.031365987 0.20191966 0.22573291 -0.048974924
0000e0 1d ae aa 3d ba e3 1e bd 5d 1b 4c be e2 75 2d 3b
       0.08333991 -0.038791396 -0.19932313 0.0026467969
0000f0 53 58 ff 3d c8 ff 8f 3e 3e d4 ec bd 6d 87 c6 bd
       0.124680184 0.28124833 -0.115639195 -0.09693799
000100 c4 d8 84 be dc 82 16 3e 37 9b 9f bd 36 a7 33 3e
       -0.2594663 0.14698356 -0.07793277 0.17544255
000110 48 11 18 3d d9 4d 38 3d 7e 4a 6d 3e d8 20 81 be
       0.037125856 0.044996116 0.23172948 -0.2522037
000120 57 c1 5a bd 2d 78 a0 3d 2e 0c 64 3d 56 66 20 be
       -0.05340704 0.07835422 0.055675678 -0.15664038
000130 cf cd 3e be 09 99 f4 bd 1e 28 b3 bd f0 25 82 3d
       -0.18633197 -0.11943252 -0.08747886 0.06354892
000140 c6 bd 23 bd 07 db 4e bc a1 ad af 3e ca 99 aa 3d
       -0.039975904 -0.012625462 0.34312156 0.08330114
000150 db a9 2e 3d c6 3e 6b 3d 31 fb eb bd bb 3d 00 3e
       0.042642456 0.057432912 -0.1152252 0.12523548
000160 34 43 38 bd cf 18 e7 bb 6d 91 3f 3e 91 a6 df 3d
       -0.044985965 -0.007052518 0.1870782 0.10920442
000170 bb 9f 45 3b 34 d2 ee bc c3 db 99 bd 62 ca 49 be
       0.0030155021 -0.029152967 -0.07512619 -0.19706109
000180 ad 72 4d be 35 17 1a be 32 4d ee bd 8e 8f 3b 3e
       -0.20063277 -0.15047915 -0.116358176 0.1831648
000190 d8 04 24 3e cd c0 09 3e 4a f7 30 3e 57 e7 c0 3d
       0.16017473 0.13452454 0.17281833 0.094191246
0001a0 b2 75 2a bc 0e 5e 82 3d ba 7a a1 be 46 e1 4f bd
       -0.010404037 0.06365596 -0.31538945 -0.050751947
0001b0 d3 cc 2e 3e 7c ac 70 bd 05 88 7a 3d 2e b2 15 be
       0.17070322 -0.058758244 0.061164875 -0.14618751
0001c0 c2 3f 73 be 48 9d 2a bd 89 32 03 be 19 dc 0a bd
       -0.2375479 -0.0416539 -0.12812246 -0.033901308
0001d0 f4 d8 38 3e ac e3 95 bd 18 63 06 3e 13 c4 b9 3d
       0.18051511 -0.073188156 0.13123739 0.09070601
0001e0 04 48 47 3e 34 bd 1c bd 01 6b 39 bc 46 d3 2f bd
       0.19461066 -0.038266376 -0.011317016 -0.042926095
0001f0 6f f1 83 bd 1c 79 2d 3e 1c 8b de bd 4a f4 35 bb
       -0.06442534 0.16940731 -0.10866377 -0.0027764016
000200 27 23 9a bc 9d 3e af bd 79 8c a4 3c 1d 49 ac 3d
       -0.01881559 -0.085568644 0.020086514 0.08412383
000210 4c bd 6d bd 3a 5b 38 be 91 b9 84 3d 6e 1a 26 bd
       -0.058041856 -0.1800355 0.064807065 -0.04055255
000220 d3 9f 05 3b f3 aa ba bd 9a ac cb bb 55 3d ce bc
       0.0020389452 -0.09114637 -0.006215644 -0.02517573
000230 0c 8a d0 3c 54 c7 bb 3b c9 6e d7 3d 6a b3 0b 3e
       0.02545645 0.005730549 0.105191775 0.1364266
000240 d1 6b 27 be 75 90 fc be 31 bf 3a be 83 63 25 3f
       -0.16349722 -0.49328962 -0.18236996 0.6460497
000250 53 de c0 bd 57 89 b2 3e d1 f9 8f be 84 15 3d 3e
       -0.09417405 0.34870407 -0.28120282 0.18465239
000260 de 21 a3 3c d9 44 ad bd 66 80 1f be e9 c3 c4 3e
       0.01991361 -0.08460397 -0.15576324 0.38430718
000270 93 9b 33 be cb fa 87 3e 78 ab 58 bc f2 9c 8a 3e
       -0.17539816 0.26558527 -0.013224475 0.27072865
000280 e6 29 2a be 0e 9f 39 be 8e 47 7e be ae bd 4f 3d
       -0.16617545 -0.18127081 -0.24831983 0.050718002
000290 ca 5f 42 be 46 a7 82 bb 2b e9 95 3e 89 f3 31 3c
       -0.18981853 -0.0039872257 0.29279456 0.010861286
0002a0 2d b8 88 3d 8e fd 2b 3d b2 60 20 bb 33 8b 34 be
       0.06675754 0.041989855 -0.0024471697 -0.17631225
0002b0 f4 5a 49 bd c7 13 fa 3e 65 29 83 be 06 a5 01 be
       -0.049159005 0.48843214 -0.2561752 -0.12660608
0002c0 ca 60 7c bd eb 63 44 3c b9 17 4b be e4 61 cf 3e
       -0.061615743 0.011986713 -0.19833268 0.40504372
0002d0 98 ed 02 3f e1 8b 6c be 4a 72 80 3d 52 b7 1c be
       0.5114379 -0.23100235 0.06271799 -0.15304306
0002e0 45 63 24 3f 84 4a 05 bf a6 ce 09 3e f8 f3 6c be
       0.64213973 -0.52066827 0.13457736 -0.23139942
0002f0 a7 5e a1 bd bc 92 cb 3c 41 cb e8 3e f7 cc 87 be
       -0.078793816 0.024850242 0.4546757 -0.26523563
000300 d9 44 34 3d 09 45 fe 3d 00 e9 41 3d a6 c6 a0 3c
       0.04401097 0.12415511 0.047341347 0.019625973
000310 14 4b 8e bd 59 db b6 bd 61 63 00 be bc 32 a9 3d
       -0.06947914 -0.08928556 -0.1253791 0.0826163
000320 a2 9c 80 bd f1 eb 30 3e a5 a0 89 be 48 c3 f0 bd
       -0.06279875 0.17277505 -0.26880375 -0.11755997
000330 68 2d fb be d2 79 2e 3e 73 7b 19 3e c4 7a 68 3e
       -0.4905808 0.17038658 0.14988498 0.22703081
000340 4a e5 ae be 45 18 15 3d 66 f7 03 3f 17 c0 58 3e
       -0.3415931 0.0364001 0.51549375 0.21167026
000350 04 64 11 bf 33 c9 2f 3d 06 56 1f be 8f d4 95 3e
       -0.56793237 0.042916488 -0.15560159 0.29263732
000360 aa a6 e7 bd ce 0a 11 be 0f 89 96 3d 46 64 b3 bc
       -0.113110855 -0.14164278 0.073503606 -0.0218984
000370 27 39 6e bc f0 d1 1e 3e db b0 68 3e f8 2a 83 bd
       -0.014539993 0.15509772 0.22723715 -0.0640468
000380 69 5e a2 bd 92 b6 f0 3d fe 8f 24 be e2 92 fd bd
       -0.079281636 0.117535725 -0.16070554 -0.12381531
000390 90 6f 1d 3d 60 88 2d 3e b1 3b 6c 3e 80 fa 90 bd
       0.038436472 0.16946554 0.23069645 -0.07079029
0003a0 96 05 09 3d 74 64 10 be 4a 6e 4d be 32 e2 ee 3d
       0.033452593 -0.1410082 -0.20061603 0.11664237
0003b0 8d b1 22 3d 44 86 c2 bd eb 95 a9 3d 17 f0 1c bd
       0.039720107 -0.094982654 0.08280548 -0.038314905
0003c0 70 30 ac bc cb c0 ba 3d fa 23 e3 bc 79 f0 33 b9
       -0.02101919 0.091188036 -0.027727116 -0.00017160353
0003d0 87 07 8d bd b2 1c 10 be 9e 00 64 be 74 ce 0b 3e
       -0.06886201 -0.14073446 -0.2226586 0.13652974
0003e0 dd 28 82 bc 7e b6 80 3c c4 c8 c5 3d f0 b3 03 3e
       -0.015888626 0.015712019 0.09657434 0.1286161
0003f0 a4 c0 e0 bd 0b a7 0b be 60 7b 89 bd 56 e8 8e bb
       -0.10974243 -0.1363794 -0.06712985 -0.0043611927

transformer.h.0.attn.c_proj.weight f4 [12, 12]
000000 c2 e9 1a bd 3b 52 13 be 88 65 db bd 0f 5b 4e 3c
       -0.037820585 -0.14386837 -0.10712725 0.012594952
000010 ae 61 b0 bd 9f f1 02 3e 5f 39 58 be cb 17 a5 be
       -0.08612381 0.12787484 -0.21115635 -0.32244715
000020 56 a3 19 3e be 8a 55 bd ee ef 10 3e 13 f5 80 3e
       0.15003714 -0.052134268 0.14154026 0.25186977
000030 d9 28 b1 3c cb 4d a8 3c af 75 a4 3c f7 10 1a be
       0.021625923 0.020544907 0.020075647 -0.15045534
000040 29 1d 0b be b2 17 8d bd 47 7a f3 bd 81 4b e8 3e
       -0.13585342 -0.06889285 -0.11888557 0.45370105
000050 f7 e4 af 3e fa 64 1c 3e 74 37 65 bd 4f e0 99 3d
       0.34354374 0.15272895 -0.055961087 0.075134866
000060 eb b5 1d 3e 86 dc e6 bd 97 20 36 bd 44 c3 66 bd
       0.15401427 -0.1127253 -0.044464674 -0.056338564
000070 13 36 8e 3c e2 d5 76 3c d0 8a 06 bd 76 00 26 3e
       0.017359769 0.015065642 -0.032847226 0.16211113
000080 9d 87 3d 3d aa 08 82 3c 8e 0c b8 bd 6d b3 5d 3d
       0.04627191 0.015873272 -0.089867696 0.054126192
000090 be 0d c5 3d e0 fd 4c 3e d3 48 08 3d d2 24 57 bc
       0.09621762 0.2001872 0.033272576 -0.013131337
0000a0 38 c5 7c 3d 57 38 8c 3e d1 2f 17 bd 5f 8b 82 3c
       0.06171152 0.27386734 -0.036910836 0.015935598
0000b0 c0 f5 37 3c f7 63 90 3e 18 f4 b9 3d bc 22 af 3d
       0.011228025 0.28201267 0.0907976 0.08551547
0000c0 45 ea 8f be 85 13 eb bc f5 af 40 be 70 e8 c6 bc
       -0.2810842 -0.028695831 -0.18817122 -0.024280757
0000d0 b9 4d bf bd 50 8c 48 3c 57 a1 8b 3e db 23 39 3d
       -0.09340996 0.012240484 0.2727153 0.04520021
0000e0 92 fd 2e be 91 9e f2 3c b4 d5 3e be e7 e9 93 3d
       -0.17088917 0.029616626 -0.18636209 0.07222348
0000f0 47 ff a3 bd 22 82 f0 3c 2e fe 86 3d 87 cb 1b be
       -0.08007675 0.029358927 0.0659145 -0.15214358
000100 f9 f1 13 be 44 60 dc bd d1 1b 4a bd ff 3a dd be
       -0.14447774 -0.10760549 -0.049342934 -0.43209073
000110 9d 63 ec bd 41 68 26 bc 21 22 40 3e 40 69 35 be
       -0.11542437 -0.010156692 0.18763019 -0.17715931
000120 00 64 a7 3d 2d e0 a9 bd c2 0e a4 bc 50 49 72 3e
       0.0817337 -0.08294711 -0.020026568 0.23660779
000130 20 89 1b 3d 0e 0d 60 be fe a0 b1 be a4 7f b2 bc
       0.03797257 -0.2187998 -0.3469314 -0.02178938
000140 3d c2 69 bd 43 49 19 3e 8d 28 97 3d ce aa 90 be
       -0.057070006 0.14969353 0.07380781 -0.28255314
000150 19 7a 53 bd 33 0d e8 bd 75 5e 93 3d 44 d8 93 3c
       -0.051630113 -0.113306426 0.071957506 0.01804746
000160 ef 04 36 3e fa 2c 1c 3d 73 32 7d 3e 2c ec c2 3d
       0.1777532 0.03812883 0.24726276 0.095177025
000170 c6 f6 a7 3c 09 20 58 bd cc 6d 06 3f fe 9a 95 be
       0.020503413 -0.052764926 0.52511287 -0.29219812
000180 13 72 e6 bd 27 21 b4 3c 78 f9 b8 3d d8 91 30 3e
       -0.11252227 0.021988465 0.090319574 0.17243135
000190 57 2b 07 3c ad f1 95 be 36 c8 bd 3e 62 53 9c bd
       0.008250079 -0.29285946 0.3706681 -0.076330915
0001a0 21 a4 55 bd e1 ae 77 3d af 31 e8 3c a4 ad 09 3f
       -0.05215848 0.060469512 0.028344003 0.5378058
0001b0 d5 04 33 bd f9 61 2e be 33 d3 a9 3d 82 fc 04 3e
       -0.04370578 -0.17029561 0.08292236 0.12986949
0001c0 9d d4 44 bd b9 81 95 3d f9 14 72 3e 41 8f a2 3e
       -0.048054326 0.07300133 0.23640813 0.3174992
0001d0 60 80 30 be a9 e0 03 bd 06 b8 bf bd bc 4d 73 be
       -0.17236471 -0.032196674 -0.093612716 -0.23760122
0001e0 8e 43 cd bc db 76 d9 3d e7 6c a1 bd 7c 7c ec 3d
       -0.025056627 0.10618373 -0.078820996 0.11547181
0001f0 0f 4a 3f 3d 07 ca fb bb 48 c0 c5 bd f7 d9 fc 3b
       0.046701487 -0.0076839956 -0.09655815 0.007716413
000200 6e fd 37 3e 23 7a c2 be 76 4a 16 be 7a da 64 be
       0.1796777 -0.37983808 -0.14676842 -0.22348967
000210 8f e9 49 3e 43 3d 03 3d 0f 1e c1 3d bd 7b a4 bd
       0.19718002 0.032040846 0.09429561 -0.08031414
000220 27 f4 15 3e 84 ae 71 bd b1 89 88 3d 6e cf b0 be
       0.14643918 -0.05900432 0.066668876 -0.34533256
000230 fa 11 b8 be 6f 2f ed bd 50 3a 87 be f7 90 7e 3c
       -0.35951215 -0.11581313 -0.26411676 0.015537492

transformer.h.0.ln_2.weight f4 [12]
000000 89 a9 18 40 5f 87 08 40 b9 1d 00 40 ef 68 08 40
       2.3853476 2.1332624 2.0018141 2.1314046
000010 4d 53 10 40 e5 6e 1c 40 3a 94 1a 40 5b 2c f7 3f
       2.2550843 2.4442685 2.415297 1.9310411
000020 16 a8 fd 3f b7 5e 10 40 5c 88 25 40 29 52 ed 3f
       1.9816921 2.255781 2.5864477 1.8540698

transformer.h.0.mlp.c_fc.weight f4 [48, 12]
000000 35 7b 11 be 63 fa 8a bd b3 aa ae 3c d4 b8 1f 3e
       -0.14207156 -0.06786039 0.02132163 0.1559785
000010 d9 d2 7f 3e 36 29 38 be 48 c6 34 3d d5 0c 2f 3e
       0.24982776 -0.1798447 0.04413441 0.17094739
000020 37 53 37 bd 6f 5d 38 be 63 f6 15 3e 60 bb 1c 3d
       -0.044757094 -0.18004392 0.1464477 0.038264632
000030 5a 9a 1f 3e 89 b1 55 3d bc d0 8f bd 2b 1c c8 bd
       0.15586224 0.052171264 -0.07022235 -0.097709976
000040 de 67 8f be f7 0f 21 3e 83 7e 9d bd bf 88 0c be
       -0.28008932 0.15728746 -0.07690146 -0.1372404
000050 f6 ce ba 3d 10 a3 89 3e 1d ca e9 bc 9e 13 ea bc
       0.09121506 0.2688222 -0.028538758 -0.028573807
000060 99 03 99 3d 4c 48 89 bc 9e a2 7f be ea 24 3a 3f
       0.07471389 -0.016758107 -0.24964377 0.72712576
000070 6e 01 d0 3e 01 ec d8 3c 08 03 7a be 16 1c cc 3d
       0.4062609 0.026479723 -0.24415219 0.099662945
000080 8a 3a 9d be 4a 4e af bd 31 f6 52 3e 6e 18 74 3c
       -0.30708724 -0.08559854 0.20601727 0.014898403
000090 34 ab 7a be fd ad 41 be 96 48 53 be cb 84 36 be
       -0.24479371 -0.18914028 -0.20633158 -0.17824094
0000a0 41 ea ad bd 6a 58 bd 3e e8 1f 29 3e 46 7c e6 3e
       -0.08491946 0.36981517 0.16516078 0.45016688
0000b0 bb 17 a9 be b2 2f 0c 3e 8c 9d 8c bd 86 27 e1 3d
       -0.33025917 0.1369007 -0.06865987 0.109938666
0000c0 75 75 ee 3b 68 23 2c be e0 9e 3d 3e 09 d4 56 3d
       0.0072771856 -0.16810381 0.18517637 0.052448306
0000d0 3f 63 29 3d 3c ed 8b 3d 80 4b e6 bc 21 a3 7a be
       0.041354414 0.06832358 -0.028112173 -0.24476291
0000e0 1d 5f 10 be 28 bf c6 3d db 21 80 39 dd 25 65 bd
       -0.14098783 0.09704429 0.00024439287 -0.055944312
0000f0 44 11 99 bb f1 a5 19 bc f7 75 5f be 59 e0 2d 3e
       -0.0046712477 -0.009377942 -0.21822344 0.16980113
000100 96 48 65 3d e7 ef ba bd 62 d8 bb bd 2e e4 19 3e
       0.055977426 -0.09127789 -0.09172131 0.1502845
000110 51 1b 89 3d eb 79 5a bd 3f f7 08 3e af d6 10 3c
       0.06694663 -0.053338926 0.13375567 0.008840247
000120 55 a3 e5 bd e9 b6 a6 3c d0 1c 7c be 1b da 98 3d
       -0.11212794 0.02035089 -0.24620366 0.07463475
000130 c9 6e 42 3e 4d 34 b4 3c 7d 16 d1 3d a4 10 b9 bc
       0.18987574 0.021997595 0.102093674 -0.022590943
000140 2f 79 37 3e ec 4b f7 bd ca 25 c5 3d 69 45 f3 3b
       0.17917322 -0.12075028 0.09626348 0.007424046
000150 d7 79 07 be 1a c0 01 be 04 57 92 bd d0 4e 30 3d
       -0.13230072 -0.12670937 -0.07145503 0.04304391
000160 d7 b0 75 3d 90 c2 44 3e 08 89 05 3e 27 b4 f8 3d
       0.0599831 0.19214845 0.13040555 0.12143736
000170 64 c4 46 be 6d 80 0c 3d 64 ac b9 bc 77 c1 2d bc
       -0.19410855 0.034302164 -0.02266521 -0.010605208
000180 44 07 42 3b 27 20 3f be db 63 7e 3e 6f 25 0d 3e
       0.0029606381 -0.18664609 0.2484278 0.13783811
000190 e1 f5 d7 bd ad 17 52 bc 16 02 cb 3d c6 b6 0f be
       -0.105449446 -0.012823028 0.09912507 -0.14034566
0001a0 c7 d7 39 bd 3c f5 04 3e ff 54 fb 3a 2a ee 01 be
       -0.045371797 0.12984174 0.0019175111 -0.12688509
0001b0 0a 95 d1 3d a5 49 5c 3e 94 a3 c9 bd 11 5f 99 3e
       0.10233505 0.21512468 -0.09845653 0.29955342
0001c0 6c 75 25 bd d5 0c c4 bc c9 47 8b 3e 1d f0 58 3e
       -0.040395185 -0.0239319 0.27203205 0.21185346
0001d0 ef ee 9e 3d 7b f0 31 be 29 7f be be 6b f3 a6 be
       0.07760417 -0.17376892 -0.3720639 -0.32607588
0001e0 2d 80 b3 be 46 6e a8 be 16 a2 86 be 84 f8 b3 3d
       -0.35058728 -0.32896632 -0.26295537 0.08787635
0001f0 0f dd fd 3d 89 00 06 3f 02 f2 d3 3e 72 74 76 3e
       0.12395679 0.52344567 0.41395575 0.24067858
000200 1e b8 0d bf f2 c0 0d 3e 3e 77 63 be d3 8d 91 bd
       -0.55359066 0.13843134 -0.22213456 -0.07107129
000210 6b 73 04 be b0 0a 0f be 02 0e 21 38 75 a8 4c 3e
       -0.12934653 -0.1396892 3.8398437e-05 0.19986136
000220 56 6d a8 3d 44 08 37 be b5 63 81 3e 65 1f bb 3b
       0.08223979 -0.17874247 0.25271383 0.0057105296
000230 a1 e2 13 3e 40 f1 e1 bd 0f b7 bd 3d e6 1f 99 3b
       0.14441921 -0.11032343 0.09263431 0.004672992
000240 ee f6 94 bd c3 ef 3d 3e 19 67 1b be 03 b5 e2 bd
       -0.072736606 0.18548493 -0.15176047 -0.110696815
000250 67 47 d2 bd 98 b4 ba bc 7b 47 46 bd db a7 64 3e
       -0.10267525 -0.022791192 -0.048408013 0.22329657
000260 fe b6 8f 3d 32 59 c0 bd 0a 0d 84 3d f0 fd e9 3d
       0.07017325 -0.09392013 0.064477995 0.11425388
000270 b5 22 00 bb 81 2b 51 3d c8 ca 0a 3e 95 be 0c bd
       -0.0019551937 0.05106688 0.13553917 -0.03436144
000280 e6 fb 06 be ef a1 dc 3c cc cb bc bd b7 d6 b6 3b
       -0.13182029 0.026932685 -0.09218559 0.005579795
000290 aa 11 b6 bd df f9 14 3d ad 9f 5f be 11 8b d4 3d
       -0.08890088 0.03637111 -0.21838255 0.10378087
0002a0 0b 97 46 3e a2 46 12 be a6 f0 14 3d 7d 67 8d 3c
       0.19393556 -0.14284757 0.036362313 0.017261261
0002b0 2c 4e 32 be 85 26 44 3e d2 b2 07 be 5f 26 06 be
       -0.17412633 0.19155319 -0.13251808 -0.13100575
0002c0 10 70 97 3d 86 d1 9c 3e ef 1c 1e 3d 64 da 31 be
       0.07394421 0.30628604 0.038601812 -0.17368466
0002d0 26 94 8e 3d ca 3b 28 3d 28 3a f3 bd 93 85 4c 3d
       0.06961851 0.041072644 -0.11876327 0.049932074
0002e0 f5 da f6 bc 76 ad c3 bd 90 45 15 bd fb 01 35 3d
       -0.030133704 -0.095545694 -0.036443293 0.04419134
0002f0 c1 f4 61 3d 69 6f cd 3c 41 15 0b bd 4d 69 67 3d
       0.055165056 0.025077539 -0.033955816 0.056496907
000300 4b 1d c2 bd 4d 66 a1 bc a8 69 d8 be 28 f1 ce 3d
       -0.094782434 -0.019702101 -0.4226811 0.10104591
000310 76 44 0c 3e f8 1d fc bc 79 3f 50 3e 55 5a 56 bd
       0.13697991 -0.030776009 0.20336713 -0.05233224
000320 c9 67 83 3e ed fb 8f bd 12 51 69 3e 28 70 1f be
       0.2566512 -0.07030473 0.22784832 -0.15570128
000330 8c 21 ae 3c bd fd ba 3d db 5c 51 3d 94 24 4e 3d
       0.02125623 0.09130428 0.051113945 0.050327852
000340 a1 cf ef 3d 81 da 90 3d 6f b8 c0 bd 6f 46 5d bd
       0.11709524 0.07072926 -0.09410178 -0.05402225
000350 d0 1e d3 3c 16 89 20 be 27 23 dc 3c 2c 65 80 bd
       0.025771528 -0.15677294 0.02687223 -0.06269297
000360 a3 a4 78 3e 64 89 f9 3b d9 98 99 be 88 fb 4f bd
       0.24281554 0.007615255 -0.29999426 -0.05077699
000370 2a 0a b8 bd bf 5f 50 be 56 8e c0 3c ea 4d 38 3d
       -0.08986314 -0.20349024 0.023505371 0.04499618
000380 07 be db bd 24 22 86 3e 01 b9 f9 bd d7 e1 3b 3e
       -0.10729604 0.26197922 -0.1219349 0.1834787
000390 9a d7 3d 3e c3 7f bd 3e 15 6e 6f be 18 1c 2c 3f
       0.18539277 0.37011537 -0.23381837 0.6723037
0003a0 8c 60 6f 3c 65 bb b1 bd 5a b5 32 3f 4d f5 9c 3e
       0.014610421 -0.08678321 0.6980797 0.306559
0003b0 8b 45 3d 3d f0 79 a9 be 3b 2a 5a bf 12 15 37 bf
       0.0462089 -0.33100843 -0.8522069 -0.71516526
0003c0 a7 13 22 3d 4e b0 9e 3d 5c 06 8a bd 38 6e e0 bd
       0.039569523 0.07748471 -0.06739494 -0.109585226
0003d0 f5 9e 88 3c e0 8f 77 3d 70 23 d9 3d 1c 14 29 be
       0.01667736 0.060439944 0.10602462 -0.16511577
0003e0 5b 96 e6 3d 93 99 dd 3d 94 08 5d bd 93 3f fa bc
       0.11259147 0.108203076 -0.05396326 -0.030547893
0003f0 1e f2 93 3d 0a b3 c1 3d d1 13 14 be 59 da 74 bd
       0.072239146 0.09457977 -0.14460684 -0.059778545

transformer.h.0.mlp.c_proj.weight f4 [12, 48]
000000 06 d3 85 3d 69 32 2f be 1d 4e df 3c 0f d4 91 3e
       0.0653439 -0.17109074 0.027258927 0.284821
000010 43 52 a6 3d b5 09 19 be c9 3d be 3d 82 a9 fe 3e
       0.08121159 -0.14945109 0.09289128 0.497387
000020 8e ca f1 bd 3a d6 b4 bd 8c 26 28 bf 79 82 f3 3c
       -0.11806212 -0.08829923 -0.6568382 0.0297253
000030 14 9a 15 3d de d9 a7 3c 14 16 60 be 53 d0 b4 3d
       0.036523893 0.02048963 -0.21883422 0.08828797
000040 33 00 4b 3d a0 ef 22 bd 24 aa 87 bd a7 d8 8c 3e
       0.049560737 -0.039779305 -0.066242486 0.27509043
000050 a9 43 d0 bd 61 85 8c be 74 3c 88 3d 2d 58 ba 3d
       -0.10169155 -0.2744551 0.066521555 0.090988494
000060 4f 79 b2 3d 6a ec 31 3d d8 5a 3e 3c b6 ee d3 3c
       0.08714544 0.043438353 0.0116183385 0.025870662
000070 ef 42 dd 3d cb 92 8f 3e 5b d0 e1 3c 64 87 48 3d
       0.10803782 0.28041682 0.027565172 0.048957244
000080 14 b1 ba bd 51 e1 8e bd fe d1 bf bd 1d 56 0b be
       -0.09115806 -0.069765694 -0.09366225 -0.13607068
000090 46 54 9b bd c1 27 d6 3c a6 3b 4e 3c a0 57 a9 bd
       -0.07584433 0.026142003 0.0125874635 -0.08268666
0000a0 1f 92 fb bc af d5 84 3e 7e 54 b6 3a b9 b4 8e bd
       -0.030709324 0.25944278 0.0013910679 -0.06968064
0000b0 68 1b 44 bb 01 f4 97 bc 63 36 1b 3e 70 1d 0b 3d
       -0.0029923562 -0.018548967 0.15157466 0.03396362
0000c0 e7 2a c3 3d a9 97 c2 3c 64 fb 93 3b f5 37 84 3d
       0.09529667 0.023753958 0.004516052 0.064559855
0000d0 39 d3 ae 3d 92 bd 2d bd 63 d2 05 bb 9c 38 45 3e
       0.08536381 -0.042417116 -0.002041959 0.19259876
0000e0 a4 a7 3a 3e 46 12 ad 3e 27 a9 61 be 5d bb 2f bc
       0.18228012 0.33803004 -0.22037183 -0.010725823
0000f0 41 76 26 be 01 95 56 bd cc 48 21 3e db b4 fb bc
       -0.16256048 -0.052388195 0.15750426 -0.030725887
000100 c0 8e 72 3c 18 1e 8a bd b0 f4 ec 3d 35 d0 08 bf
       0.014804542 -0.06744021 0.11570108 -0.534427
000110 10 f6 f8 bb 71 1c 8c bd 07 69 71 bc 5e 15 64 3d
       -0.0075976923 -0.06841362 -0.014734513 0.05568444
000120 d6 0c b7 3e 0b 16 49 3c 7e 80 41 be 81 76 66 bc
       0.3575198 0.012273322 -0.18896672 -0.0140663395
000130 75 17 66 3d fe aa 76 3d 22 ec 4d 3d 10 7f 40 be
       0.056174714 0.060221665 0.050274022 -0.1879847
000140 a3 d3 02 3e f8 08 09 be 6e 54 0f 3d c4 71 00 3e
       0.12776046 -0.13382328 0.034992628 0.12543398
000150 a8 6c e4 3d c4 19 e7 3b d1 39 0b 3d 65 2f b0 bd
       0.11153537 0.007052632 0.033990685 -0.0860279
000160 2b ba bc bc 49 bb f2 be cd 29 a6 3d ab 04 c4 3c
       -0.02303799 -0.47408512 0.081134416 0.023928007
000170 6e 79 8c 3d 42 01 45 3d 76 3c 72 bb a7 d3 15 bd
       0.068590984 0.048096903 -0.0036962307 -0.0365788
000180 9b 99 ba 3c e0 5c b7 bc 3f 9b b4 3d 8c 64 31 3c
       0.022778323 -0.022383153 0.08818673 0.010827195
000190 4d 71 2d 3c 91 ff ab 3d c3 e4 d1 3d 75 c5 22 bc
       0.010586095 0.08398355 0.10248711 -0.009934773
0001a0 9a 86 eb bd 46 07 be 3e 27 ac 48 bd 14 88 08 3d
       -0.115002826 0.37114924 -0.048992302 0.0333329
0001b0 4d d4 e8 3d f1 9d 84 3d 92 94 1c bd 29 f2 81 3d
       0.11368618 0.064754374 -0.038227625 0.063450165
0001c0 0d fe 86 3d 4e f0 db bc 20 9b 1d 3d bd d2 c7 bd
       0.06591425 -0.026847985 0.038478017 -0.09756992
0001d0 4a 50 bf bc 1d fc e7 3d da 6e 25 3d 68 30 12 3d
       -0.023353714 0.11327384 0.04038892 0.035690695
0001e0 9b 21 2e bc ee 47 b2 3d 3d b3 8b bd 9c 8f 21 bc
       -0.010628129 0.08705126 -0.06821296 -0.009860899
0001f0 b3 fa 21 bd 01 72 ca 3a 1b 76 ef 3d 3a 36 67 3d
       -0.039545726 0.0015445353 0.11692449 0.0564482
000200 82 3c f7 bd f0 b3 47 be bc c9 94 bd b9 72 05 be
       -0.12072088 -0.19502234 -0.0726504 -0.13032044
000210 63 f0 83 bd 76 4a 4d be 3a 07 ec bd 91 9c a4 bd
       -0.064423345 -0.20047936 -0.11524816 -0.08037675
000220 b9 93 0e 3d 8c 1e da 3d 54 30 63 be b4 f1 26 3d
       0.034808848 0.106503576 -0.22186404 0.04075785
000230 56 5d 9f 3d 92 24 08 be 0f bc c7 3c b9 7c af 3d
       0.07781474 -0.132952 0.024381666 0.08568711
000240 e6 6a ed bc 20 3c 7a 3d b4 0e b1 3d 88 4d 71 3d
       -0.028981637 0.061092496 0.086453825 0.05891183
000250 1d 02 68 3e e7 72 1e be 5d 7a 11 3e 87 ed 6d bd
       0.22657056 -0.1547352 0.14206834 -0.05808785
000260 8d 2d 06 bd 59 a0 3c be 00 46 c9 bd fd 8a 9a 3c
       -0.032758284 -0.18420543 -0.098278046 0.018865103
000270 56 4c ba 3b bb 32 13 3d 35 0e 40 be f8 f4 d2 bb
       0.0056853695 0.035937052 -0.1875542 -0.006437894
000280 7d 96 36 3c dd c8 51 3d f4 45 17 bd 62 b1 8f 3c
       0.011144278 0.05121695 -0.036931947 0.017540637
000290 4a 34 02 3e de 6f bc 3d 62 8d b3 bc 47 18 3a 3c
       0.12715259 0.092010245 -0.021918003 0.011358327
0002a0 34 6f 13 bf 8b b6 31 3e ca ae d1 3e f2 48 4f 3d
       -0.5759156 0.17354791 0.40953666 0.050606675
0002b0 f9 14 de 3c cd e5 2d 3d 96 b7 e8 3d 5d 91 99 3d
       0.02710961 0.042455483 0.11363141 0.07498429
0002c0 d7 c0 1c bb 2f 13 bc 3e 49 ff 19 bc 08 42 d7 3d
       -0.0023918652 0.36733386 -0.009399244 0.10510641
0002d0 35 ca 1c 3d 4b dd 3d bd 9b a4 0c bd 6f e3 19 3c
       0.038278777 -0.04635362 -0.034336668 0.009392603
0002e0 7d 76 68 3d 27 23 a2 3d ca 45 89 3d a3 9f f9 3d
       0.056753624 0.07916861 0.06702764 0.121886514
0002f0 3a 19 a4 3d ea c9 59 bd b2 39 d8 bd 2f f0 5a 3d
       0.08012624 -0.053171076 -0.105578795 0.053451713
000300 b1 c0 36 bd b7 b5 20 bd b7 51 75 be f5 ca 8c 3c
       -0.04461736 -0.039235797 -0.23956953 0.017186621
000310 aa ef 5b be a8 cd 1f 3e 73 e2 d2 bd 21 c9 a2 bc
       -0.21478143 0.15605795 -0.10297098 -0.019871296
000320 7a ad 07 3e 89 80 1f bd 0d ae be 3c 5c ee 03 be
       0.1324977 -0.03894094 0.023276353 -0.12883896
000330 12 86 0c bd 01 c3 92 bd d6 31 f0 3d 03 11 da 3c
       -0.034307547 -0.071661 0.117282555 0.02661944
000340 00 58 21 be 29 32 4e 3d 87 cf f6 3c 53 fc 0a 3e
       -0.15756226 0.050340805 0.030128254 0.13572817
000350 ae b6 9c 3d 19 ec 58 3d 8a 9b 4b 3c be 9c 24 3d
       0.07652031 0.052959535 0.01242722 0.040188543
000360 a6 4a 4b be 6f dc 58 be e4 06 12 3e 22 f5 bc 3d
       -0.19852695 -0.21177839 0.14260441 0.09226443
000370 c6 b7 d4 3d 7e 0b 3c 3d 47 c1 9f be d0 74 89 3d
       0.103866145 0.045909397 -0.31202146 0.06711733
000380 bd a5 bc 3d c7 c0 10 3e 0f df b8 3d 08 1f 7f 3d
       0.092112996 0.14136039 0.0902692 0.062285453
000390 dd 76 08 be e8 b5 3b bd 1f 98 a7 3d af d7 d3 bc
       -0.13326593 -0.045827776 0.08183312 -0.025859682
0003a0 ae 56 b5 bd 24 e9 ba bd 62 22 5f 3e cc 3b 2a 3d
       -0.088544235 -0.09126499 0.2179046 0.041560933
0003b0 90 6e 3d 3d 16 f9 0b 3e 9c d8 e2 3c c0 bc 11 be
       0.04624802 0.13669237 0.027691178 -0.14232159
0003c0 52 eb 71 bd f2 d4 fd bc 30 d7 a3 be 34 d8 4f bd
       -0.05906231 -0.03098533 -0.32000113 -0.050743297
0003d0 8f 4f 4a be c7 b0 2a 3e 63 42 83 bd 29 a0 f3 bc
       -0.19756912 0.16668998 -0.06409147 -0.029739456
0003e0 10 ca ee 3d 63 72 40 bd 70 96 6b 3c ca da b5 bd
       0.11659634 -0.046984088 0.014379129 -0.08879621
0003f0 e5 6f f2 bc 1b f4 cf bd d3 46 7a bc 70 69 b9 3d
       -0.029594371 -0.10153981 -0.015275675 0.09053314

transformer.ln_f.weight f4 [12]
000000 7b ab 8d 40 5e 46 d1 40 fd 8e 9c 40 00 0a 9b 40
       4.4271827 6.5398397 4.8924546 4.8449707
000010 ef 40 97 40 30 a7 a0 40 88 fd a0 40 17 80 c3 40
       4.7266765 5.0204086 5.0309486 6.109386
000020 cd 1d c4 40 3e 0c d6 40 f5 96 98 40 75 f8 8a 40
       6.128638 6.6889944 4.7684274 4.342829

lm_head.weight f4 [11, 12]
000000 53 09 c5 3d f2 01 20 bd 6c 1d 84 be 88 a4 f7 bd
       0.09620919 -0.039064355 -0.25803697 -0.12091929
000010 65 5c 49 bd d0 76 fb bd 6d e5 73 bc 1a 9c 48 be
       -0.04916038 -0.12278521 -0.014886242 -0.19590798
000020 b5 c2 7b 3d 5f 99 1a 3e 3d 0a 4f bc 63 68 4e 3e
       0.061464984 0.15097569 -0.012636718 0.20157008
000030 fa d0 ed 3d 79 50 93 bd 3b 4b d1 3e 7d e5 58 3e
       0.11612125 -0.07193083 0.4087771 0.21181293
000040 c5 a7 aa 3b 41 90 1a bd de c5 75 be 03 73 ab 3d
       0.005207988 -0.037735227 -0.24001262 0.08371546
000050 88 b4 85 be e2 bf c8 3d ea fd c5 3d ab da 68 3a
       -0.26114297 0.09802224 0.09667571 0.0008882682
000060 e5 a9 5d be c7 cf 62 bc 42 c4 13 3e 7e 6e b9 3d
       -0.21646841 -0.013843483 0.14430335 0.09054278
000070 d9 af 9f 3b 08 5a b9 3d 5f fe 82 bd 34 c9 87 be
       0.0048732576 0.09050375 -0.06396174 -0.26520693
000080 9d 9b f3 3d bb 60 b2 bd 9c c9 86 3e d4 4b aa bd
       0.11894915 -0.08709856 0.2632569 -0.08315244
000090 7d a7 13 bc 2e 1a 75 3e 24 dc 8c bd 2e 49 04 bd
       -0.0090121 0.23935768 -0.06877926 -0.032296352
0000a0 1a 56 a3 3d d0 9b 0f be f3 39 b6 bc b0 8a 08 3e
       0.07975407 -0.14024282 -0.02224443 0.13334155
0000b0 8a 0b 9d 3c f3 c4 f4 bd 62 fa 03 3e a9 d9 80 3e
       0.019170541 -0.119516276 0.12888482 0.25166062
0000c0 e6 00 7f bb 93 3f 14 be 8c 01 18 3e d2 9b 27 bd
       -0.0038910448 -0.14477377 0.1484434 -0.040920086
0000d0 6d c2 18 bd e0 61 97 bd d1 58 1d bd b3 d5 59 3e
       -0.037294794 -0.07391715 -0.03841478 0.21272926
0000e0 b9 3d b9 3e d5 c4 15 3e a5 12 85 3d c8 f6 8a bd
       0.36179903 0.14625867 0.06497697 -0.06785351
0000f0 e0 e3 9a 3d a0 21 2b 3d 59 aa ce 3e 03 e1 85 be
       0.07562995 0.041780114 0.4036434 -0.26148233
000100 f0 d6 14 be f0 4f c6 bd f9 22 f3 3d aa e1 aa bd
       -0.14535117 -0.096832156 0.11871905 -0.08343823
000110 c7 f2 95 bd d0 4f 3b 3d 78 63 00 be 65 47 89 3d
       -0.07321697 0.045730412 -0.12537944 0.067030706
000120 2b 4a fe 3d 2b 58 a3 bd 65 ad be bd 1e b4 f0 3d
       0.1241649 -0.07975801 -0.09310416 0.117531046
000130 87 76 36 bd 49 c1 00 be 3b 30 9e bb 77 b9 a3 bd
       -0.04454663 -0.12573732 -0.004827527 -0.07994359
000140 bf ba 50 bd 03 9a 4e 3e c9 9f b0 3d 38 68 80 3e
       -0.050959345 0.20175938 0.086242266 0.25079513
000150 0c f9 3d ba 03 87 88 be 9c 92 40 bc 2f a8 37 bd
       -0.00072468887 -0.26665506 -0.011753704 -0.044838127
000160 d8 b6 58 3c 3e f9 ea bd 69 5d 2f bd 69 1c f5 3c
       0.013227187 -0.114733204 -0.042813692 0.029920774
000170 1a 1b a0 bc 10 92 05 bf 17 75 1a bc 20 ad e5 3d
       -0.019544173 -0.52176 -0.00942733 0.112146616
000180 68 5e 05 3e 70 de 0c 3e 28 0b 9f 3d eb cb c1 3d
       0.13024294 0.13756728 0.077658 0.094627224
000190 05 3c 4e bd 5c 45 85 bd 33 52 82 be 3a 3d 91 be
       -0.050350208 -0.0650737 -0.25453338 -0.28367025
0001a0 03 0a 43 3e bb 0a 74 bd 7f 2d cf bd 3b e6 d2 bd
       0.19046788 -0.059580546 -0.101160996 -0.10297819
0001b0 50 b7 69 3d 65 0f ae bd c0 1f 7c bd 4b 4e 6a 3e
       0.057059586 -0.0849903 -0.061553717 0.22881429
0001c0 48 dc 32 be 00 21 1f 3e 1b fe 26 3e 72 46 57 3d
       -0.17466843 0.15539932 0.16307871 0.052557416
0001d0 c8 0b 57 bd ee ad 0f bd c9 7f 41 3d 64 94 33 be
       -0.05250147 -0.03507798 0.047241006 -0.17537075
0001e0 03 71 f8 be ba 43 4f 3f 38 9c 05 bf d8 d6 1f bf
       -0.4852372 0.8096272 -0.52191496 -0.624372
0001f0 2f 2e da 3f 84 67 11 40 b9 9f b7 3d 4f 3c 4b 3e
       1.7045344 2.271943 0.089660116 0.19847225
000200 9d 99 46 bf e5 68 93 3d bd 67 cc bf 1e af 41 bf
       -0.77578145 0.071977414 -1.5969158 -0.7565783

transformer.wte.weight f4 [11, 12]
000000 53 09 c5 3d f2 01 20 bd 6c 1d 84 be 88 a4 f7 bd
       0.09620919 -0.039064355 -0.25803697 -0.12091929
000010 65 5c 49 bd d0 76 fb bd 6d e5 73 bc 1a 9c 48 be
       -0.04916038 -0.12278521 -0.014886242 -0.19590798
000020 b5 c2 7b 3d 5f 99 1a 3e 3d 0a 4f bc 63 68 4e 3e
       0.061464984 0.15097569 -0.012636718 0.20157008
000030 fa d0 ed 3d 79 50 93 bd 3b 4b d1 3e 7d e5 58 3e
       0.11612125 -0.07193083 0.4087771 0.21181293
000040 c5 a7 aa 3b 41 90 1a bd de c5 75 be 03 73 ab 3d
       0.005207988 -0.037735227 -0.24001262 0.08371546
000050 88 b4 85 be e2 bf c8 3d ea fd c5 3d ab da 68 3a
       -0.26114297 0.09802224 0.09667571 0.0008882682
000060 e5 a9 5d be c7 cf 62 bc 42 c4 13 3e 7e 6e b9 3d
       -0.21646841 -0.013843483 0.14430335 0.09054278
000070 d9 af 9f 3b 08 5a b9 3d 5f fe 82 bd 34 c9 87 be
       0.0048732576 0.09050375 -0.06396174 -0.26520693
000080 9d 9b f3 3d bb 60 b2 bd 9c c9 86 3e d4 4b aa bd
       0.11894915 -0.08709856 0.2632569 -0.08315244
000090 7d a7 13 bc 2e 1a 75 3e 24 dc 8c bd 2e 49 04 bd
       -0.0090121 0.23935768 -0.06877926 -0.032296352
0000a0 1a 56 a3 3d d0 9b 0f be f3 39 b6 bc b0 8a 08 3e
       0.07975407 -0.14024282 -0.02224443 0.13334155
0000b0 8a 0b 9d 3c f3 c4 f4 bd 62 fa 03 3e a9 d9 80 3e
       0.019170541 -0.119516276 0.12888482 0.25166062
0000c0 e6 00 7f bb 93 3f 14 be 8c 01 18 3e d2 9b 27 bd
       -0.0038910448 -0.14477377 0.1484434 -0.040920086
0000d0 6d c2 18 bd e0 61 97 bd d1 58 1d bd b3 d5 59 3e
       -0.037294794 -0.07391715 -0.03841478 0.21272926
0000e0 b9 3d b9 3e d5 c4 15 3e a5 12 85 3d c8 f6 8a bd
       0.36179903 0.14625867 0.06497697 -0.06785351
0000f0 e0 e3 9a 3d a0 21 2b 3d 59 aa ce 3e 03 e1 85 be
       0.07562995 0.041780114 0.4036434 -0.26148233
000100 f0 d6 14 be f0 4f c6 bd f9 22 f3 3d aa e1 aa bd
       -0.14535117 -0.096832156 0.11871905 -0.08343823
000110 c7 f2 95 bd d0 4f 3b 3d 78 63 00 be 65 47 89 3d
       -0.07321697 0.045730412 -0.12537944 0.067030706
000120 2b 4a fe 3d 2b 58 a3 bd 65 ad be bd 1e b4 f0 3d
       0.1241649 -0.07975801 -0.09310416 0.117531046
000130 87 76 36 bd 49 c1 00 be 3b 30 9e bb 77 b9 a3 bd
       -0.04454663 -0.12573732 -0.004827527 -0.07994359
000140 bf ba 50 bd 03 9a 4e 3e c9 9f b0 3d 38 68 80 3e
       -0.050959345 0.20175938 0.086242266 0.25079513
000150 0c f9 3d ba 03 87 88 be 9c 92 40 bc 2f a8 37 bd
       -0.00072468887 -0.26665506 -0.011753704 -0.044838127
000160 d8 b6 58 3c 3e f9 ea bd 69 5d 2f bd 69 1c f5 3c
       0.013227187 -0.114733204 -0.042813692 0.029920774
000170 1a 1b a0 bc 10 92 05 bf 17 75 1a bc 20 ad e5 3d
       -0.019544173 -0.52176 -0.00942733 0.112146616
000180 68 5e 05 3e 70 de 0c 3e 28 0b 9f 3d eb cb c1 3d
       0.13024294 0.13756728 0.077658 0.094627224
000190 05 3c 4e bd 5c 45 85 bd 33 52 82 be 3a 3d 91 be
       -0.050350208 -0.0650737 -0.25453338 -0.28367025
0001a0 03 0a 43 3e bb 0a 74 bd 7f 2d cf bd 3b e6 d2 bd
       0.19046788 -0.059580546 -0.101160996 -0.10297819
0001b0 50 b7 69 3d 65 0f ae bd c0 1f 7c bd 4b 4e 6a 3e
       0.057059586 -0.0849903 -0.061553717 0.22881429
0001c0 48 dc 32 be 00 21 1f 3e 1b fe 26 3e 72 46 57 3d
       -0.17466843 0.15539932 0.16307871 0.052557416
0001d0 c8 0b 57 bd ee ad 0f bd c9 7f 41 3d 64 94 33 be
       -0.05250147 -0.03507798 0.047241006 -0.17537075
0001e0 03 71 f8 be ba 43 4f 3f 38 9c 05 bf d8 d6 1f bf
       -0.4852372 0.8096272 -0.52191496 -0.624372
0001f0 2f 2e da 3f 84 67 11 40 b9 9f b7 3d 4f 3c 4b 3e
       1.7045344 2.271943 0.089660116 0.19847225
000200 9d 99 46 bf e5 68 93 3d bd 67 cc bf 1e af 41 bf
       -0.77578145 0.071977414 -1.5969158 -0.7565783

transformer.wpe.weight f4 [10, 12]
000000 61 ce 0f bc 13 07 a4 3c 0c 01 16 bb d6 68 47 3d
       -0.008777232 0.020022905 -0.0022888808 0.048683964
000010 76 65 d9 b9 7b c7 c5 bd f9 52 06 bd 84 2d c2 bc
       -0.0004146506 -0.096571885 -0.032793973 -0.023703344
000020 37 02 c7 3b 94 cb cf 3c 89 36 a7 3c 59 20 89 3d
       0.006073262 0.025365628 0.020411747 0.06695623
000030 25 ec 06 3d 5e d2 3a 3d 20 c7 60 bd d8 ef cd bc
       0.03294005 0.045610778 -0.0548774 -0.02513878
000040 8a 88 cf bd 07 44 cd 3d bb 81 13 bc 29 5f c3 3c
       -0.10133465 0.10022741 -0.009003098 0.023849087
000050 ab 9d 01 bd bc 56 22 bc cf 58 8d 3c d2 e0 40 3d
       -0.031644505 -0.009908374 0.017254261 0.047089405
000060 66 e9 b8 3d 45 91 e1 3a 3d ea 49 bd 80 4e cc bd
       0.09028892 0.0017209431 -0.049295653 -0.0997591
000070 78 c9 0a 3d a9 d0 db 3c 55 99 ea 39 28 70 8b bc
       0.03388354 0.026832895 0.000447462 -0.017021254
000080 19 9b 6f bd 63 c5 1e bc 1a 81 a1 3d fd 92 05 bd
       -0.058497522 -0.009690615 0.07885952 -0.032610882
000090 04 72 49 3c a5 13 2f 3d fe c7 40 bd 98 d4 94 bc
       0.01229525 0.042743344 -0.047065727 -0.018167779
0000a0 d8 ca c7 bd dc d9 a7 3d a5 93 ae bb 78 ad c0 3c
       -0.09755486 0.0819585 -0.005327659 0.023520216
0000b0 a3 ee cb bc e0 d4 1c bc b7 a5 ab 3b 19 ba 68 3d
       -0.024894064 -0.009572238 0.0052382606 0.0568181
0000c0 a5 71 9e 3d ee 6b 5d 3a bf 11 48 bd e2 17 b1 bd
       0.0773652 0.0008446564 -0.04884505 -0.086471334
0000d0 12 70 17 3d 2b 29 07 3b fe e5 8c 3b 68 40 ac bc
       0.036972113 0.0020623903 0.004299878 -0.021026805
0000e0 ed 06 63 bd 7e c7 cf bb 3c 02 77 3d d2 d0 e9 bc
       -0.055426527 -0.00634092 0.060304865 -0.028541956
0000f0 07 35 8f bc 47 34 40 3d 7c fe 11 bd 4e 1a 55 bc
       -0.01748134 0.046924856 -0.035643086 -0.01300676
000100 92 95 90 bd ba 36 8a 3d 1d 0d 95 bb b4 88 98 3c
       -0.07059778 0.067487195 -0.0045486824 0.018619873
000110 d7 22 28 bc 34 b2 47 3b 4a 03 10 bc c4 cb 99 3d
       -0.010262213 0.0030471208 -0.008789847 0.07509568
000120 67 99 23 3d d1 f9 a5 3a fd 1d 2e bd d5 81 b5 bd
       0.039941218 0.0012662952 -0.042509068 -0.08862654
000130 ba 66 6d 3d de 4b b1 bc 92 64 23 3b da ed d8 bc
       0.057959296 -0.021642622 0.002493177 -0.026480604
000140 f0 3f 39 bd c0 c0 5a 3b 68 c9 2a 3d b7 7d 95 bc
       -0.04522699 0.0033379048 0.041695982 -0.018248422
000150 db d5 26 bd a9 e0 5c 3d 48 b5 ae bc 92 9f 58 3b
       -0.040731292 0.05392519 -0.021326676 0.0033054096
000160 77 60 52 bd 38 a7 60 3d 96 0d bd 3a f1 e0 05 3d
       -0.051361527 0.054846972 0.0014423605 0.032685224
000170 c8 c4 a9 3b c5 02 82 3c 30 e8 6b bc 89 3d 9b 3d
       0.005180929 0.015870461 -0.0143986195 0.07580096
000180 af d4 99 3c 28 63 3b 3c 6c 64 c5 bc 42 b0 93 bd
       0.018778173 0.011437215 -0.024095736 -0.07211353
000190 fa b0 9a 3d a2 38 bb bc cd a8 af 3b 0f a7 72 bb
       0.07553287 -0.022854153 0.005360699 -0.0037025844
0001a0 3a 6b c5 bc fd 24 6f 3c 61 34 de 3c a5 fd d7 bc
       -0.024098981 0.014596221 0.027124586 -0.026366064
0001b0 2b df f7 be 04 82 88 3f e8 a9 eb be 90 ac 44 bf
       -0.4841245 1.0664678 -0.46028066 -0.7682581
0001c0 d1 2c 53 3f 7c b9 81 3f f8 d0 d8 be f3 03 25 3e
       0.8249026 1.013473 -0.4234693 0.16114788
0001d0 13 24 13 3c 5c 0d 5a bf 3c 59 e9 be 83 63 66 3e
       0.008980769 -0.85176635 -0.45575893 0.22498898

transformer.h.0.ln_1.weight f4 [12]
000000 83 00 e3 3f 9e 8d d3 3f d6 05 e0 3f f3 e5 c3 3f
       1.7734531 1.6527593 1.7501781 1.530455
000010 31 97 fe 3f 2e e9 f4 3f 95 36 e2 3f 2f db f3 3f
       1.988989 1.9133661 1.7672907 1.9051265
000020 a5 c5 f0 3f 05 31 01 40 68 08 da 3f 86 d8 da 3f
       1.8810316 2.018617 1.7033815 1.7097328
