mnk_transformer/probing_checkpoints_2head/ckpt4.pt (torch, 13666 bytes, 20 tensors)

transformer.wte.weight f4 [11, 12]
00000000: 1a7d a739 9228 37bd 6002 16bd 0aee 01be
00000010: cf5b feb9 2a31 14bd bd96 f2bc 8a42 35bd
00000020: f3ec 5fbc d161 063e 05c3 4c3d 7562 ed3d
00000030: b39d eebc 5a37 82bc 7406 a03d b3f8 913d
00000040: 9b23 fdbb 28e0 c63c 85fb eabd fab0 f43c
00000050: ea2d 02be 0107 c93c cab3 e03d 613c 4cbd
00000060: ca47 1fbe beea 46bd c7d6 9e3c b40b 143d
00000070: 8272 a8bc 8e1d 133d 481e 78bc 6097 bebd
00000080: 05f4 be3d 19f5 41bc 9c8b 503d 68f2 f3bb
00000090: 7449 c8bd 6fe5 ef3d 817e 9d3b b37e 1fbc
000000a0: d02b 753c 7ab2 23bd 8b3b c23c 623d 733d
000000b0: a892 e4bc a6d5 1bbe 2b64 583d 9195 da3d
000000c0: 02e7 ccbc bc66 38bd dc65 46bd 477c c3bc
000000d0: c85c c8bc b596 c3bc 33f8 bdbc d7c6 2e3e
000000e0: 88de 983d f0a9 933c 7a60 c5bb 5f24 f5bc
000000f0: 939f d0bc dbdf d5bc 6aef 4a3e f1e9 8dbd
00000100: c94b eebc 849b b9bd e610 623d c69d 723c
00000110: 74c8 8ebc 8323 3fbb 69c5 673a 2adb 29bd
00000120: 264b dbb9 a661 0bbd 41e1 24bd bc15 1f3e
00000130: b0ab 73bd e684 f4bd 25dc 8d3d 9f84 9cbb
00000140: e65e 58bc 45e7 8d3d 1c44 823c 7ff7 863d
00000150: 512c 933d 8be5 0bbe d1e3 403c 35e7 ca3c
00000160: 643f 16bd 10f5 823c e955 133c 428d e2bc
00000170: 46a2 3fbb 94da 0bbe 6f8b 253d 29d8 973d
00000180: da41 923d 30eb 903d 2bd2 2f3d 0d0f 363d
00000190: a42a 73bb 0e16 74bd 06d3 ecbd ffb6 95bd
000001a0: 9c12 043e 9f37 1abc b23d 60bc c43e 8abb
000001b0: 1715 083d 6f9b 943d a043 28bd 7207 5bbc
000001c0: da9e e6bd 09d8 cb3d ed97 1c3e a5f1 acbc
000001d0: c62d 57bc 7fb1 5b3c 8d20 e8bc e473 15bd
000001e0: 18a7 d63d aa92 af3e dd92 70be 5709 b83d
000001f0: 278e a03f a1be 933f a70e 223f 7ac9 b4be
00000200: 46bd 42bf b0e7 2f3e f9cc 06c0 b6f7 cebe
0.0003194593 -0.044716425 -0.03662336 -0.12688461 -0.00048515058 -0.0361797 -0.029612893 -0.04425291
-0.013667333 0.13123251 0.049990673 0.11591045 -0.029127931 -0.015895534 0.07813731 0.07127514
-0.007725192 0.024276808 -0.11473755 0.029869545 -0.12712827 0.024539473 0.10971792 -0.04986227
-0.15554729 -0.04856371 0.019389523 0.036143973 -0.020562414 0.035916857 -0.015143938 -0.09306216
0.09323887 -0.011838221 0.050914392 -0.0074446686 -0.09779635 0.11713683 0.00480634 -0.009734797
0.014964059 -0.03996513 0.023710033 0.05938471 -0.027901962 -0.15218219 0.052829903 0.10673059
-0.025012497 -0.04501985 -0.048436984 -0.023862971 -0.024458304 -0.023875574 -0.02318964 0.17068039
0.074643195 0.018025368 -0.006023464 -0.02992457 -0.025466716 -0.02610772 0.19817892 -0.069293864
-0.029088872 -0.090628654 0.055191897 0.014808124 -0.017429568 -0.0029165454 0.0008841367 -0.041468777
-0.00041826925 -0.03402867 -0.04025388 0.15535635 -0.059489906 -0.11939411 0.06926755 -0.004776552
-0.013206219 0.06928877 0.015901618 0.06590175 0.07186187 -0.13661782 0.011773066 0.024768451
-0.036681548 0.015985996 0.008992651 -0.027655248 -0.002924101 -0.136576 0.040416177 0.07414276
0.071414664 0.070761085 0.04292504 0.044447947 -0.0037104273 -0.059591345 -0.11563687 -0.07310294
0.12897724 -0.009412675 -0.013686584 -0.004218908 0.033223238 0.07256209 -0.041080117 -0.013368474
-0.11260767 0.09953315 0.1529233 -0.021111319 -0.013133472 0.013409018 -0.028335834 -0.036487475
0.10481089 0.34291583 -0.23493524 0.089861564 1.2543381 1.154255 0.6330361 -0.35309964
-0.7607006 0.17178226 -2.1062605 -0.40423363

transformer.wpe.weight f4 [10, 12]
00000000: 7a7e 913b f0c4 fe3b 57ba a8bc 8630 633c
00000010: 871e b13c ed07 1bbd 5c66 f63d f44e 8abc
00000020: 3c51 30b9 a5d8 aebb e879 d63d 6eda 06bb
00000030: ef9b 043c b995 2d3c f0e9 07ba 648e 96bc
00000040: 5e76 dfbd ad93 5e3b b32a 91bc 1286 1c3c
00000050: 0d77 5c3c 5109 0c3c 1df6 973d d784 c8bb
00000060: 1e8c cdbb 5dc1 f1bc d962 bbba 9c1a f6b9
00000070: 6831 803b fa36 5cbd a261 a5bc e8ab 213c
00000080: 3f68 a33c 585b aeb6 0cfc bd3d a5ea 5ebc
00000090: f318 52bb 2f49 573b e8fa be3b d65e eabb
000000a0: 70ff a8bd c83d 383c 1eeb cebc dbf5 533c
000000b0: bbcc b13b 575f 5c3c 6e59 103d 01d0 843b
000000c0: 7c3d 76bc 623b eebc a566 ca3b b6c4 b53b
000000d0: 97dd 9d3c f24a 19bd 71e3 d2bc 5580 563c
000000e0: 0b60 323c 6101 973b c291 703d 6539 a4ba
000000f0: 65c6 0abc c818 323b 7f9c 2d3c 2124 b239
00000100: e8b1 7abd c2c9 bf3c bed3 e7bc 47cb 753c
00000110: 47d8 46bb e65d 8e3c 3fce df3b 5c1e 833c
00000120: 36ed afbc 000c e5bc e8d1 313c e64e 2c3c
00000130: 1d74 083d 5410 c9bc 9f3a efbc cdda 6e3c
00000140: 1873 ae3b 53bd e33b e577 f63c 559c 0d3c
00000150: 5379 5cbc c6ce cf39 2f7d 5a3c f240 bd39
00000160: a631 50bd 1658 dd3c 601b adbc 7912 343c
00000170: 1315 503a 88ca 7d3c 667a a9bc 68f3 b83c
00000180: d989 c9bc 5c89 e5bc c67a 343c f0e6 fe3b
00000190: b294 2e3d ca43 91bc bbbe aabc 08de 393c
000001a0: d158 883b 8847 9b3a 58d2 563b c7f7 313c
000001b0: b7eb 1f3d 2370 6bbb 306f 523d a5ef b3bd
000001c0: 736c 0a3d 27cb c23d ab8e 06bd 622f 0dbd
000001d0: a832 a93c b210 cebc 0f1e 89bd f4c6 8fbd
0.004440126 0.0077749416 -0.020596666 0.013866549 0.021621002 -0.037849355 0.12031242 -0.01688335
-0.0001681493 -0.0053358846 0.104724705 -0.0020576972 0.008093818 0.010594779 -0.0005184701 -0.018378444
-0.109112486 0.0033962533 -0.017720556 0.009553449 0.013456118 0.008547143 0.07419989 -0.0061193514
-0.006272807 -0.029511148 -0.0014296427 -0.00046940602 0.0039121397 -0.053763367 -0.020188157 0.009867646
0.01994717 -5.196238e-06 0.0927659 -0.013605748 -0.0032058328 0.0032850017 0.00582825 -0.0071524186
-0.08251846 0.011245199 -0.025258597 0.0129370345 0.005426017 0.013450465 0.035241537 0.0040531163
-0.015029307 -0.02908105 0.006176787 0.0055471314 0.019270701 -0.03742499 -0.025743218 0.01309212
0.010887156 0.0046083187 0.058732755 -0.0012529312 -0.0084701525 0.0027175415 0.010596394 0.00033977724
-0.06120482 0.023411635 -0.028299209 0.015002078 -0.0030341314 0.017378759 0.0068300064 0.016005687
-0.021475416 -0.027959824 0.010853268 0.010516858 0.03331386 -0.024543919 -0.029202757 0.014578533
0.005323779 0.0069500594 0.030086467 0.0086432295 -0.01345666 0.00039636175 0.01333551 0.00036097277
-0.0508286 0.027019542 -0.021131217 0.010990732 0.00079377106 0.015490182 -0.020688247 0.022577003
-0.024601864 -0.0280196 0.0110156 0.0077789947 0.042622276 -0.01773252 -0.0208429 0.01134444
0.0041609784 0.001184688 0.0032779183 0.010862297 0.039043155 -0.0035924993 0.051375568 -0.08785943
0.03379483 0.095114045 -0.032850903 -0.034469016 0.020654038 -0.025154445 -0.06695186 -0.07020369

transformer.h.0.ln_1.weight f4 [12]
00000000: 7cd5 2740 fdb0 4240 5fed 3e40 67ba 2940
00000010: 63d9 6140 33df 4b40 8a2b 2040 5cd0 4540
00000020: 0228 4640 635c 5840 4910 3240 dec2 5840
2.622405 3.0420525 2.983238 2.652002 3.5288932 3.185498 2.5026574 3.0908422
3.096192 3.3806388 2.782244 3.3868937

transformer.h.0.attn.c_attn.weight f4 [36, 12]
00000000: 7fc0 313d cfaf b2bd 80f0 6c3d 3914 bc3d
00000010: c035 bbbd 6dce 3a3e 2d66 d3bd 6510 623a
00000020: 0be6 3abc adcd 03be a2e2 093d 3452 983d
00000030: 1060 f53d e573 11be fac2 6ebd a89b 0ebe
00000040: ed01 a5bd 7259 b1bb c29a 293d 0df3 88bd
00000050: 5f5f 073e f686 58bd 499d 3b3e 9b42 983d
00000060: af93 e1bc a8c8 5f3c cacb 24bd 0882 413c
00000070: 9cee 74be 0ead b23d 31a7 1abe b57e 303d
00000080: 26c4 473e 9619 dd3d 3196 85be 0027 903d
00000090: 3446 61bd 2c1e b0be df21 cebd 926e 183e
000000a0: 66e9 6c3f 1863 76be d0b5 c4bd be8e 913d
000000b0: 4662 b43d 541d 84bd 00d8 433d 3219 60bd
000000c0: 7818 bb3d af64 4cbc 7366 783c cfa3 663c
000000d0: 52a6 9dbd 4154 b73d 1944 163e f54f c1bd
000000e0: 1eb0 d23d eb23 a6bd cfbb 85bc 4462 4fbe
000000f0: 6f0a 04be 52a6 0e3e bbc2 803c 77e3 38be
00000100: 684a b1bd 4e8c e03d 4462 40bd f253 b13d
00000110: d731 c23c 9703 37bc 15b7 353e e668 e3bc
00000120: 0479 66bd 693e 443d f412 b7bc afbe 88bb
00000130: 94de 81bd 7ed2 fbbc b990 1f3d e0da ce3c
00000140: 5825 6abc db2a cf3c b48f e33d 0125 92bd
00000150: 6c34 263d 061c 3ebd 5727 21bc d4eb a83d
00000160: e7e8 bf3c c4a0 633d 46c0 48bd aa7a c53d
00000170: 785e 9cbb 261a 1fbd dd7c 48bd 45c5 95bd
00000180: 567e 8cbd 657f 09bd 9915 97bd a257 65bd
00000190: 0cc3 1a3c 357d df3a 504a fd3d 16ff 443d
000001a0: 5ed2 f33c e0dc 66bc 745c 9cbd 5f88 e83b
000001b0: 4260 f4ba 6ffd 14bd 349e de3c f95a 393c
000001c0: 957f bbbd c2be b8bd 8970 f2b9 5f09 583d
000001d0: fd74 1c3e bc3d 57bd d061 173d ac24 193d
000001e0: da29 a13c 09a9 dfbc f49b 813c 44a0 653d
000001f0: 69a1 4bbd 2ee3 713a 66b3 e43d a8d0 65bd
00000200: f265 8abc 4b61 5dbd ba1a 903d 667b f5bc
00000210: 7056 36bd af2b edbd af88 8d3c 26ea 2fbd
00000220: 402d b53a f542 4a3d 6eca 343c 438e 693d
00000230: 9374 81bd 539d 9e3c 20f8 493d 7353 ac3d
00000240: 1e4a 573e d92f 0bbe fd86 44bd 3a12 ab3d
00000250: 4867 43be cdb7 033e 016c f0bd 0bab ec3d
00000260: c29e 4cbd 102b e33d aa09 a8bc 76f7 11bd
00000270: 5dc7 8a3c 7a8d 2d3e dcee e9bd 8bf8 4c3e
00000280: 4d9f 52bd 5eab 10bb f493 00bc 8b72 45bd
00000290: fc25 b6bd 8073 143d c1a7 c4bc a77d 95bd
000002a0: 3fe7 c1bc f028 023d 0bd2 6c3d d805 263c
000002b0: 39f7 24be 962c b63c 63b9 cbbd f327 74bd
000002c0: ac4a 4cbc 6d90 ba3d 82c6 1b3d 24db 1f3e
000002d0: 2049 c63c 11cf 0abe 1f0b 85bd 831b 203d
000002e0: 28ff cb3e 7fbd 54be 6ef9 293d eb4f c8bc
000002f0: 02d2 8f3b b06c 173c d851 113e 4350 b0bd
00000300: 426b 2d3e 9f74 b43d 81c0 8dbd cd7e e3bd
00000310: f078 06bc 327f e9bc dcbd 633c f59a 28bd
00000320: 5c98 043d 164d 2b3d a1d7 7dbe f1f5 8fbd
00000330: 6cbf 11be 162f ce3c 81e7 913d 0b9f 1fbd
00000340: 1279 80be caf4 173d 5ae9 4e3e 7626 533d
00000350: b42b 3bbe f32a bf3d 4ab1 c2bd 9dca a23b
00000360: 12cc 94bd aa19 a03d a3dd 8bbd 526a 72bc
00000370: 878b 643b 22f7 923c 797b e23d 52ae 213d
00000380: 2565 aabd 2ce8 1d3d 1ceb a13d 2606 14be
00000390: f821 a8bb 3c8a 31bd 092a 053d 8919 bc3d
000003a0: 85ef 73bc 54f8 b73c ac30 85bd fafd 003e
000003b0: 46ed c73c 7062 00bd 7375 08bb be48 11bd
000003c0: a9fd b8bd f315 debc 06f8 82bc 1dd8 fe3b
000003d0: 976f ddbc b53c 3bbd 753d 1c3d e3f9 d43d
000003e0: 8025 c43c 5f2b 04bc 3996 76bd e3e0 683d
000003f0: bc36 853d ae2c 04bd 21e5 17bd d626 8cbd
0.04339647 -0.08724939 0.057846546 0.09183545 -0.091411114 0.18242808 -0.10322223 0.0008623659
-0.011407386 -0.12871428 0.0336634 0.07437554 0.11981213 -0.14204367 -0.058291413 -0.13926566
-0.08057008 -0.005412274 0.041407354 -0.06686983 0.13219975 -0.052863084 0.18321718 0.07434579
-0.027536241 0.01365868 -0.04023341 0.011810787 -0.23919147 0.08724414 -0.15102841 0.043089587
0.19508418 0.10795896 -0.2609115 0.07038689 -0.05499859 -0.3439802 -0.10065054 0.14885929
0.9254364 -0.24061239 -0.096049905 0.07107304 0.08807807 -0.064509064 0.047813416 -0.054711528
0.091355264 -0.012475177 0.015161145 0.014077141 -0.07697739 0.08951617 0.14674415 -0.09439079
0.10287498 -0.081123196 -0.016324906 -0.20252329 -0.12894605 0.13930634 0.015717855 -0.18055521
-0.0865677 0.10964261 -0.046968713 0.086585894 0.023705406 -0.0111702895 0.17745622 -0.02775998
-0.056267753 0.04791108 -0.022347905 -0.004173122 -0.063412815 -0.030740019 0.038956378 0.025250852
-0.01429113 0.02528899 0.111113936 -0.07135964 0.040577337 -0.046413444 -0.0098360395 0.08248106
0.023426486 0.05557324 -0.04901149 0.09642537 -0.0047720037 -0.038843296 -0.048947204 -0.07313017
-0.06860034 -0.03356876 -0.07377166 -0.055991776 0.009445917 0.0017050864 0.123676896 0.04809483
0.029763397 -0.014090747 -0.076348215 0.007096335 -0.001864441 -0.036374506 0.027175047 0.0113131935
-0.09155194 -0.09020759 -0.00046241682 0.052743312 0.15279002 -0.05254911 0.036958516 0.03738849
0.019673277 -0.027302282 0.015821435 0.056061044 -0.04971448 0.0009227273 0.1116703 -0.056107193
-0.016894314 -0.054047864 0.07036348 -0.029966068 -0.044516027 -0.115805976 0.01727709 -0.04294791
0.001382269 0.04938026 0.011034591 0.057020437 -0.06321063 0.019362127 0.049308896 0.08414354
0.21024367 -0.13592471 -0.047980297 0.08353086 -0.19082367 0.12863083 -0.1173935 0.11556061
-0.04995609 0.11092198 -0.02051242 -0.035636388 0.016940767 0.169485 -0.11422512 0.20016687
-0.051421452 -0.00220748 -0.007847775 -0.04820494 -0.08893964 0.036242962 -0.024005773 -0.07299357
-0.023669837 0.031777322 0.0578175 0.010133229 -0.16109933 0.022238057 -0.09947469 -0.05960841
-0.012468975 0.09109578 0.03803111 0.1561094 0.02420479 -0.13555552 -0.06496262 0.039088737
0.39843106 -0.20775412 0.04149764 -0.02445217 0.0043890486 0.009242222 0.14191377 -0.08609059
0.16935447 0.08811306 -0.06921483 -0.1110817 -0.008207545 -0.028503034 0.0139002465 -0.041163404
0.032371864 0.04182156 -0.24789287 -0.070293315 -0.14233178 0.025168937 0.07124234 -0.038970035
-0.2509237 0.037098683 0.20206204 0.05155035 -0.1827839 0.09334364 -0.095064715 0.004968001
-0.07265486 0.07817395 -0.06829383 -0.014795857 0.0034873204 0.017940108 0.11058707 0.039472885
-0.08320073 0.038551494 0.07906172 -0.1445547 -0.0051310025 -0.04334472 0.03251079 0.09184558
-0.014888649 0.02245728 -0.06503424 0.12596884 0.024405133 -0.031343877 -0.0020821958 -0.035469763
-0.09032757 -0.027110076 -0.015987407 0.0077772276 -0.02703075 -0.04571219 0.038144547 0.103992246
0.023943663 -0.008066981 -0.060201857 0.056855094 0.065045804 -0.032269172 -0.03708375 -0.06843345

transformer.h.0.attn.c_proj.weight f4 [12, 12]
00000000: b195 533d 9064 d1bc 23f2 14bd 75ad 23bd
00000010: 26a8 643d 78cb 8bbb 2deb ba3c 03ad f5bd
00000020: e927 fa3d a421 7fbd 52fc 71bc 026d 363e
00000030: 4f48 a73d ed29 223d e7ab e93c 77f3 193d
00000040: 2450 903c 95bc 2cbb 4567 b13c e8ae 223e
00000050: acd1 d13d 72b3 8b3d c25e 04bd 142b d03d
00000060: 4d77 103c ee3b cfbd 2988 4e3c 2aa4 e5ba
00000070: 0a2d 83bb 1fd9 c6bc 5705 08be 88cf 383d
00000080: eb3c 343c c3ad 44bb 8ad0 ed3c c50b be3d
00000090: 97cd 15bd a4d6 823d be5b 74bb f319 38bc
000000a0: efb2 123d 0d7e bf3d 2fcc b7bd aead b23c
000000b0: 1af0 d93c 6b34 cb3d 2103 7d3d 951f 3d3b
000000c0: 046d 09be fc40 85bd 16a3 28bd 9bed 6e3d
000000d0: 269a 21bd d783 993d 6a58 c03d 178c 413c
000000e0: 831e f8bc a089 86bd 91de dcbd 4a78 813c
000000f0: 8e98 943c b9c4 393d 6d6d 863d 00e4 a1bd
00000100: fece a1bd 7251 28bd 3269 6fbd 43a7 25be
00000110: f7f1 9e3c 6fe4 e83c 4450 903c 2328 37bd
00000120: 82e0 55bb db11 93bc 8e49 603c 63ed 933d
00000130: b591 743d 59ab 55bd 4c37 d5bd 1586 e5bd
00000140: d431 b0bd 1b48 203d 0055 5fbd e1f2 28be
00000150: 2df3 1e3d 1984 1abd 0d88 21bd 5f21 eebc
00000160: b7c7 e53c 6c9a a13c 439a e03d 551d acbd
00000170: d079 2ebd 200b 7d3d c707 f03d 995f 30be
00000180: f944 7bbd defc a63c b63a 0c3d 1e43 eb3c
00000190: d6b9 6fbd 3983 a8bd 73a7 c63d bfd1 89bc
000001a0: 7cb1 b2bd 8e00 c03d 0660 373d 9a93 773e
000001b0: 167e 80bc 987a b0bb bb11 ee3a 90df 29bd
000001c0: 8ac5 963c 0fce eab9 0574 d73c 391f 613e
000001d0: 1bfd 0fbd 5e01 863b b102 a5bd de25 04be
000001e0: bbf0 f8bc 05dc ec3b 59d9 eebc 4544 233d
000001f0: 8f1e 0fbd 6220 02bb ce98 f4bc 7c91 9d3c
00000200: 8015 493e a496 11be af8f ff3c 9fc5 fabd
00000210: ff2a 6f3d bb42 843d e50a 0bbc f80c 0cba
00000220: d5e5 e53c ba64 363d 7153 87bc 2740 68bd
00000230: 9626 54be a024 18be b8b8 b6bd b1ce 293d
0.05165643 -0.025560647 -0.036363732 -0.039960343 0.05582442 -0.0042661987 0.022817219 -0.1199589
0.122146435 -0.06228794 -0.0147696305 0.1781502 0.08168089 0.039590765 0.028524352 0.0375857
0.017616339 -0.002635752 0.021655688 0.15887034 0.1024507 0.06821336 -0.03231693 0.101644665
0.008817506 -0.101188526 0.012605705 -0.0017520238 -0.004003172 -0.024273453 -0.13283287 0.045119792
0.011000852 -0.0030010797 0.029030103 0.092795886 -0.03657302 0.06388596 -0.0037286128 -0.0112366555
0.035815176 0.09350214 -0.08974492 0.021811333 0.026603747 0.09922107 0.061770562 0.0028857936
-0.13420492 -0.065065354 -0.041171156 0.058332067 -0.039453648 0.074958496 0.09391864 0.011813185
-0.030287987 -0.06569219 -0.10784639 0.015804429 0.01813915 0.045353625 0.0656384 -0.07904816
-0.07900809 -0.041093297 -0.05844993 -0.16177087 0.019402487 0.028429238 0.017616399 -0.04471601
-0.0032635038 -0.01795285 0.013689412 0.07223012 0.05970927 -0.052165363 -0.10410938 -0.11207215
-0.08603254 0.039131265 -0.05452442 -0.16498901 0.03880613 -0.037723634 -0.03943639 -0.029068647
0.028049333 0.019726954 0.10966923 -0.08404032 -0.04259664 0.061778188 0.117202334 -0.17223968
-0.061345074 0.020384248 0.03423568 0.028718527 -0.058526836 -0.08228154 0.09699907 -0.016823648
-0.08725259 0.09375106 0.04476931 0.241774 -0.015685122 -0.005385708 0.0018163243 -0.04147297
0.01840474 -0.00044785484 0.02630044 0.21984567 -0.03515349 0.0040895185 -0.08057154 -0.1290507
-0.030388227 0.007228377 -0.029156374 0.03986003 -0.034941252 -0.0019855727 -0.02985802 0.019234411
0.19637108 -0.14217621 0.031196443 -0.122447245 0.058390614 0.0645804 -0.008486484 -0.00053425087
0.028063694 0.044529654 -0.01651928 -0.056701805 -0.20717844 -0.14857721 -0.08921951 0.041456882

transformer.h.0.ln_2.weight f4 [12]
00000000: 485f c440 5d6e aa40 45de 8340 4d24 a740
00000010: 7a30 9b40 f7ab ae40 8756 b340 2cb2 7740
00000020: 3914 9440 6ff2 bb40 0fa8 cb40 6983 c240
6.136631 5.325972 4.1208825 5.2231812 4.8496675 5.458492 5.6043124 3.8702497
4.6274686 5.873344 6.364265 6.0785413

transformer.h.0.mlp.c_fc.weight f4 [48, 12]
00000000: 96e4 22bd 9688 ec3d c68d 17bd e18c 39bd
00000010: 16f1 0c3d 34fa 14bc 819c dd3a f252 323d
00000020: cc62 8fbc 9ac5 1fbd 8962 6cbb 11ea 463c
00000030: f32d a03d 6983 57bd 0a15 083e 2dac 863d
00000040: d5de da3b 9cba 033d 587e 003d a60d 8dbe
00000050: 821b 2bbd 7b38 cf3d dc0b caba 86cb 903b
00000060: 5595 3bbd 288f b83d 5ac4 7dbe 5975 103e
00000070: 5df6 333d 3be9 2d3e ccad 94bd cc3d 96bd
00000080: 7664 dfbc 9dfe c1bc 4952 e13b 75bb 6f3d
00000090: d827 55be fd8c 36be 1acd 933d 7cf3 ba3c
000000a0: baeb a0bd 7fee f03d 1f3d 5e3e b6ce 533e
000000b0: 1f56 1cbe d06a 893d cbd0 a63d 0510 e03d
000000c0: c8da 173c 6832 65bc 2de0 afbd 3a3e 74be
000000d0: a2b1 863d d20f dfbb f506 4bbd 45e5 d7bd
000000e0: 933e 5cbd 09c7 0e3e 9723 693d 374d 123e
000000f0: 8fcf cfbb 4bcf c1bc 50eb 5ebb baef 5f3d
00000100: 1c74 10bc aa44 7abd 802c 2f35 929b 00bc
00000110: c3dd 8d3c c29a bebc a8ae 293d 69c7 ae3b
00000120: 237a b9bc 64dd 31ba 8715 9bbd 31c0 dc3c
00000130: 91cb 033d 0656 ea3c 3730 983c d6f2 abbd
00000140: 9c8a 3d3d bbad 3cbc a2ec 00ba 66fd 9139
00000150: eec3 a2bc fa70 9bbc ab20 04bd 5303 843a
00000160: 19e8 1a3d a99e 163d 341f 9e3d 5507 933c
00000170: ccdb 85bd 8da4 a03c 0719 49ba 1764 96bb
00000180: cc79 6f3d 8e1e dabc 730d 0c3d 5d33 52bd
00000190: a0c7 933d d7f7 c9bc e22a f53c 339b aabc
000001a0: 01b2 febc 42bb 123d a8fb 30bd 5303 07bd
000001b0: 655a d53c fa5e 7a3d c099 9336 035b 633e
000001c0: 3a9b 0bbd dfa8 c23d 2d6d d73d d0a3 fe3c
000001d0: fd3a e2bb da8d 07be 93ba 1ebe 47bd 79be
000001e0: 4b42 19be c5de c3bd 22a1 acbc 660d b53c
000001f0: 7ea9 2d3d e0be 6d3e 4c99 9d3e 5bb3 073e
00000200: c2e6 71be 9c38 c83d de26 d0bc 8283 cc3c
00000210: 4a5c 97bc fabd 00be f425 8d3d 655c 103e
00000220: 7547 8b3e 65b1 13be a54d 273d 0709 4ebd
00000230: 4d98 07bd e5b6 a2bd d41f 64bc e122 d9bd
00000240: 76d5 cabd c3d7 2c3d b67e 7c3d 2299 b33c
00000250: 6dee 87bd 71cc 8abd 73cd 4bbd b370 8f3d
00000260: 3ced 493d 39f1 893b c898 203d 8199 1c3d
00000270: 7442 c2bc 7c2b a03d 5116 563b d7fa 77bb
00000280: e4b7 16bc 06cf 103d 21ac 043d 1922 c53c
00000290: 0b00 b2bc 37d1 abbb 0060 26bd 3dce ac3a
000002a0: d085 b13d 33c8 f6bd 275f 543c 19ad 873c
000002b0: a768 70b9 27f0 2f3d 709f e43c 1e6d a9bc
000002c0: 0854 203c d603 d7bd d557 163d d95a 543d
000002d0: 5170 663d 768c 3c3d 2685 3bba 9584 353b
000002e0: 41ba 053d 761a 2cbd 5cf1 68bd a301 1bbd
000002f0: e4d9 613d 906a 9bbc 08fc 8f3b b8d9 7cbc
00000300: d41c 133c 2b4d 0b3d be79 32be 32d0 59be
00000310: e3f4 d5bc e7b2 6d3c de84 4b3e d22e 24be
00000320: 99fd 253e 7e44 b2b9 dbc3 7c3d 1415 03be
00000330: 8085 e73c c351 583d dace 6bbd 5bab cbba
00000340: d6d0 6b3d 02c9 993c b6bf 133d 2c8f 153c
00000350: 0d9e a7bc 944c d1bd 2f87 393c e5d4 bfbb
00000360: c0c4 ee3d 59ea 2dbd 5779 23be 274b bd3d
00000370: 99bc 0fbb 163a 8dbc 3c56 753d cfed 8bbd
00000380: 8a4b aebc dd9c 9d3d ae61 34bd 419c 3ebd
00000390: 2852 c13c 722b a73d 923f 983c be6a 883e
000003a0: 3bf0 4abd 4d86 063e 6343 e43d 6266 a33d
000003b0: dfa2 16bc 4dc4 27be aad6 4abe 70d7 99be
000003c0: 62c5 653d 809a 923c 1f4a b1bd 952d 5ebd
000003d0: fd4f 753d 1347 8e3c 5c2e e8bb 642f 17bd
000003e0: 07d8 d1bc 2682 4abb 200d 5a3c 9946 99bc
000003f0: a83c fbbc 42b3 723c cd2e ff3d b2bf 783e
-0.039768778 0.11549489 -0.03700044 -0.04530037 0.034409605 -0.009092856 0.0016907604 0.043536134
-0.017503165 -0.039006807 -0.0036069474 0.012140767 0.07821264 -0.052615557 0.13289276 0.06575809
0.0066793957 0.032160386 0.03137049 -0.27549475 -0.04177428 0.10118195 -0.0015414911 0.004418793
-0.04579671 0.0901168 -0.24781933 0.14107265 0.043936122 0.16983502 -0.072597116 -0.073360056
-0.027269583 -0.02368098 0.0068762642 0.058528382 -0.2081598 -0.1782722 0.072168544 0.02282118
-0.07857461 0.117642395 0.21703003 0.20684323 -0.15267228 0.06709826 0.08145293 0.109405555
0.00926847 -0.013989069 -0.0858768 -0.23851863 0.065768495 -0.006807306 -0.04956718 -0.105417766
-0.053770613 0.13943113 0.056918707 0.14287268 -0.0063418816 -0.023658415 -0.003401477 0.05467198
-0.008816745 -0.06110064 6.5257336e-07 -0.007849591 0.017317658 -0.023267154 0.04142633 0.00533383
-0.022641247 -0.0006785004 -0.075724654 0.026947113 0.032176558 0.028605472 0.018577678 -0.08395927
0.046274766 -0.01151603 -0.00049180735 0.00027845352 -0.019868817 -0.01897477 -0.032257717 0.0010071791
0.037819 0.036772404 0.07720795 0.017947832 -0.065360636 0.019609714 -0.0007671271 -0.0045895684
0.058465764 -0.026625898 0.034192514 -0.051318515 0.0721581 -0.024654312 0.029927675 -0.020825958
-0.031090738 0.035823114 -0.043208748 -0.032962155 0.02604408 0.061125733 4.3988402e-06 0.22202687
-0.034083582 0.09504866 0.105188705 0.031083971 -0.0069040046 -0.13237706 -0.1550086 -0.2438861
-0.14966695 -0.09563974 -0.021072928 0.022101115 0.04239797 0.23217344 0.3078102 0.13252012
-0.23623183 0.097764224 -0.025409158 0.024965052 -0.018476624 -0.1257247 0.068920046 0.14097746
0.27202955 -0.1442314 0.040845532 -0.050301578 -0.03310423 -0.079450406 -0.013923604 -0.10602356
-0.09903996 0.042197954 0.06164428 0.021923605 -0.06637273 -0.06777275 -0.04975648 0.070039175
0.04929851 0.004209664 0.039208204 0.03823233 -0.023713328 0.07820794 0.003266711 -0.0037838721
-0.009199116 0.035353683 0.032390717 0.02406411 -0.021728536 -0.005243446 -0.040618896 0.0013184022
0.08668101 -0.12049904 0.012962139 0.016562032 -0.0002292717 0.042953636 0.027908057 -0.020681914
0.00978566 -0.104987785 0.036704857 0.05184445 0.056259457 0.04603239 -0.00071533246 0.0027697433
0.03264833 -0.042017423 -0.056870803 -0.037843358 0.055139437 -0.018971711 0.004394058 -0.015432768
0.008979041 0.03400914 -0.17429253 -0.21270826 -0.026117748 0.014507986 0.19874904 -0.16033486
0.16210021 -0.00034001836 0.06171022 -0.1280101 0.0282619 0.05281235 -0.057570316 -0.0015538739
0.05757221 0.018772606 0.0360715 0.009128373 -0.020461107 -0.10219684 0.011323734 -0.0058542364
0.11658621 -0.04245982 -0.15964256 0.0924285 -0.0021932481 -0.017239612 0.059896693 -0.06832468
-0.021276254 0.07695935 -0.044038467 -0.046535734 0.023598745 0.081625834 0.018585 0.26643938
-0.049545508 0.13137169 0.111456655 0.07978512 -0.009194105 -0.16383477 -0.1980845 -0.30047178
0.056096442 0.017895937 -0.086567156 -0.05424269 0.059890736 0.017367875 -0.0070856046 -0.03691043
-0.025615705 -0.0030900328 0.013308793 -0.018710421 -0.030668572 0.014813246 0.124600984 0.24291876

transformer.h.0.mlp.c_proj.weight f4 [12, 48]
00000000: 19ac 8d3d ed1b 8c3c febe 3bbb 10e9 093e
00000010: 5b73 aebc 3739 de3b 6e81 ab3d efb7 143e
00000020: 9938 38bb ef1d 763c 2398 4bbe 9108 24bc
00000030: 3cbf 1a3c 82b1 2b3a d311 9bbd d510 4e3c
00000040: 5e3e 0ebc ddcc 89bc f81d c63c 7495 2f3c
00000050: e9d2 34bd 18bc 42bc 7c00 babc f144 0ebc
00000060: db41 4c3c 842e 80bc 3f3f 7fbb 42de 493c
00000070: b1c6 37bd 8be9 f23d 8039 45bd e88c 813b
00000080: 868d 5a3c a55c a5bc b71f 693c 9124 31bc
00000090: 4a83 b6bd da8d d23b e971 243d 9e93 1fbd
000000a0: e2a9 3e3c 8fa1 163e 8435 113d 1397 d0bc
000000b0: 9cef 98bc 8ca4 bd3c a6f3 483d acfa 323c
000000c0: 2381 bcbd 9785 633d 7051 2dbc fd56 9a3d
000000d0: 76d0 02bd a28e bdbc 54db f93c ba8f ee3d
000000e0: 388c 083d 4733 c93c e520 06be 448e 0ebc
000000f0: ea29 abbd 8cfe 66bc 293b 7e3d b987 e03c
00000100: ac37 debc 1c9e 47bd 2ac7 b33c d589 b2bb
00000110: 402f 28bd 1ab1 473b a5b8 f1bc 7d25 d8ba
00000120: efa7 deb9 03bc 40bc c7c3 003c 8c56 033d
00000130: e4c1 20bd 9585 b83d 17c8 1d3c dacb d0bc
00000140: fe24 393d 054e d73c 1ddf ae3c 9ee4 433d
00000150: e0b1 173e 7dbc 83bd bcb4 de3c fd80 6f3c
00000160: 1d4d 00bb e5d9 5bbe 8214 7a3d f7d5 3dbd
00000170: 7696 92bb b941 b83c 6127 06bd 3036 db3c
00000180: 7ca9 eb3c 2338 a73d 0b07 b43c 0794 0b3b
00000190: 6674 fcbc ebcf 523d 3820 213d 495e a13b
000001a0: 495f 8fbd de51 323d 19f6 63bc 8ad7 803c
000001b0: 7919 c93c 717d c0bc a189 8ebc bbc1 833c
000001c0: 0970 9d3c c060 933b e2b7 cb3c bf41 a5bb
000001d0: 67b2 e23c 78b9 273b abc1 913d 9062 2c3d
000001e0: 2f2d 833d 75f5 053d 3ae5 95bd f90d f83c
000001f0: 02f4 42bb 6a1b 483b 16c9 a33c 4992 da3c
00000200: 4906 03be fe16 02bd aba2 c1bc b227 7fbb
00000210: 9888 dabc 2889 f8bb d1c0 93bd a80f 1bbd
00000220: aee9 04bd 03bc 313d 0776 49bd 1d2c 4e3d
00000230: adc4 3ebc a384 e3bc 741d cb3b ac2b 293d
00000240: bade 003d 70bb d93c 0b4e a9bc c33e bbba
00000250: ef12 c73d c8d7 34bd 57e5 68bd 2c98 6cbc
00000260: fa3c 113d 6d1c 06be 3ca3 1bbc 707a 80bc
00000270: 8083 3ebd 4b1d 0b3c 51f9 04bd 2e0b a93c
00000280: c7c1 5fba 7bee a83b 715d a2bd 9675 3fbe
00000290: 63f1 283d 8c28 013e 6b0f 9dbc b0e6 243b
000002a0: bde5 aabd ed22 12bd 541c 7c3d 5942 423c
000002b0: 9b8e 2b3c f6bc 2d3d 1d54 fabc 2642 be3c
000002c0: e133 3e3d f457 e73d 6cfc 963c 4dde 8bbc
000002d0: 5d5e 01bc be91 59bd 415d 823d d5c5 6a3d
000002e0: 67c8 33bd 772d fc3c c700 303c c6e1 163d
000002f0: db9d ba3d 8e58 f43b c9c1 fb3b a5c8 98bc
00000300: 1440 30bd 4753 543c 1ba4 12be 44ca 5f3c
00000310: df62 93bc 5fca 15bc 415f dfbc 0ba6 92ba
00000320: e516 083d 4df5 883c 5902 4abc f953 e1bd
00000330: ab6e 383c 9277 023a aa9f 9c3d fa50 9c3d
00000340: 33c9 0abd 39f4 413d a05b ca3d 8bf7 ee3c
00000350: 0126 103e 25a9 c5bb 09d2 bd3d 59b5 f43c
00000360: 916e d5bb 728d 30be 370f 983c f88c 7c3c
00000370: 51f3 f4bc d6a5 07bd c1cb fcbd 8a52 103e
00000380: 638a a63c 8ee5 33bd 3932 f23d 3ca5 1bbd
00000390: cbdd ff3c 691f f93b 833a 9dbd 588e b13d
000003a0: e2df 48bc 954a 76bd 6368 483e 4e27 bc3d
000003b0: 00bc e3bc a460 563d 5c3f 93bc 203b 4aba
000003c0: 2ba4 003d 42c1 9abc 5795 9bbd 7b07 82bd
000003d0: 40b3 adbd dbcf 5d3d 285a 4abd 9ff3 64bd
000003e0: 0583 763d 678e bc3d 3c30 ae3d 0bc3 6dbd
000003f0: 102f ff3c 25a1 83bd f37e 10bd fcf4 ddbc
0.06917591 0.01710316 -0.0028647776 0.13467813 -0.02129524 0.006781723 0.08374296 0.1452329
-0.0028109907 0.015021785 -0.19882254 -0.010011808 0.009445008 0.0006549583 -0.07571759 0.012577255
-0.008681862 -0.01682132 0.024184212 0.010716785 -0.044146452 -0.011885665 -0.02270531 -0.008683429
0.012466873 -0.01564718 -0.003894761 0.012321057 -0.04486722 0.11860951 -0.04815054 0.003953565
0.013339406 -0.020185778 0.014228753 -0.010811941 -0.0891176 0.0064256014 0.040147696 -0.038959138
0.011637183 0.14710067 0.035451427 -0.025462663 -0.018668942 0.023149751 0.049060486 0.010924023
-0.092043184 0.055547323 -0.010578498 0.07536123 -0.031937085 -0.023139302 0.030500092 0.116485074
0.033336848 0.024560584 -0.13098486 -0.008700911 -0.08357604 -0.014098775 0.06206814 0.027408468
-0.027126156 -0.04873477 0.021945555 -0.0054485598 -0.041060686 0.003047055 -0.02950699 -0.0016490665
-0.0004246826 -0.0117635755 0.007859177 0.03206496 -0.03924741 0.09009854 0.009630225 -0.025487829
0.045201294 0.02628232 0.021346623 0.04782545 0.14813948 -0.06432436 0.02718579 0.014618156
-0.0019577213 -0.21469839 0.061054714 -0.04634663 -0.0044735027 0.022492277 -0.0327524 0.026759237
0.02876734 0.08165004 0.021976015 0.0021297948 -0.030817222 0.051467817 0.039337367 0.0049245697
-0.07000596 0.043535106 -0.013913655 0.015727777 0.02454828 -0.023497315 -0.017399611 0.016083589
0.019218462 0.0044976175 0.024867956 -0.005043238 0.02767296 0.0025592726 0.07117017 0.042086184
0.064051025 0.03270479 -0.07319112 0.0302801 -0.002974749 0.0030533918 0.019993346 0.026681082
-0.12795366 -0.03176021 -0.023637136 -0.0038933572 -0.026676461 -0.0075847097 -0.07214511 -0.037856728
-0.032449417 0.043392193 -0.049184825 0.05033504 -0.011643571 -0.027773207 0.0061985794 0.041301414
0.03146241 0.026578635 -0.020667097 -0.0014285672 0.09720408 -0.044151098 -0.05685934 -0.0144405775
0.035458542 -0.13096781 -0.009499367 -0.015683383 -0.046512127 0.008490871 -0.03246433 0.020635214
-0.000853565 0.005155382 -0.07927979 -0.18697199 0.04124583 0.12613124 -0.01917239 0.0025161915
-0.083446 -0.03567784 0.061550453 0.011856639 0.0104710115 0.042416535 -0.030557686 0.023224901
0.046436194 0.112960726 0.018430911 -0.017073775 -0.007896033 -0.053117506 0.06365443 0.057317574
-0.04389229 0.030783398 0.010742373 0.036836408 0.0911214 0.0074568456 0.007683013 -0.018650362
-0.04302986 0.012959308 -0.14320414 0.013659064 -0.017991481 -0.009142487 -0.0272671 -0.0011188401
0.03322496 0.016718531 -0.012329661 -0.11002345 0.011256854 0.0004976924 0.07647641 0.076326326
-0.033883285 0.04735205 0.09880757 0.029170772 0.14076997 -0.0060321265 0.09268577 0.02987163
-0.0065134247 -0.17241457 0.018561943 0.015414469 -0.029901179 -0.033117138 -0.123435505 0.14093986
0.02032966 -0.043920092 0.118259855 -0.037999377 0.031233689 0.0076026213 -0.07677176 0.08669728
-0.012260409 -0.06012972 0.1957107 0.09187184 -0.027799606 0.052338257 -0.017974548 -0.0007714499
0.031406563 -0.01889098 -0.07596844 -0.06349083 -0.08481455 0.054153305 -0.049402386 -0.055896398
0.060183544 0.092068486 0.08505294 -0.058047336 0.03115037 -0.0642722 -0.03527732 -0.027094357

transformer.ln_f.weight f4 [12]
00000000: 2b4d 4d41 6912 5b41 042f 1f41 6bee 4341
00000010: fcca 2041 3ce6 4d41 c705 4b41 94db 4f41
00000020: a2f0 4741 1cda 2841 6297 3441 253b 2841
12.83134 13.691995 9.948978 12.2457075 10.049557 12.86871 12.6889105 12.991108
12.496248 10.553249 11.286959 10.51444

lm_head.weight f4 [11, 12]
00000000: 1a7d a739 9228 37bd 6002 16bd 0aee 01be
00000010: cf5b feb9 2a31 14bd bd96 f2bc 8a42 35bd
00000020: f3ec 5fbc d161 063e 05c3 4c3d 7562 ed3d
00000030: b39d eebc 5a37 82bc 7406 a03d b3f8 913d
00000040: 9b23 fdbb 28e0 c63c 85fb eabd fab0 f43c
00000050: ea2d 02be 0107 c93c cab3 e03d 613c 4cbd
00000060: ca47 1fbe beea 46bd c7d6 9e3c b40b 143d
00000070: 8272 a8bc 8e1d 133d 481e 78bc 6097 bebd
00000080: 05f4 be3d 19f5 41bc 9c8b 503d 68f2 f3bb
00000090: 7449 c8bd 6fe5 ef3d 817e 9d3b b37e 1fbc
000000a0: d02b 753c 7ab2 23bd 8b3b c23c 623d 733d
000000b0: a892 e4bc a6d5 1bbe 2b64 583d 9195 da3d
000000c0: 02e7 ccbc bc66 38bd dc65 46bd 477c c3bc
000000d0: c85c c8bc b596 c3bc 33f8 bdbc d7c6 2e3e
000000e0: 88de 983d f0a9 933c 7a60 c5bb 5f24 f5bc
000000f0: 939f d0bc dbdf d5bc 6aef 4a3e f1e9 8dbd
00000100: c94b eebc 849b b9bd e610 623d c69d 723c
00000110: 74c8 8ebc 8323 3fbb 69c5 673a 2adb 29bd
00000120: 264b dbb9 a661 0bbd 41e1 24bd bc15 1f3e
00000130: b0ab 73bd e684 f4bd 25dc 8d3d 9f84 9cbb
00000140: e65e 58bc 45e7 8d3d 1c44 823c 7ff7 863d
00000150: 512c 933d 8be5 0bbe d1e3 403c 35e7 ca3c
00000160: 643f 16bd 10f5 823c e955 133c 428d e2bc
00000170: 46a2 3fbb 94da 0bbe 6f8b 253d 29d8 973d
00000180: da41 923d 30eb 903d 2bd2 2f3d 0d0f 363d
00000190: a42a 73bb 0e16 74bd 06d3 ecbd ffb6 95bd
000001a0: 9c12 043e 9f37 1abc b23d 60bc c43e 8abb
000001b0: 1715 083d 6f9b 943d a043 28bd 7207 5bbc
000001c0: da9e e6bd 09d8 cb3d ed97 1c3e a5f1 acbc
000001d0: c62d 57bc 7fb1 5b3c 8d20 e8bc e473 15bd
000001e0: 18a7 d63d aa92 af3e dd92 70be 5709 b83d
000001f0: 278e a03f a1be 933f a70e 223f 7ac9 b4be
00000200: 46bd 42bf b0e7 2f3e f9cc 06c0 b6f7 cebe
0.0003194593 -0.044716425 -0.03662336 -0.12688461 -0.00048515058 -0.0361797 -0.029612893 -0.04425291
-0.013667333 0.13123251 0.049990673 0.11591045 -0.029127931 -0.015895534 0.07813731 0.07127514
-0.007725192 0.024276808 -0.11473755 0.029869545 -0.12712827 0.024539473 0.10971792 -0.04986227
-0.15554729 -0.04856371 0.019389523 0.036143973 -0.020562414 0.035916857 -0.015143938 -0.09306216
0.09323887 -0.011838221 0.050914392 -0.0074446686 -0.09779635 0.11713683 0.00480634 -0.009734797
0.014964059 -0.03996513 0.023710033 0.05938471 -0.027901962 -0.15218219 0.052829903 0.10673059
-0.025012497 -0.04501985 -0.048436984 -0.023862971 -0.024458304 -0.023875574 -0.02318964 0.17068039
0.074643195 0.018025368 -0.006023464 -0.02992457 -0.025466716 -0.02610772 0.19817892 -0.069293864
-0.029088872 -0.090628654 0.055191897 0.014808124 -0.017429568 -0.0029165454 0.0008841367 -0.041468777
-0.00041826925 -0.03402867 -0.04025388 0.15535635 -0.059489906 -0.11939411 0.06926755 -0.004776552
-0.013206219 0.06928877 0.015901618 0.06590175 0.07186187 -0.13661782 0.011773066 0.024768451
-0.036681548 0.015985996 0.008992651 -0.027655248 -0.002924101 -0.136576 0.040416177 0.07414276
0.071414664 0.070761085 0.04292504 0.044447947 -0.0037104273 -0.059591345 -0.11563687 -0.07310294
0.12897724 -0.009412675 -0.013686584 -0.004218908 0.033223238 0.07256209 -0.041080117 -0.013368474
-0.11260767 0.09953315 0.1529233 -0.021111319 -0.013133472 0.013409018 -0.028335834 -0.036487475
0.10481089 0.34291583 -0.23493524 0.089861564 1.2543381 1.154255 0.6330361 -0.35309964
-0.7607006 0.17178226 -2.1062605 -0.40423363

transformer.wte.weight f4 [11, 12]
00000000: 1a7d a739 9228 37bd 6002 16bd 0aee 01be
00000010: cf5b feb9 2a31 14bd bd96 f2bc 8a42 35bd
00000020: f3ec 5fbc d161 063e 05c3 4c3d 7562 ed3d
00000030: b39d eebc 5a37 82bc 7406 a03d b3f8 913d
00000040: 9b23 fdbb 28e0 c63c 85fb eabd fab0 f43c
00000050: ea2d 02be 0107 c93c cab3 e03d 613c 4cbd
00000060: ca47 1fbe beea 46bd c7d6 9e3c b40b 143d
00000070: 8272 a8bc 8e1d 133d 481e 78bc 6097 bebd
00000080: 05f4 be3d 19f5 41bc 9c8b 503d 68f2 f3bb
00000090: 7449 c8bd 6fe5 ef3d 817e 9d3b b37e 1fbc
000000a0: d02b 753c 7ab2 23bd 8b3b c23c 623d 733d
000000b0: a892 e4bc a6d5 1bbe 2b64 583d 9195 da3d
000000c0: 02e7 ccbc bc66 38bd dc65 46bd 477c c3bc
000000d0: c85c c8bc b596 c3bc 33f8 bdbc d7c6 2e3e
000000e0: 88de 983d f0a9 933c 7a60 c5bb 5f24 f5bc
000000f0: 939f d0bc dbdf d5bc 6aef 4a3e f1e9 8dbd
00000100: c94b eebc 849b b9bd e610 623d c69d 723c
00000110: 74c8 8ebc 8323 3fbb 69c5 673a 2adb 29bd
00000120: 264b dbb9 a661 0bbd 41e1 24bd bc15 1f3e
00000130: b0ab 73bd e684 f4bd 25dc 8d3d 9f84 9cbb
00000140: e65e 58bc 45e7 8d3d 1c44 823c 7ff7 863d
00000150: 512c 933d 8be5 0bbe d1e3 403c 35e7 ca3c
00000160: 643f 16bd 10f5 823c e955 133c 428d e2bc
00000170: 46a2 3fbb 94da 0bbe 6f8b 253d 29d8 973d
00000180: da41 923d 30eb 903d 2bd2 2f3d 0d0f 363d
00000190: a42a 73bb 0e16 74bd 06d3 ecbd ffb6 95bd
000001a0: 9c12 043e 9f37 1abc b23d 60bc c43e 8abb
000001b0: 1715 083d 6f9b 943d a043 28bd 7207 5bbc
000001c0: da9e e6bd 09d8 cb3d ed97 1c3e a5f1 acbc
000001d0: c62d 57bc 7fb1 5b3c 8d20 e8bc e473 15bd
000001e0: 18a7 d63d aa92 af3e dd92 70be 5709 b83d
000001f0: 278e a03f a1be 933f a70e 223f 7ac9 b4be
00000200: 46bd 42bf b0e7 2f3e f9cc 06c0 b6f7 cebe
0.0003194593 -0.044716425 -0.03662336 -0.12688461 -0.00048515058 -0.0361797 -0.029612893 -0.04425291
-0.013667333 0.13123251 0.049990673 0.11591045 -0.029127931 -0.015895534 0.07813731 0.07127514
-0.007725192 0.024276808 -0.11473755 0.029869545 -0.12712827 0.024539473 0.10971792 -0.04986227
-0.15554729 -0.04856371 0.019389523 0.036143973 -0.020562414 0.035916857 -0.015143938 -0.09306216
0.09323887 -0.011838221 0.050914392 -0.0074446686 -0.09779635 0.11713683 0.00480634 -0.009734797
0.014964059 -0.03996513 0.023710033 0.05938471 -0.027901962 -0.15218219 0.052829903 0.10673059
-0.025012497 -0.04501985 -0.048436984 -0.023862971 -0.024458304 -0.023875574 -0.02318964 0.17068039
0.074643195 0.018025368 -0.006023464 -0.02992457 -0.025466716 -0.02610772 0.19817892 -0.069293864
-0.029088872 -0.090628654 0.055191897 0.014808124 -0.017429568 -0.0029165454 0.0008841367 -0.041468777
-0.00041826925 -0.03402867 -0.04025388 0.15535635 -0.059489906 -0.11939411 0.06926755 -0.004776552
-0.013206219 0.06928877 0.015901618 0.06590175 0.07186187 -0.13661782 0.011773066 0.024768451
-0.036681548 0.015985996 0.008992651 -0.027655248 -0.002924101 -0.136576 0.040416177 0.07414276
0.071414664 0.070761085 0.04292504 0.044447947 -0.0037104273 -0.059591345 -0.11563687 -0.07310294
0.12897724 -0.009412675 -0.013686584 -0.004218908 0.033223238 0.07256209 -0.041080117 -0.013368474
-0.11260767 0.09953315 0.1529233 -0.021111319 -0.013133472 0.013409018 -0.028335834 -0.036487475
0.10481089 0.34291583 -0.23493524 0.089861564 1.2543381 1.154255 0.6330361 -0.35309964
-0.7607006 0.17178226 -2.1062605 -0.40423363

transformer.wpe.weight f4 [10, 12]
00000000: 7a7e 913b f0c4 fe3b 57ba a8bc 8630 633c
00000010: 871e b13c ed07 1bbd 5c66 f63d f44e 8abc
00000020: 3c51 30b9 a5d8 aebb e879 d63d 6eda 06bb
00000030: ef9b 043c b995 2d3c f0e9 07ba 648e 96bc
00000040: 5e76 dfbd ad93 5e3b b32a 91bc 1286 1c3c
00000050: 0d77 5c3c 5109 0c3c 1df6 973d d784 c8bb
00000060: 1e8c cdbb 5dc1 f1bc d962 bbba 9c1a f6b9
00000070: 6831 803b fa36 5cbd a261 a5bc e8ab 213c
00000080: 3f68 a33c 585b aeb6 0cfc bd3d a5ea 5ebc
00000090: f318 52bb 2f49 573b e8fa be3b d65e eabb
000000a0: 70ff a8bd c83d 383c 1eeb cebc dbf5 533c
000000b0: bbcc b13b 575f 5c3c 6e59 103d 01d0 843b
000000c0: 7c3d 76bc 623b eebc a566 ca3b b6c4 b53b
000000d0: 97dd 9d3c f24a 19bd 71e3 d2bc 5580 563c
000000e0: 0b60 323c 6101 973b c291 703d 6539 a4ba
000000f0: 65c6 0abc c818 323b 7f9c 2d3c 2124 b239
00000100: e8b1 7abd c2c9 bf3c bed3 e7bc 47cb 753c
00000110: 47d8 46bb e65d 8e3c 3fce df3b 5c1e 833c
00000120: 36ed afbc 000c e5bc e8d1 313c e64e 2c3c
00000130: 1d74 083d 5410 c9bc 9f3a efbc cdda 6e3c
00000140: 1873 ae3b 53bd e33b e577 f63c 559c 0d3c
00000150: 5379 5cbc c6ce cf39 2f7d 5a3c f240 bd39
00000160: a631 50bd 1658 dd3c 601b adbc 7912 343c
00000170: 1315 503a 88ca 7d3c 667a a9bc 68f3 b83c
00000180: d989 c9bc 5c89 e5bc c67a 343c f0e6 fe3b
00000190: b294 2e3d ca43 91bc bbbe aabc 08de 393c
000001a0: d158 883b 8847 9b3a 58d2 563b c7f7 313c
000001b0: b7eb 1f3d 2370 6bbb 306f 523d a5ef b3bd
000001c0: 736c 0a3d 27cb c23d ab8e 06bd 622f 0dbd
000001d0: a832 a93c b210 cebc 0f1e 89bd f4c6 8fbd
0.004440126 0.0077749416 -0.020596666 0.013866549 0.021621002 -0.037849355 0.12031242 -0.01688335
-0.0001681493 -0.0053358846 0.104724705 -0.0020576972 0.008093818 0.010594779 -0.0005184701 -0.018378444
-0.109112486 0.0033962533 -0.017720556 0.009553449 0.013456118 0.008547143 0.07419989 -0.0061193514
-0.006272807 -0.029511148 -0.0014296427 -0.00046940602 0.0039121397 -0.053763367 -0.020188157 0.009867646
0.01994717 -5.196238e-06 0.0927659 -0.013605748 -0.0032058328 0.0032850017 0.00582825 -0.0071524186
-0.08251846 0.011245199 -0.025258597 0.0129370345 0.005426017 0.013450465 0.035241537 0.0040531163
-0.015029307 -0.02908105 0.006176787 0.0055471314 0.019270701 -0.03742499 -0.025743218 0.01309212
0.010887156 0.0046083187 0.058732755 -0.0012529312 -0.0084701525 0.0027175415 0.010596394 0.00033977724
-0.06120482 0.023411635 -0.028299209 0.015002078 -0.0030341314 0.017378759 0.0068300064 0.016005687
-0.021475416 -0.027959824 0.010853268 0.010516858 0.03331386 -0.024543919 -0.029202757 0.014578533
0.005323779 0.0069500594 0.030086467 0.0086432295 -0.01345666 0.00039636175 0.01333551 0.00036097277
-0.0508286 0.027019542 -0.021131217 0.010990732 0.00079377106 0.015490182 -0.020688247 0.022577003
-0.024601864 -0.0280196 0.0110156 0.0077789947 0.042622276 -0.01773252 -0.0208429 0.01134444
0.0041609784 0.001184688 0.0032779183 0.010862297 0.039043155 -0.0035924993 0.051375568 -0.08785943
0.03379483 0.095114045 -0.032850903 -0.034469016 0.020654038 -0.025154445 -0.06695186 -0.07020369

transformer.h.0.ln_1.weight f4 [12]
00000000: 7cd5 2740 fdb0 4240 5fed 3e40 67ba 2940
00000010: 63d9 6140 33df 4b40 8a2b 2040 5cd0 4540
00000020: 0228 4640 635c 5840 4910 3240 dec2 5840
2.622405 3.0420525 2.983238 2.652002 3.5288932 3.185498 2.5026574 3.0908422
3.096192 3.3806388 2.782244 3.3868937

transformer.h.0.attn.c_attn.weight f4 [36, 12]
00000000: 7fc0 313d cfaf b2bd 80f0 6c3d 3914 bc3d
00000010: c035 bbbd 6dce 3a3e 2d66 d3bd 6510 623a
00000020: 0be6 3abc adcd 03be a2e2 093d 3452 983d
00000030: 1060 f53d e573 11be fac2 6ebd a89b 0ebe
00000040: ed01 a5bd 7259 b1bb c29a 293d 0df3 88bd
00000050: 5f5f 073e f686 58bd 499d 3b3e 9b42 983d
00000060: af93 e1bc a8c8 5f3c cacb 24bd 0882 413c
00000070: 9cee 74be 0ead b23d 31a7 1abe b57e 303d
00000080: 26c4 473e 9619 dd3d 3196 85be 0027 903d
00000090: 3446 61bd 2c1e b0be df21 cebd 926e 183e
000000a0: 66e9 6c3f 1863 76be d0b5 c4bd be8e 913d
000000b0: 4662 b43d 541d 84bd 00d8 433d 3219 60bd
000000c0: 7818 bb3d af64 4cbc 7366 783c cfa3 663c
000000d0: 52a6 9dbd 4154 b73d 1944 163e f54f c1bd
000000e0: 1eb0 d23d eb23 a6bd cfbb 85bc 4462 4fbe
000000f0: 6f0a 04be 52a6 0e3e bbc2 803c 77e3 38be
00000100: 684a b1bd 4e8c e03d 4462 40bd f253 b13d
00000110: d731 c23c 9703 37bc 15b7 353e e668 e3bc
00000120: 0479 66bd 693e 443d f412 b7bc afbe 88bb
00000130: 94de 81bd 7ed2 fbbc b990 1f3d e0da ce3c
00000140: 5825 6abc db2a cf3c b48f e33d 0125 92bd
00000150: 6c34 263d 061c 3ebd 5727 21bc d4eb a83d
00000160: e7e8 bf3c c4a0 633d 46c0 48bd aa7a c53d
00000170: 785e 9cbb 261a 1fbd dd7c 48bd 45c5 95bd
00000180: 567e 8cbd 657f 09bd 9915 97bd a257 65bd
00000190: 0cc3 1a3c 357d df3a 504a fd3d 16ff 443d
000001a0: 5ed2 f33c e0dc 66bc 745c 9cbd 5f88 e83b
000001b0: 4260 f4ba 6ffd 14bd 349e de3c f95a 393c
000001c0: 957f bbbd c2be b8bd 8970 f2b9 5f09 583d
000001d0: fd74 1c3e bc3d 57bd d061 173d ac24 193d
000001e0: da29 a13c 09a9 dfbc f49b 813c 44a0 653d
000001f0: 69a1 4bbd 2ee3 713a 66b3 e43d a8d0 65bd
00000200: f265 8abc 4b61 5dbd ba1a 903d 667b f5bc
00000210: 7056 36bd af2b edbd af88 8d3c 26ea 2fbd
00000220: 402d b53a f542 4a3d 6eca 343c 438e 693d
00000230: 9374 81bd 539d 9e3c 20f8 493d 7353 ac3d
00000240: 1e4a 573e d92f 0bbe fd86 44bd 3a12 ab3d
00000250: 4867 43be cdb7 033e 016c f0bd 0bab ec3d
00000260: c29e 4cbd 102b e33d aa09 a8bc 76f7 11bd
00000270: 5dc7 8a3c 7a8d 2d3e dcee e9bd 8bf8 4c3e
00000280: 4d9f 52bd 5eab 10bb f493 00bc 8b72 45bd
00000290: fc25 b6bd 8073 143d c1a7 c4bc a77d 95bd
000002a0: 3fe7 c1bc f028 023d 0bd2 6c3d d805 263c
000002b0: 39f7 24be 962c b63c 63b9 cbbd f327 74bd
000002c0: ac4a 4cbc 6d90 ba3d 82c6 1b3d 24db 1f3e
000002d0: 2049 c63c 11cf 0abe 1f0b 85bd 831b 203d
000002e0: 28ff cb3e 7fbd 54be 6ef9 293d eb4f c8bc
000002f0: 02d2 8f3b b06c 173c d851 113e 4350 b0bd
00000300: 426b 2d3e 9f74 b43d 81c0 8dbd cd7e e3bd
00000310: f078 06bc 327f e9bc dcbd 633c f59a 28bd
00000320: 5c98 043d 164d 2b3d a1d7 7dbe f1f5 8fbd
00000330: 6cbf 11be 162f ce3c 81e7 913d 0b9f 1fbd
00000340: 1279 80be caf4 173d 5ae9 4e3e 7626 533d
00000350: b42b 3bbe f32a bf3d 4ab1 c2bd 9dca a23b
00000360: 12cc 94bd aa19 a03d a3dd 8bbd 526a 72bc
00000370: 878b 643b 22f7 923c 797b e23d 52ae 213d
00000380: 2565 aabd 2ce8 1d3d 1ceb a13d 2606 14be
00000390: f821 a8bb 3c8a 31bd 092a 053d 8919 bc3d
000003a0: 85ef 73bc 54f8 b73c ac30 85bd fafd 003e
000003b0: 46ed c73c 7062 00bd 7375 08bb be48 11bd
000003c0: a9fd b8bd f315 debc 06f8 82bc 1dd8 fe3b
000003d0: 976f ddbc b53c 3bbd 753d 1c3d e3f9 d43d
000003e0: 8025 c43c 5f2b 04bc 3996 76bd e3e0 683d
000003f0: bc36 853d ae2c 04bd 21e5 17bd d626 8cbd
0.04339647 -0.08724939 0.057846546 0.09183545 -0.091411114 0.18242808 -0.10322223 0.0008623659
-0.011407386 -0.12871428 0.0336634 0.07437554 0.11981213 -0.14204367 -0.058291413 -0.13926566
-0.08057008 -0.005412274 0.041407354 -0.06686983 0.13219975 -0.052863084 0.18321718 0.07434579
-0.027536241 0.01365868 -0.04023341 0.011810787 -0.23919147 0.08724414 -0.15102841 0.043089587
0.19508418 0.10795896 -0.2609115 0.07038689 -0.05499859 -0.3439802 -0.10065054 0.14885929
0.9254364 -0.24061239 -0.096049905 0.07107304 0.08807807 -0.064509064 0.047813416 -0.054711528
0.091355264 -0.012475177 0.015161145 0.014077141 -0.07697739 0.08951617 0.14674415 -0.09439079
0.10287498 -0.081123196 -0.016324906 -0.20252329 -0.12894605 0.13930634 0.015717855 -0.18055521
-0.0865677 0.10964261 -0.046968713 0.086585894 0.023705406 -0.0111702895 0.17745622 -0.02775998
-0.056267753 0.04791108 -0.022347905 -0.004173122 -0.063412815 -0.030740019 0.038956378 0.025250852
-0.01429113 0.02528899 0.111113936 -0.07135964 0.040577337 -0.046413444 -0.0098360395 0.08248106
0.023426486 0.05557324 -0.04901149 0.09642537 -0.0047720037 -0.038843296 -0.048947204 -0.07313017
-0.06860034 -0.03356876 -0.07377166 -0.055991776 0.009445917 0.0017050864 0.123676896 0.04809483
0.029763397 -0.014090747 -0.076348215 0.007096335 -0.001864441 -0.036374506 0.027175047 0.0113131935
-0.09155194 -0.09020759 -0.00046241682 0.052743312 0.15279002 -0.05254911 0.036958516 0.03738849
0.019673277 -0.027302282 0.015821435 0.056061044 -0.04971448 0.0009227273 0.1116703 -0.056107193
-0.016894314 -0.054047864 0.07036348 -0.029966068 -0.044516027 -0.115805976 0.01727709 -0.04294791
0.001382269 0.04938026 0.011034591 0.057020437 -0.06321063 0.019362127 0.049308896 0.08414354
0.21024367 -0.13592471 -0.047980297 0.08353086 -0.19082367 0.12863083 -0.1173935 0.11556061
-0.04995609 0.11092198 -0.02051242 -0.035636388 0.016940767 0.169485 -0.11422512 0.20016687
-0.051421452 -0.00220748 -0.007847775 -0.04820494 -0.08893964 0.036242962 -0.024005773 -0.07299357
-0.023669837 0.031777322 0.0578175 0.010133229 -0.16109933 0.022238057 -0.09947469 -0.05960841
-0.012468975 0.09109578 0.03803111 0.1561094 0.02420479 -0.13555552 -0.06496262 0.039088737
0.39843106 -0.20775412 0.04149764 -0.02445217 0.0043890486 0.009242222 0.14191377 -0.08609059
0.16935447 0.08811306 -0.06921483 -0.1110817 -0.008207545 -0.028503034 0.0139002465 -0.041163404
0.032371864 0.04182156 -0.24789287 -0.070293315 -0.14233178 0.025168937 0.07124234 -0.038970035
-0.2509237 0.037098683 0.20206204 0.05155035 -0.1827839 0.09334364 -0.095064715 0.004968001
-0.07265486 0.07817395 -0.06829383 -0.014795857 0.0034873204 0.017940108 0.11058707 0.039472885
-0.08320073 0.038551494 0.07906172 -0.1445547 -0.0051310025 -0.04334472 0.03251079 0.09184558
-0.014888649 0.02245728 -0.06503424 0.12596884 0.024405133 -0.031343877 -0.0020821958 -0.035469763
-0.09032757 -0.027110076 -0.015987407 0.0077772276 -0.02703075 -0.04571219 0.038144547 0.103992246
0.023943663 -0.008066981 -0.060201857 0.056855094 0.065045804 -0.032269172 -0.03708375 -0.06843345

transformer.h.0.attn.c_proj.weight f4 [12, 12]
00000000: b195 533d 9064 d1bc 23f2 14bd 75ad 23bd
00000010: 26a8 643d 78cb 8bbb 2deb ba3c 03ad f5bd
00000020: e927 fa3d a421 7fbd 52fc 71bc 026d 363e
00000030: 4f48 a73d ed29 223d e7ab e93c 77f3 193d
00000040: 2450 903c 95bc 2cbb 4567 b13c e8ae 223e
00000050: acd1 d13d 72b3 8b3d c25e 04bd 142b d03d
00000060: 4d77 103c ee3b cfbd 2988 4e3c 2aa4 e5ba
00000070: 0a2d 83bb 1fd9 c6bc 5705 08be 88cf 383d
00000080: eb3c 343c c3ad 44bb 8ad0 ed3c c50b be3d
00000090: 97cd 15bd a4d6 823d be5b 74bb f319 38bc
000000a0: efb2 123d 0d7e bf3d 2fcc b7bd aead b23c
000000b0: 1af0 d93c 6b34 cb3d 2103 7d3d 951f 3d3b
000000c0: 046d 09be fc40 85bd 16a3 28bd 9bed 6e3d
000000d0: 269a 21bd d783 993d 6a58 c03d 178c 413c
000000e0: 831e f8bc a089 86bd 91de dcbd 4a78 813c
000000f0: 8e98 943c b9c4 393d 6d6d 863d 00e4 a1bd
00000100: fece a1bd 7251 28bd 3269 6fbd 43a7 25be
00000110: f7f1 9e3c 6fe4 e83c 4450 903c 2328 37bd
00000120: 82e0 55bb db11 93bc 8e49 603c 63ed 933d
00000130: b591 743d 59ab 55bd 4c37 d5bd 1586 e5bd
00000140: d431 b0bd 1b48 203d 0055 5fbd e1f2 28be
00000150: 2df3 1e3d 1984 1abd 0d88 21bd 5f21 eebc
00000160: b7c7 e53c 6c9a a13c 439a e03d 551d acbd
00000170: d079 2ebd 200b 7d3d c707 f03d 995f 30be
00000180: f944 7bbd defc a63c b63a 0c3d 1e43 eb3c
00000190: d6b9 6fbd 3983 a8bd 73a7 c63d bfd1 89bc
000001a0: 7cb1 b2bd 8e00 c03d 0660 373d 9a93 773e
000001b0: 167e 80bc 987a b0bb bb11 ee3a 90df 29bd
000001c0: 8ac5 963c 0fce eab9 0574 d73c 391f 613e
000001d0: 1bfd 0fbd 5e01 863b b102 a5bd de25 04be
000001e0: bbf0 f8bc 05dc ec3b 59d9 eebc 4544 233d
000001f0: 8f1e 0fbd 6220 02bb ce98 f4bc 7c91 9d3c
00000200: 8015 493e a496 11be af8f ff3c 9fc5 fabd
00000210: ff2a 6f3d bb42 843d e50a 0bbc f80c 0cba
00000220: d5e5 e53c ba64 363d 7153 87bc 2740 68bd
00000230: 9626 54be a024 18be b8b8 b6bd b1ce 293d
0.05165643 -0.025560647 -0.036363732 -0.039960343 0.05582442 -0.0042661987 0.022817219 -0.1199589
0.122146435 -0.06228794 -0.0147696305 0.1781502 0.08168089 0.039590765 0.028524352 0.0375857
0.017616339 -0.002635752 0.021655688 0.15887034 0.1024507 0.06821336 -0.03231693 0.101644665
0.008817506 -0.101188526 0.012605705 -0.0017520238 -0.004003172 -0.024273453 -0.13283287 0.045119792
0.011000852 -0.0030010797 0.029030103 0.092795886 -0.03657302 0.06388596 -0.0037286128 -0.0112366555
0.035815176 0.09350214 -0.08974492 0.021811333 0.026603747 0.09922107 0.061770562 0.0028857936
-0.13420492 -0.065065354 -0.041171156 0.058332067 -0.039453648 0.074958496 0.09391864 0.011813185
-0.030287987 -0.06569219 -0.10784639 0.015804429 0.01813915 0.045353625 0.0656384 -0.07904816
-0.07900809 -0.041093297 -0.05844993 -0.16177087 0.019402487 0.028429238 0.017616399 -0.04471601
-0.0032635038 -0.01795285 0.013689412 0.07223012 0.05970927 -0.052165363 -0.10410938 -0.11207215
-0.08603254 0.039131265 -0.05452442 -0.16498901 0.03880613 -0.037723634 -0.03943639 -0.029068647
0.028049333 0.019726954 0.10966923 -0.08404032 -0.04259664 0.061778188 0.117202334 -0.17223968
-0.061345074 0.020384248 0.03423568 0.028718527 -0.058526836 -0.08228154 0.09699907 -0.016823648
-0.08725259 0.09375106 0.04476931 0.241774 -0.015685122 -0.005385708 0.0018163243 -0.04147297
0.01840474 -0.00044785484 0.02630044 0.21984567 -0.03515349 0.0040895185 -0.08057154 -0.1290507
-0.030388227 0.007228377 -0.029156374 0.03986003 -0.034941252 -0.0019855727 -0.02985802 0.019234411
0.19637108 -0.14217621 0.031196443 -0.122447245 0.058390614 0.0645804 -0.008486484 -0.00053425087
0.028063694 0.044529654 -0.01651928 -0.056701805 -0.20717844 -0.14857721 -0.08921951 0.041456882

transformer.h.0.ln_2.weight f4 [12]
00000000: 485f c440 5d6e aa40 45de 8340 4d24 a740
00000010: 7a30 9b40 f7ab ae40 8756 b340 2cb2 7740
00000020: 3914 9440 6ff2 bb40 0fa8 cb40 6983 c240
6.136631 5.325972 4.1208825 5.2231812 4.8496675 5.458492 5.6043124 3.8702497
4.6274686 5.873344 6.364265 6.0785413
